python/pong/policies/cart.pt (torch, 39895 bytes, 11 tensors)

critic.0.weight f4 [64, 4]
00000000: 1a7c a23d d695 f4bd b267 4b3e 8200 a0be
00000010: 3c50 a03d 8fd5 b03d 55cd 87bd 7a51 693d
00000020: fc29 823d 33b8 113e 27b0 e4be e3cb 92bd
00000030: 938e 923d aa2d 943d 90b0 3fbe 08f7 6e3d
00000040: 71e6 193e 284c 223d 9e1b b43d 1399 393c
00000050: 16ef c13d 0fd0 2cbe 7f50 cabd 298a b9bc
00000060: b86d d53d a307 9b3e 17a8 efbd 56d1 9f3e
00000070: 7274 263e a685 37be e8d7 0dbe c1af babd
00000080: 0656 07be bf19 e43d a541 083d 081c 65be
00000090: 519d 68bd 62f5 26be 791a 6ebd cb10 af3e
000000a0: 33ab a33e ff74 8d3e 4b97 31be 2531 c03d
000000b0: 668d 9cbe 0f6d 11bd 735c 723c 89c1 ae3e
000000c0: aa88 13bd cad7 8a3d 87b9 e93e 98f9 a33e
000000d0: b2ac 343d 57e1 0d3e a96b a6bd 5b9b 303e
000000e0: e73d a8bc 4097 6ebe 3758 5fbe 5719 0d3d
000000f0: 6091 cebd 9767 103e 61cc 8fbd 078e 52bd
00000100: dfa5 e73d e822 7bbd 6ae6 71bd 078e d23c
00000110: 8189 813e f3ba 7ebe be40 27be 1369 5fbd
00000120: 9728 29be de7b c0be 60ac f53c 8724 4f3d
00000130: 9d97 2b3e bdb2 59bd 4a77 80be 4062 433e
00000140: 492e 793b f4da 61be 3960 f0bd 76e2 03be
00000150: 5c9a 253e cadb 0fbc 57ae 59bd b86e 4f3c
00000160: 0440 463e 1748 8bbe 0862 3e3e 4b28 f93d
00000170: 4b50 cdbc 56cd 8cbd d1c5 45bb 2d5f fc3d
00000180: e1b3 f43d 9988 65be 99b4 14be 9adc c13d
00000190: 30d8 a0bd d1eb 0dbe 91ae 6e3d d947 babe
000001a0: 86cc b6bd a353 abbd efa3 c33d ed7d f6ba
000001b0: e333 313e e205 25be bb95 0abe d178 eb3d
000001c0: eb01 b6bd 1422 873e 459e 01be 1be5 aa3e
000001d0: 5ba9 163e 76ad 83bd 4536 f93d 61bf 3c3e
000001e0: 80c5 f33d 4a69 94be f33e c23c 02c9 98be
000001f0: 2ee7 7ebc 758b 723e c31b f63d 9af4 bbbd
00000200: a3d2 6fbe bdba c13d 483e 00be b297 1f3c
00000210: 6b8d 90bd ba50 07be c8a1 eabd d7c7 103e
00000220: 6390 8b3e 3deb 0fbd 03a0 62be 62be 713d
00000230: a8c5 4b3c bdd8 fdbd a8ea 8ebe 7d7a 4d3e
00000240: e3be 3b3e 0b3e eebd 92f9 75bd b1ca 6bba
00000250: 33fe d03c 2b5f 713e 1d0d b4be 916d 33be
00000260: 405c 3abe 994e d83d 10f7 f73d 73c5 02be
00000270: dbe7 f83e ca84 923e 9fd5 563e b78d debd
00000280: 611d 8e3e 7531 ac3d 3279 45be 0964 83bd
00000290: d3b1 b7bd 1a0a febd 30c2 95be 6ee2 67be
000002a0: c682 9fbd 3860 dd3c 5159 efbd 839d 4fbe
000002b0: c182 a1bd 5720 133d 9798 a93d 0706 75ba
000002c0: c748 4c3e 3886 73bd 6e9e 673d 77b3 b83c
000002d0: 852c 06be e8c6 4bbd 6d25 77be 6a6f c33e
000002e0: ff46 24be 5d60 ebbe 4cc4 9a3e 6048 adba
000002f0: c4df d53d 1bf6 d33d 4d06 1bbe f593 0b3e
00000300: 8b63 6dbe 4cea d13d ef39 a8bd b254 503d
00000310: 446a 863e dd7e 10bd a7b2 6ebe df0f 2dbe
00000320: b268 b23d b58d ffbd c120 363d 1872 e5bd
00000330: bdfc 98be 93df d73c b53d 95be 2d82 f6bd
00000340: 4adb 7d3e 8d09 77be 1398 033e f9c2 163d
00000350: 9aa6 763d 58a8 00bf 3d90 80be ae36 9bbe
00000360: 328d 393d fbba 96bd a7e0 8e3e 7a02 06be
00000370: 1d0f 323e bacc 383d 5720 5d3e 37c7 eabd
00000380: e379 96be b3d9 763d 9907 5cbe f822 6a3e
00000390: acbd d3bd c88a b5bd acec e1ba 10bc 983e
000003a0: 7897 af3e fc5a 9cbe df83 393e 6a82 8c3e
000003b0: 9a7a b4be b2b5 803c a660 d5bd f1b3 97bc
000003c0: 231b 9f3e f0ef de3e e273 f0bd a186 763e
000003d0: 8c09 0b3d e487 9dbd 8912 ae3d a7d1 fabd
000003e0: c978 ab3d 2991 813d 9cf8 713e ac6e b23b
000003f0: 509a b73d 6d38 17be 207e f7bc 1609 b03d
0.07933827 -0.119426414 0.19863775 -0.31250387 0.078278035 0.08634483 -0.06630961 0.056962468
0.06355664 0.14230423 -0.44665644 -0.071677946 0.071561 0.07235272 -0.18719697 0.058341056
0.15029313 0.03962341 0.0879433 0.011328 0.0946943 -0.16876243 -0.09878635 -0.022648888
0.10421318 0.30279264 -0.117019825 0.31214398 0.16255358 -0.17922077 -0.13851893 -0.09115554
-0.13216409 0.11137723 0.03326573 -0.22373974 -0.056790654 -0.16304544 -0.058130715 0.341925
0.31966552 0.27628323 -0.1734287 0.093843736 -0.30576628 -0.035504397 0.014792549 0.3413203
-0.036019005 0.0677944 0.4564936 0.32026362 0.044110008 0.13855492 -0.08126003 0.17246763
-0.02053733 -0.23299885 -0.21810995 0.034447994 -0.10086322 0.14102016 -0.07021404 -0.05140498
0.11310934 -0.061312586 -0.05905763 0.02570249 0.2530022 -0.24876003 -0.16333291 -0.054543566
-0.1651939 -0.37594503 0.029989421 0.050571945 0.16757055 -0.053148974 -0.2509101 0.19080448
0.0038021973 -0.2205618 -0.11737103 -0.12879357 0.16172165 -0.008780429 -0.05314478 0.012660675
0.19360358 -0.27203438 0.18592083 0.121658884 -0.0250627 -0.06875102 -0.0030177722 0.12322841
0.11948372 -0.22415389 -0.14522018 0.094659045 -0.078537345 -0.13859488 0.05827195 -0.3638294
-0.089257285 -0.08365562 0.09552752 -0.0018805839 0.1730495 -0.16115525 -0.1353368 0.11497653
-0.088870846 0.26393187 -0.12658031 0.3337792 0.14713041 -0.064295694 0.12168554 0.1843238
0.119029045 -0.2898658 0.023711657 -0.29840857 -0.015558047 0.23686011 0.12017014 -0.091775134
-0.23420195 0.094594456 -0.12523758 0.009740757 -0.07058223 -0.13214388 -0.114566386 0.14138733
0.27258596 -0.03513645 -0.22131352 0.059019454 0.012437262 -0.12394855 -0.27913404 0.20066257
0.18334536 -0.116329275 -0.060052462 -0.0008994742 0.025511837 0.2357146 -0.35166255 -0.17522265
-0.18199253 0.10561866 0.1210767 -0.12770633 0.48614392 0.28616935 0.20979927 -0.10866874
0.2775679 0.08407871 -0.19284514 -0.064155646 -0.08969464 -0.124042705 -0.29249716 -0.2264497
-0.07788615 0.02702342 -0.11686958 -0.2027493 -0.078862675 0.035919514 0.08281057 -0.00093469064
0.19949637 -0.059454173 0.056547575 0.022546513 -0.1310292 -0.04975024 -0.2413537 0.3817094
-0.16042708 -0.45971957 0.30227888 -0.0013220422 0.104430705 0.10349675 -0.15139122 0.1363066
-0.23182504 0.10249767 -0.08214175 0.05086202 0.2625295 -0.035277236 -0.23310338 -0.16900586
0.08711375 -0.124782 0.04446483 -0.11203402 -0.29880324 0.026351726 -0.2914864 -0.12036548
0.24790683 -0.24124737 0.1285098 0.036807034 0.060217477 -0.5025687 -0.25110045 -0.30315155
0.04530067 -0.073598824 0.2790577 -0.13086882 0.17388578 0.045117117 0.21594368 -0.114637785
-0.29389867 0.060266208 -0.21487273 0.22864902 -0.103389114 -0.08864361 -0.0017236671 0.2983098
0.3429525 -0.30538166 0.18116711 0.27443248 -0.35249788 0.01571164 -0.10418825 -0.01851842
0.3107539 0.43542433 -0.11740853 0.24074794 0.03394465 -0.07691935 0.08499629 -0.12247019
0.08372647 0.06326515 0.23629993 0.005445322 0.0896498 -0.14767618 -0.030211508 0.08595483

critic.0.bias f4 [64]
00000000: f46e 383d 5a8c 953d 0f7a 9f3d adfd 8e3d
00000010: 08e5 893d e693 6abd 1f78 853d d4b4 8abd
00000020: 3c9a 5b3d ba01 58bd f317 973d 9264 913d
00000030: 35ef 6f3d 1cd2 773d 055e 89bd 8727 67bd
00000040: cc77 75bd 1498 aabd b360 273d 7503 813d
00000050: 877e 81bd 18c3 a53d 4142 cbbc 6d74 69bd
00000060: ecf9 593d b286 99bd d4b0 803d 47f3 52bd
00000070: 3018 a23d 729c 86bd 9171 8fbd 51d7 613d
00000080: 59ef 75bd 2b82 5e3d ab63 753d 9b11 7b3d
00000090: 76a8 8d3d 68aa 8f3d c958 813d a541 563d
000000a0: 68b0 2abd 7e7a 5ebd 43c3 823d 0ae2 903d
000000b0: b2af 783d db24 893d 1195 9dbd 8224 9e3d
000000c0: 192c 7e3d 07b1 86bd edc9 71bd af14 99bd
000000d0: 5d32 76bd 38bd 8abd 1041 96bd f611 81bd
000000e0: 1263 643d 96db 583d 02f9 83bd 7ef3 733d
000000f0: 08ae 933d 4776 80bd 3635 8abd 5aa8 75bd
0.04502769 0.073021606 0.07786953 0.069819786 0.06733137 -0.057269953 0.06517052 -0.067727715
0.053613886 -0.05273602 0.07377615 0.070992604 0.058577735 0.06050311 -0.06707386 -0.05643418
-0.0599287 -0.08329788 0.040863704 0.062994875 -0.06322961 0.08093852 -0.024811866 -0.056995798
0.05321686 -0.07496394 0.06283727 -0.05150154 0.0791477 -0.06572808 -0.07004083 0.055136982
-0.060042713 0.054323357 0.059909504 0.061296087 0.06916897 0.07014924 0.063157625 0.052308697
-0.04167214 -0.054316036 0.063848995 0.070743635 0.06071443 0.06696483 -0.07694448 0.07721807
0.062053774 -0.06576734 -0.059030462 -0.07474648 -0.060106624 -0.06774372 -0.073366284 -0.06302254
0.055758543 0.05294379 -0.06443979 0.059558384 0.07210928 -0.062725596 -0.067484304 -0.059975006

critic.2.weight f4 [64, 64]
00000000: 1c74 78bd c67e b43d 2194 673e 04da 9cbd
00000010: c8d1 26be a7aa 403e ad74 a9be 8536 233e
00000020: 1ebb c03e ecd8 553e 18ae 34be baf6 64bd
00000030: 6ea2 da3e d8aa 80be a6e9 873e cec7 6dbc
00000040: 31d8 37bb 2f85 c23d 37ef b1be 0879 43be
00000050: 15ec 883d 8937 0bbf bd35 6abd 775c e53d
00000060: 71ba 22be 2259 eb3e b263 a2bd 13f3 ac3d
00000070: ed6e 1cbe 9c7f 183e b343 153e c63b e1bd
00000080: 8638 cdbd f5c5 c1bd 1052 263d dad1 613d
00000090: 8bcf 19be 9fb9 133e 6b9a 8a3e e248 3cbd
000000a0: a714 84be 4712 563e 5e21 98bd 3f53 13be
000000b0: 7154 dbbd c9c2 1ebe 7d12 01be 9ed2 cabd
000000c0: 3b6d 6bbe 70ad 353e 5dca 903d 5817 acbe
000000d0: dfca d63d 2182 0dbb b781 edbb 276b b53d
000000e0: 0299 36be f517 ba3d 1db9 1dbe 2ad3 a63c
000000f0: 57cd 863d 8a61 143e 7870 913d 57db 593e
00000100: 6ac4 82bd 3e91 873e c79d 633e 6ed7 b63e
00000110: b1f7 c9bd 80be 87be 48a0 9e3c 8cb3 b5be
00000120: 6d30 053e 47f8 9bbe fa70 343e d383 ea3d
00000130: a683 883e c25f 383e 4ad0 95be 9226 20be
00000140: 7436 a4be 0f90 7abd 831a 8f3b 0c00 d9bd
00000150: 6bb3 9dbd d131 993d c600 fdbc 007e 39b8
00000160: 69ed 5f3e a805 c93b c0d0 e23d 1fb2 283f
00000170: 1abc 123d 33d3 d23d 9f04 04be 5444 a7bd
00000180: ae05 8f3e 7437 be3d 6c82 b93e b46d fd39
00000190: ef6e 333e 5f8b febd 5759 0f3e ce5a d13d
000001a0: a73f dabc 8d01 553d 793b 1f3e 7fd2 2f3d
000001b0: 86f4 90bc ad2c 14be a81d c13d 36e6 5e3c
000001c0: 1a9b 9ebc 3ba9 93be c9a7 c13b 3eb7 1dbe
000001d0: e7aa a3be 7b95 cfbd aad1 493d 11b8 0ebe
000001e0: 72bf 113e 581c 25be 68a3 453d 57de 9fbe
000001f0: 1d74 c3bd ce55 dfbd e9da a4bd a52d 56be
00000200: ed28 f9bd f3b7 8cbe caf2 1e3e b9c6 d93d
00000210: 0e99 3ebe dbbc 883e 3b60 08bf c481 2cbe
00000220: b721 b3be b97c 3f3e c16b 373e ffa0 4fbd
00000230: 6609 0abe 1692 26be c62a 1b3e 8b34 2e3e
00000240: df07 3b3d 0790 033e 35d0 33be 895c 4abe
00000250: e96e ad3d c9a3 bbbd fd6c 333d d480 71bd
00000260: e97b 0abe 0619 d23d 4f36 0b3e 910a f93d
00000270: 4055 f6bd 9114 e3bd 61cb dabd 3761 b03d
00000280: 9455 383e 0191 67be acaf b03d c10e 5abe
00000290: fe79 0cbe e563 cbbd d6ba 3bbe 108b 763d
000002a0: 5555 8ebe 093e 7d3d 8493 f0be d977 c53d
000002b0: a8be f9bd 1740 2c3e 5371 5d3e 1fc2 f3bd
000002c0: 2921 173e 3ee0 aa3e 003f 1abe 8492 783e
000002d0: 3dc0 7dbd 09e0 da3d 59c0 973c 22ea 6c3e
000002e0: 0e04 00be 32a2 b0bd 98a4 51bd c975 c0bd
000002f0: e508 0ebf 64e6 d2bc 617f da3d 70d4 e53d
00000300: bf28 dbbc ada0 213e e5b0 973e 7d31 0a3e
00000310: c385 1c3d c9c6 753e c3cf 323d de99 703c
00000320: a656 a9be b3a6 b93d 37e9 19bd 2e6e 8e3c
00000330: ffb1 303d 65db 2dbd 3dae 2cbe e4d4 68be
00000340: 913e 8fbe f16f 6c3d 915b 01bd 2a5f ab3c
00000350: 959e 89bc 602a 403e f679 a8bb 71e1 b83d
00000360: 65cd 193e 32ab 73be f667 953e 498c 18be
00000370: 29db 743d 916c 38be 22de aa3e bd09 0c3e
00000380: 9cb6 56be c4a6 19bc 6eb6 a63e 63ac 903e
00000390: f0b8 eebd 3cf9 b33d c054 2f3e 0abf d63e
000003a0: ee74 9c3e 0869 b6bd 9439 893e b19f 61be
000003b0: 3981 55be 1676 203e a79b 423e c51a 25be
000003c0: 32fc b4bc 6c83 333e 3024 71bd 54dc c3bd
000003d0: 6436 223c f4e4 9abd 99ed 4abe 3c15 23be
000003e0: f19d b9bd 1d77 afbd 2eda 5ebd 8dd7 d63c
000003f0: 0459 2a3e cb78 5fbd f5b6 cf3e 2ef3 88be
-0.060657606 0.088132426 0.226151 -0.07658771 -0.16290963 0.18815099 -0.3309683 0.15938766
0.3764276 0.2088353 -0.17644536 -0.05589936 0.4270205 -0.25130343 0.26545447 -0.014512969
-0.0028052444 0.09498059 -0.3475282 -0.19089139 0.06685654 -0.54381615 -0.057180155 0.11199277
-0.15891434 0.4596644 -0.079291716 0.084448 -0.1527669 0.14892429 0.14576606 -0.10997729
-0.100205466 -0.094615854 0.040605605 0.05513177 -0.15020578 0.14426278 0.27070937 -0.045967944
-0.25797006 0.2090541 -0.07428239 -0.14387225 -0.10709465 -0.15503992 -0.12604709 -0.09903453
-0.22990887 0.17741942 0.07069848 -0.3361156 0.10487913 -0.0021592455 -0.007248129 0.08858328
-0.17831805 0.09086601 -0.15402646 0.020364363 0.06582134 0.14490333 0.0710153 0.21275078
-0.06385119 0.26477998 0.22228156 0.35711235 -0.098616965 -0.26512527 0.019363537 -0.35488546
0.13006754 -0.30462858 0.17621222 0.11450925 0.2666294 0.18005279 -0.29260474 -0.15639713
-0.32072794 -0.06117254 0.004367174 -0.10595712 -0.07700237 0.07480205 -0.030884158 -4.4224784e-05
0.21867909 0.0061347075 0.11074972 0.6589679 0.03582392 0.10294189 -0.12892388 -0.081673294
0.2793402 0.092879206 0.36232316 0.00048337656 0.17522787 -0.12428927 0.13998924 0.10222398
-0.02664168 0.052003432 0.15550031 0.042925354 -0.017694723 -0.14470167 0.094294846 0.013604691
-0.019361068 -0.2884005 0.005909894 -0.15401933 -0.31966326 -0.10135933 0.049272217 -0.13937403
0.14233187 -0.16124094 0.04825154 -0.3122432 -0.09543631 -0.10905038 -0.08049566 -0.2091585
-0.12166009 -0.27484092 0.15522304 0.106336065 -0.18613073 0.26706585 -0.53271836 -0.16846377
-0.3498666 0.18699922 0.17912199 -0.050690647 -0.13480148 -0.16266665 0.15153036 0.17012231
0.045661803 0.12847911 -0.17559893 -0.19761862 0.0846842 -0.09162099 0.04380511 -0.05896075
-0.1352383 0.10258679 0.13594936 0.121602185 -0.12027979 -0.11087907 -0.10683323 0.08612292
0.18001395 -0.22613908 0.08627257 -0.2129469 -0.13718411 -0.09931163 -0.18332991 0.060191214
-0.27799478 0.06182674 -0.46987545 0.09642 -0.12194568 0.16821323 0.21625261 -0.1190226
0.14758743 0.33374208 -0.15063095 0.24274641 -0.06195091 0.106872626 0.018524336 0.2313619
-0.12501547 -0.08624686 -0.05118236 -0.09397466 -0.5548232 -0.025744624 0.10668827 0.1122216
-0.026752828 0.15783949 0.29627147 0.13495441 0.038213503 0.24001612 0.04365517 0.014685122
-0.3307392 0.090649985 -0.037575927 0.017386522 0.0431385 -0.04244556 -0.16863342 -0.22737461
-0.27977422 0.057723943 -0.031581465 0.020919401 -0.01679925 0.18766165 -0.005141492 0.090273745
0.15019758 -0.23795775 0.29180878 -0.14897265 0.05977932 -0.18010165 0.333726 0.1367559
-0.20968097 -0.009378139 0.32561058 0.2825652 -0.11656368 0.08787772 0.17122173 0.41942626
0.3055796 -0.08906752 0.2680174 -0.22033574 -0.20850076 0.15670046 0.19004689 -0.16123493
-0.022092912 0.17530602 -0.0588724 -0.09563509 0.009900663 -0.075632006 -0.19817199 -0.15926069
-0.09063328 -0.08567641 -0.05440729 0.02622583 0.1663552 -0.054558557 0.40569273 -0.2674803

critic.2.bias f4 [64]
00000000: 614f 47bd f903 6c3d 2b1a 41bd c3e4 603d
00000010: 8d7d 52bd b327 a1bd c250 423d 6a92 6a3d
00000020: bb7b 2ebd 80f5 62bd c19b 473d f85f 43bd
00000030: b0e3 5a3d 733d 553d 6ff2 5e3d 1d3e 553d
00000040: 586c 43bd 6599 3b3d 2caf 3bbd b271 4a3d
00000050: c240 493d 8fc4 4fbd 27fe 343d 3d08 5c3d
00000060: 898a 3d3d e9fc 703d 03bc 46bd bac1 493d
00000070: 242f 3f3d c9e4 51bd 99e9 9ebd 6e6a 6cbd
00000080: 003b 41bd 4f48 5d3d f2f9 473d 29cc 843d
00000090: 5253 45bd c473 4a3d 7cce 61bd 30da 8abd
000000a0: 7dde 423d b38e 4a3d df36 473d 60a8 663d
000000b0: f720 40bd a20f 44bd 6b1e 3cbd 4fae 8a3d
000000c0: b843 5f3d 11a8 3bbd 7857 5fbd 8d3f 3e3d
000000d0: 9941 5cbd a510 44bd 2702 44bd 93d2 22bd
000000e0: cdee 40bd 75ad 3ebd 9be5 413d bf4d 933d
000000f0: 6a2b 84bd 9bbb 3f3d c683 563d d18c 613d
-0.048659686 0.057620976 -0.047144096 0.054905664 -0.051389266 -0.078689 0.047440298 0.057268538
-0.042598467 -0.05540991 0.048732523 -0.047698945 0.053439796 0.052060556 0.05443042 0.05206119
-0.047710747 0.045800585 -0.045821354 0.049424835 0.049134023 -0.050724562 0.04418769 0.053718794
0.046274696 0.058834944 -0.048519146 0.049257018 0.046675816 -0.051243577 -0.07759399 -0.057718687
-0.047175407 0.054024037 0.04882235 0.06484253 -0.048175164 0.04942681 -0.05512856 -0.06779897
0.047575463 0.049452495 0.048636314 0.05631292 -0.046906438 -0.04786647 -0.045927446 0.06771528
0.05450794 -0.045814577 -0.054526776 0.046447325 -0.053773496 -0.047867436 -0.047853615 -0.0397516
-0.04710274 -0.04655214 0.04733811 0.07192563 -0.06453593 0.046809774 0.052371763 0.055065934

critic.4.weight f4 [1, 64]
00000000: f5ce 22be e9cc f23d d01d 76be 8f96 e43d
00000010: 0891 0bbe 4786 88bd 1aeb 043e a076 ca3d
00000020: 8ad7 a1bd d00f ecbd b551 383e b396 4cbe
00000030: 6092 093e 3920 af3d 1c85 823d e71f eb3d
00000040: 5378 60be 3cb4 853e 83aa c4be e8d8 203e
00000050: 2612 2f3e 9b89 25be 8352 e23e efc0 df3d
00000060: b29e 5e3e 865f c53d d402 19be a1d4 073e
00000070: 79b2 273e ce23 1cbe b807 a0bd ce81 adbd
00000080: 9de1 58be e268 ed3d d6ed 1f3e b8e4 a13d
00000090: f956 2cbe 7441 053e c0ae cabd 63e3 a5bd
000000a0: a029 583e f93b 283e 0fc8 093e 7418 da3d
000000b0: 7c9f 7fbe f16f 51be 4bb9 a0be 6055 b03d
000000c0: c678 e53d 288c b8be 8599 cbbd e1ef 063e
000000d0: e95b 00be 00ac 4abe 7e6d 0ebe 9f04 2dbd
000000e0: ab7d 78be ce38 8bbe 6d54 3b3e aec9 4e3d
000000f0: 5635 c6bd 367e 6f3e e199 ef3d 5dce f93d
-0.1589926 0.1185549 -0.2403481 0.11161529 -0.13629544 -0.06666236 0.12980309 0.09885907
-0.07902439 -0.115264535 0.17999919 -0.19979362 0.13434744 0.08551068 0.06373045 0.11480694
-0.219209 0.2611407 -0.3841134 0.15707743 0.17096767 -0.16165774 0.44203576 0.10925471
0.21740225 0.0963736 -0.14942485 0.13264705 0.16376676 -0.15248033 -0.07813972 -0.08472024
-0.21179815 0.115922704 0.15618071 0.07904953 -0.16830052 0.1301325 -0.09896612 -0.08100011
0.21109629 0.16429128 0.13455223 0.10649195 -0.24963182 -0.20452859 -0.31391367 0.08610034
0.11204676 -0.3604443 -0.09941391 0.13177444 -0.12535061 -0.19792175 -0.13908955 -0.042240735
-0.24266689 -0.27191776 0.18293925 0.050485305 -0.09678142 0.2338799 0.11699272 0.12197564

actor.0.weight f4 [64, 4]
00000000: 1fb2 b13d 6dce 8e3d 3847 493e bf0a 8bbe
00000010: 4459 67be 87bf 69be 1d9f 863e 5708 42be
00000020: 396c b63c a166 3ebd 2988 45bd ecff edbb
00000030: 48be 15be d739 33be 46da 5cbc 2e99 5fbc
00000040: f7ea 04bd cdab b5bd 716f 6ebe ed8c 1d3e
00000050: 494b 453d 6af2 763e 5c36 773e be27 273e
00000060: 90e6 3abe 0ac8 de3d df4d 8abd 7cc4 573e
00000070: f826 4bbd 5ffb 153e 5d88 e73d 392c 2e3e
00000080: 17f4 583d 71ad 1bbd 7233 433e 45c6 153e
00000090: 47e1 b23e ed60 c83d 1b0f be3d c0f3 4ebe
000000a0: a28a 0cbe 2d20 56be af80 9e3e 78d3 0abd
000000b0: 4cad a03d c59e 1c3e b1c2 c63e 8a04 493e
000000c0: f1c2 39be 36e8 4fbe e822 bf3d 5f74 c13e
000000d0: 4378 75be 20b9 833e b991 423d 21b4 a6bd
000000e0: 3510 5cbe 9f2f d03d de8f 873d 70aa 41be
000000f0: 1d00 bf3e 1518 143e d416 86bd ef8d 7abe
00000100: 24ac 1e3e e73a 653e 3413 91be fb6a f93d
00000110: 3aa9 de3c 0602 88be db8f d5bd 96c6 d5ba
00000120: 8a3f 643e 8db8 613e a464 e2bd 1d04 d5bd
00000130: dd08 4bbe f1fd 94be b2bf 29be 222b 863d
00000140: b8f3 73bd ff79 35be 958a 9a3d 21ed 7bbd
00000150: 8a4e bb3c db7d 1ebd 7e5a 75be 5764 a8bd
00000160: d6db d93e adec 69be 9c18 593d 83a5 a4bd
00000170: f9ea 70bd 4673 1cbe c642 a53e f83c 143e
00000180: b272 6e3e b6d7 45bd 37cd a43d 86ac 3b3d
00000190: fa3f 35be 4c7b 38bb fc17 06bd 1b8d 40bd
000001a0: 8f34 d7bd 6972 993e 7e73 0abe bd62 1fbe
000001b0: ffbb e03d e63a 453e a151 a8bc e590 153d
000001c0: a79c 88bd 4dfe 9d3d 88cc 5fbe b902 9d3c
000001d0: 796a e9bd c945 42be aa94 71bd dfb4 9ebd
000001e0: b049 863d 8bb5 02bf 5087 42bd b910 32be
000001f0: 60cd 3b3a ee73 0e3e 6310 59be eb27 f33e
00000200: 8864 8abe 689c c33d 3026 39bd 4736 123b
00000210: 1348 a73d dd17 91bc 18a7 343d 3e2c 0fbe
00000220: 5f1c 1a3e 2b60 153d b610 e33c fc3b cf3e
00000230: aa18 0d3e d868 853d c4ac cabd 23e2 d3be
00000240: 568a 133d db47 303e 6143 2cbe 9d69 d0bd
00000250: f913 e5bd 7b34 e5bc ce1e 25bd d5f3 a5bd
00000260: 2ddd 9ebe 26a0 d7bd 3ed9 563d 7345 683d
00000270: be8b c03c 3dd7 98bd 194b 443d ed22 393e
00000280: 1fcc 283e 6ff5 1e3d 5bd5 8d3c c82a ae3b
00000290: 4ec9 c9bd ae86 013e 27f0 9d3e d2c5 cc3d
000002a0: 9a76 15bd 2e91 6a3b ef07 a7bd 4450 033e
000002b0: aec7 433e 686a 2b3c ef39 163d 3470 2bbb
000002c0: 0a87 3b3e 33ca 123d e04d 5dbe df65 4b3d
000002d0: e511 39be e26d 12be bf1f 463d 3b4c 833d
000002e0: f161 a63c ba74 ddbe 1bd7 7a3e 6221 7f3e
000002f0: 5a1a 25be 8348 bf3c 611e ffbd 7f7f 0b3e
00000300: bf01 123f 1106 96bd fcdd bc3d 80e2 873e
00000310: db7f 3a3e fd44 b1bd 8813 56bd d412 cfbe
00000320: 2958 ff3d 34a5 033e f98d 83be ec0a 763e
00000330: 2da0 0bbd 7534 04bd 959c 38bd 90b3 64be
00000340: af15 173c e34f 8bbe 083b bf3b 3cd6 09be
00000350: 6805 d33c 919a d3bd a9ea ea3b f531 fc3d
00000360: 901d 4dbe c303 393e f011 0dbd 8f64 2e3e
00000370: cb76 c93d 6089 f3be 693a ddbe 4128 14bd
00000380: 2f8a 4c3e f1a3 863d 9c73 703e 612d 263e
00000390: bcef 60be f959 513e 5c89 a73e 8398 48bd
000003a0: 26f1 403e 254e f63d 7f1c d0bd 2a64 4ebd
000003b0: 2720 a0be 4625 533e c04e 9bbe 4d31 29be
000003c0: 96b0 d43d c9e9 853e ed53 fc3e f1d7 d0bd
000003d0: 720e 513e cc70 673e 6a1d 09be bd19 173e
000003e0: a0c0 fcbc 355e 25bd 6a1d 213e d640 15bd
000003f0: 50d8 08be 4c27 dbbd ce60 0a3e b0ba 82be
0.08676552 0.06972966 0.19656074 -0.27156636 -0.22592646 -0.22826968 0.2629327 -0.18948494
0.022268401 -0.046484593 -0.048225556 -0.0072631743 -0.14623368 -0.17502533 -0.013479775 -0.013647361
-0.032450642 -0.08870659 -0.23284699 0.1538579 0.0481675 0.24115911 0.2414183 0.16323754
-0.18252015 0.10877998 -0.06753134 0.21071047 -0.04959771 0.14646672 0.11305306 0.17009057
0.052967157 -0.038007203 0.19062594 0.14626415 0.34937498 0.09784112 0.09280225 -0.20210171
-0.13724759 -0.20910712 0.30957553 -0.03389308 0.07845554 0.15294941 0.38820413 0.19630638
-0.1814077 -0.20303425 0.0933283 0.37784097 -0.23971657 0.25727177 0.047502253 -0.081398256
-0.21490557 0.10165333 0.06619237 -0.18912673 0.37304774 0.14462312 -0.06547323 -0.24468206
0.15495354 0.2238575 -0.28334963 0.12178608 0.027180303 -0.26564044 -0.10427829 -0.0016309794
0.22289863 0.22043057 -0.11054352 -0.10401175 -0.198276 -0.29099992 -0.16577032 0.06551196
-0.0595586 -0.17722319 0.07545964 -0.06150544 0.022864599 -0.038694244 -0.23960301 -0.08222263
0.42550534 -0.22844191 0.053001985 -0.08039381 -0.058817837 -0.15278348 0.32277507 0.14476383
0.2328594 -0.04830142 0.08046954 0.045818828 -0.17700186 -0.0028149663 -0.032737717 -0.04700957
-0.10508072 0.299701 -0.1352062 -0.1556501 0.109733574 0.19260749 -0.020546736 0.036515135
-0.06670504 0.0771452 -0.21855366 0.019166337 -0.11397261 -0.18971933 -0.058979668 -0.07749342
0.065570235 -0.5105826 -0.047492325 -0.17389192 0.0007164087 0.13911411 -0.21197657 0.47491392
-0.27029824 0.095513165 -0.045202434 0.0022310184 0.08168044 -0.017711574 0.044104666 -0.13981721
0.15049885 0.036468666 0.02771793 0.40475452 0.1377894 0.06514138 -0.09896234 -0.41383466
0.0360206 0.1721491 -0.16822578 -0.10176394 -0.1118545 -0.027979126 -0.04031258 -0.08103148
-0.3102812 -0.10528593 0.052453272 0.056706857 0.023504134 -0.074629284 0.04792318 0.1807973
0.16484116 0.038808282 0.01731365 0.0053151585 -0.09852849 0.12649032 0.30847284 0.09998669
-0.03649006 0.00357921 -0.0815581 0.12823588 0.1911914 0.010462381 0.036676344 -0.0026159408
0.18313232 0.035837363 -0.21611738 0.0496577 -0.18073232 -0.1429973 0.04837012 0.06411024
0.020310374 -0.43253118 0.24496119 0.24915078 -0.16123334 0.023350006 -0.12456966 0.13622855
0.57033914 -0.07325376 0.09222028 0.26539993 0.18212835 -0.086557366 -0.05226472 -0.40444052
0.12467987 0.12855989 -0.25694254 0.24027604 -0.034088302 -0.03227659 -0.045071203 -0.22334123
0.009221478 -0.27209386 0.0058358945 -0.1346063 0.025759414 -0.103322156 0.007169087 0.12314216
-0.20030808 0.18067841 -0.034440935 0.17030548 0.09837111 -0.47565746 -0.43208626 -0.0361712
0.19974588 0.06574238 0.23481601 0.16228248 -0.21966451 0.20444478 0.32721984 -0.04897357
0.18841991 0.12026624 -0.10161685 -0.050388493 -0.3127453 0.20619687 -0.3033352 -0.16522713
0.103852436 0.26154926 0.4928278 -0.101974376 0.20415667 0.22601622 -0.13390127 0.14755912
-0.03085357 -0.040373046 0.15733877 -0.036438785 -0.13363767 -0.10700855 0.1351349 -0.25533056

actor.0.bias f4 [64]
00000000: 9314 f83c 7ce7 c8bc f3ca c03c 336f c03a
00000010: 8e14 9dbc 2d8f 823c c6a8 11bd ae82 22bc
00000020: 6248 a4bc a602 0e3d fa72 cbbc 5eed eb3c
00000030: 5eac 27bd 1b1f 6c3c 5968 d8bc 5550 1b3d
00000040: bbce 953c 4392 c8bc 6937 003d 7498 cdbc
00000050: 5827 c1bc 556e ae3c b2ce 83bb a8cf 09bd
00000060: 2076 cd3c ed20 edbc 3d88 fb3c d74a 9e3c
00000070: 3c6f 013d 5e4a d9bc 098e 49bc ba37 4fbc
00000080: f740 e4bc 785e ee3c d78b d33c 03e9 2d3d
00000090: 7f00 e73c 25b1 a2bc 688a ebbc 7e47 00bd
000000a0: 830f b9bb a1f1 ffbc 452c 9dbc d88c 303c
000000b0: 7738 f43c 2597 03bd e8f7 1cbd ce79 edbc
000000c0: 780b bd3c 9802 a33c 5ee5 553c f549 0c3d
000000d0: d579 73bc 5594 dfbc e8d7 97bc 0a8a 2bbc
000000e0: e25e 323c c8fb 67bc 22f5 c73c 2d27 f13c
000000f0: 7262 a33c b9ee b93c 287e 413c 3ba4 aebc
0.030283248 -0.024524443 0.023534274 0.0014681577 -0.01917484 0.015937412 -0.035561346 -0.009918852
-0.020054046 0.034670494 -0.024835099 0.028799709 -0.040935867 0.014411713 -0.026416944 0.037918407
0.018287053 -0.024483806 0.031302843 -0.02509711 -0.02357833 0.021292845 -0.0040224427 -0.033645302
0.02508074 -0.028946364 0.030704612 0.019322796 0.031600222 -0.026524719 -0.01230193 -0.012647564
-0.027863009 0.02909778 0.025823517 0.042458545 0.028198479 -0.01985986 -0.02875252 -0.03131818
-0.005647601 -0.031243147 -0.019186148 0.010775767 0.02981208 -0.032126565 -0.03832236 -0.028988745
0.023076758 0.019898698 0.013055174 0.03425022 -0.01486059 -0.02729241 -0.01853557 -0.010469923
0.01088688 -0.01415915 0.02440888 0.029437626 0.019944403 0.02269684 0.011809863 -0.021318546

actor.2.weight f4 [64, 64]
00000000: 7e83 6dbe e26f 133e 22bf 113d 6a5d af3c
00000010: d8b8 52be 0720 97bc eb69 863e 1036 163d
00000020: 27eb 70be 9737 c2bd d584 bf3e c445 fabd
00000030: 65ba f63d baa7 36be 77c5 a03d c315 02be
00000040: ebb6 373e 93a7 99bd 8c97 d0be 8e70 473d
00000050: 6170 bb3c cb86 54bc f711 a63d 7e59 b83d
00000060: a4db 9cbd 7cf9 46be 5941 193e a432 c13e
00000070: adad 2c3e 132f 88be 1471 cfbd 863c dc3b
00000080: 2271 db3d 5e4a d7bc 7a87 33be 6438 05bd
00000090: 8b2a ddbe 746f 36be c2a9 a03d 0dd3 4e3a
000000a0: 5fa5 28be d3a3 0a3e 04e6 f2bc e315 62be
000000b0: 490f 7e3d 96b2 ae3e 8d78 60be f7fd 4cbe
000000c0: 5503 83be aae4 d23d f112 2fbd 92b0 29be
000000d0: 0f8d 18bd 1ad3 083e 7ea2 d6be 820b d8bc
000000e0: 4faa 213d 69c4 1abe ac88 073e d2e9 6b3d
000000f0: 501c b13d d9a0 29be 746f 72bd 690b 4a3e
00000100: 4965 3aba b919 83be cb58 883c 2b06 103e
00000110: ea50 4dbd 55f1 9f3d e38f 8bbe c88d 983c
00000120: 7c1e ab3e 94e1 5c3d 5dff a6bd 91f2 79bd
00000130: d2d6 763d 725d e0bd 692f 6c3c 0383 6d3e
00000140: 9b55 11bd 7f38 893d 9c2e dfbe a67d 703e
00000150: c330 0abe dde1 dabe 2587 f5bc fde6 f0bd
00000160: 3733 19be 50ec 633b 2f19 6b3e a1e5 25bd
00000170: 8360 99be d902 0f3e d47f cabd 1a78 573e
00000180: f24c 43be fc4b a5bc c731 c73d 072f 7c3d
00000190: 9962 5c3e 4abe 83bd 7957 883d 0194 293e
000001a0: 5ce6 28bd 1db8 163e df16 d2bc b62e 64be
000001b0: e34b eb3d 0a90 f7bd 2c3d 443e 2903 623e
000001c0: f282 a6be 315b a4be e383 4ebd ce18 a2bd
000001d0: 96ed de3d 06fc 0b3e 23e1 37bd 85ec efbd
000001e0: 335a 5bbe f57b 2fbe 051f 593e e78c 30be
000001f0: dee5 aebc 46c3 1fbe ea6c 89be 1fb2 973e
00000200: 604c d43d 59a9 523d 43b8 f23c 4254 7ebe
00000210: 92ae 84bc 0124 90be 35ee 2b3e 161e 6eba
00000220: 3780 913d cb81 0c3d 9cb0 9ebd 9362 9abc
00000230: d01c 6a3d aee4 a53d 34bb b2bd 9934 233d
00000240: 325d 0bbe ab74 4a3e bcb5 53bd d243 b03c
00000250: 1c02 273e c1a0 4f3e 86b9 e13e a1a6 003e
00000260: ca3f 7bbe 7671 0d3d 08fd fdbb 9c3c 1c3e
00000270: 32ad 7ebe 1cf6 b13e c7ed b53e 2ca6 85be
00000280: a48c 93bd 1df2 68bd 8da2 a8be d13a edbd
00000290: 45b5 033e 94f4 aebe ce6d 54be f238 803d
000002a0: 3bd6 16bd 1b43 8ebe 1fbb 11be d633 94bd
000002b0: 0b78 2f3e 5688 08be 03e9 dbbd c6f1 da3d
000002c0: 6f1b 023d 9ec7 09be b5a0 2cbe 2e01 903e
000002d0: 7901 bfbd dc6f 54be 8cf7 a5be 716f 1b3e
000002e0: 217a a1bd 391f 56be 06a6 6ebc ff08 6c3e
000002f0: dc3c 5cba d482 8a3e b2cf 07be a21b 4c3e
00000300: ed0c 693d 37da d33d a0ae 77be 8008 07be
00000310: 2e76 123e 869b 0dbe fc51 cbbe a07e 78be
00000320: 433f 673e 3915 653e 6043 653e 8ecd aebe
00000330: 9cce 293e 1117 c33d ca4f 17bd dbc8 593e
00000340: 235b 4a3e f40b 1bbe b796 b53e 320c 173e
00000350: 86cd a13d 3249 0d3e e523 043d aa55 95bc
00000360: 6ab6 20be 1718 903d 36e9 863d 7218 35be
00000370: a2b9 e33c e024 0b3e d7c8 4d3d 7c0c debd
00000380: faa2 5c3e 1809 58be 22fe 9a3d 8558 9ebd
00000390: 65fe 003e 85f0 9bbd bf95 c53d 4673 b33c
000003a0: 4634 e9be aaa5 ac3e 7285 3d3e 528e b43d
000003b0: b3d9 e3bc ff7d 6b3e 42cd 5bbe 6c4b e0bb
000003c0: 5591 ecbd 3335 c4bd d906 39be f3f2 b9bd
000003d0: 7499 603d e0f1 d53d 2c19 9cbd dcc7 d43d
000003e0: 3d3b 423e 4463 18be d7c2 18bd 5b2c 953e
000003f0: 8740 54be 33e3 81be 18a8 06bd de23 48be
-0.23194692 0.14398149 0.03558267 0.021406848 -0.20578325 -0.018447889 0.26252684 0.03667265
-0.23527204 -0.09483259 0.3740603 -0.12220338 0.12047271 -0.1783742 0.078501634 -0.12703614
0.17940871 -0.07502665 -0.4074062 0.048691325 0.022880735 -0.01297159 0.08108895 0.09001444
-0.076590806 -0.19431108 0.14966334 0.37733948 0.16863127 -0.26598415 -0.1012899 0.006721082
0.10714938 -0.026280578 -0.17532149 -0.03252448 -0.4319652 -0.17815953 0.07844879 0.00078897254
-0.16469334 0.13539056 -0.029650696 -0.22078662 0.062026296 0.34120625 -0.21920986 -0.20018755
-0.2558848 0.102975205 -0.042742673 -0.16571262 -0.0372439 0.13361779 -0.41920847 -0.026372675
0.03946906 -0.15113987 0.1323573 0.057596035 0.08647978 -0.16565265 -0.05918832 0.19730915
-0.00071104296 -0.25605562 0.016643902 0.14064853 -0.050125994 0.07809702 -0.27258214 0.018622294
0.33421695 0.053926066 -0.081541754 -0.061022345 0.060263462 -0.10955323 0.0144156 0.23194508
-0.03548203 0.06700229 -0.43590248 0.23485431 -0.13495164 -0.42750445 -0.029971668 -0.117628075
-0.14960943 0.0034778304 0.22958826 -0.040502194 -0.29956445 0.1396593 -0.098876625 0.21041909
-0.19072321 -0.020177834 0.09726291 0.061568286 0.21521987 -0.06432779 0.06657309 0.16560365
-0.041235313 0.14718671 -0.025645671 -0.22283444 0.114890836 -0.1208802 0.1916396 0.22071518
-0.32521778 -0.32100824 -0.050418746 -0.07914887 0.1088516 0.13670358 -0.04489244 -0.117150344
-0.21421127 -0.1713713 0.2120324 -0.1724125 -0.021349844 -0.15601835 -0.26840907 0.29628083
0.1036613 0.051431034 0.029628878 -0.2483683 -0.016196523 -0.2815247 0.16790088 -0.00090834626
0.07104533 0.034303468 -0.07748529 -0.018845832 0.057156384 0.08100258 -0.087271124 0.039845083
-0.1360977 0.19771068 -0.051686987 0.021516714 0.16309398 0.20276166 0.44086856 0.12563564
-0.24536052 0.034532033 -0.007751111 0.15257496 -0.24870756 0.3475808 0.35532972 -0.26103342
-0.072045594 -0.056871522 -0.32936516 -0.11583484 0.12862118 -0.34170973 -0.20745012 0.062608615
-0.0368254 -0.27785572 -0.14231537 -0.072364494 0.17135637 -0.13333258 -0.10737803 0.10690646
0.031764444 -0.13455054 -0.1685818 0.281259 -0.09326453 -0.20745796 -0.32415426 0.1517923
-0.07884622 -0.20910348 -0.01456595 0.23050307 -0.0008401403 0.2705294 -0.13262823 0.19932416
0.056897093 0.103443556 -0.24187708 -0.13186836 0.14302894 -0.13828859 -0.39710987 -0.24267054
0.22582726 0.22371377 0.22388983 -0.341412 0.16582721 0.09525884 -0.036941327 0.21268027
0.19761328 -0.15141279 0.3546655 0.14750746 0.079005286 0.13797453 0.032260794 -0.018229324
-0.15694585 0.07035845 0.0658745 -0.17685106 0.027798478 0.13588285 0.050240364 -0.10842225
0.21546546 -0.21097219 0.07568003 -0.077317275 0.12597044 -0.07614235 0.096477024 0.021905553
-0.45547694 0.33720142 0.18507937 0.08816208 -0.027813768 0.22997282 -0.21465018 -0.0068449285
-0.115511574 -0.095804594 -0.18069018 -0.09079542 0.054833844 0.104465246 -0.07621989 0.10389683
0.1896791 -0.14881617 -0.03729519 0.29135403 -0.2072774 -0.25368652 -0.03287515 -0.19544932

actor.2.bias f4 [64]
00000000: 7924 cabc 1b04 cfbc a0b2 803c d699 273b
00000010: bdab a93c 8e39 de3c 2380 ac3c a8c3 b3bc
00000020: ef32 b93c 15e2 0abc 26b0 dcbc 063a d5bc
00000030: 0ff0 03bd 98f2 93bc 276d 3dbb 997e 0abc
00000040: d055 7ebc 5eb8 e53c 9b39 923c 2f88 a4bc
00000050: c40d e8bc 0f4f a43c 00a8 ab3c 2a77 dfba
00000060: 8623 eabc 5c7e d83c af4f 36bc 9080 ae3c
00000070: a092 c13c c726 4c3c f1fd 9b3c 0075 943c
00000080: 80c5 82bc 99e0 dcbc aa6b cabc c387 16bd
00000090: b76b d5bc 8b47 eb3c d043 e0bc 5aa7 d1bc
000000a0: a7a9 eb3c 6048 e6bc 8d0d eebc 65df c2bc
000000b0: ea9a a73c e377 c5bc e341 a73c b33f cbbc
000000c0: 4bb8 c0bc b59b df3c 3d24 c4bc eb7b 003d
000000d0: a138 c7bc 04c1 8bbc 4c33 debc 5327 013d
000000e0: b05f 9d3c 73fd 6fba a64c 9c3c 1285 8d3c
000000f0: ce74 78bc 73c1 6a3c e3fe d0bc ac54 abbc
-0.024675595 -0.025270512 0.015710175 0.002557387 0.020711774 0.027127054 0.021057194 -0.021943882
0.022607295 -0.008476754 -0.026939463 -0.026028644 -0.03221136 -0.018060014 -0.0028904171 -0.008453035
-0.015523389 0.028042015 0.017849734 -0.020084469 -0.028326876 0.02005723 0.020954132 -0.0017049063
-0.028581392 0.02642744 -0.0111273965 0.021301538 0.023629487 0.012460417 0.019041987 0.018122196
-0.015963316 -0.026962565 -0.024709541 -0.036750566 -0.026052339 0.028720638 -0.027376086 -0.025592495
0.02876742 -0.028110683 -0.029059196 -0.023788163 0.020459611 -0.024105018 0.02041716 -0.024810648
-0.023525378 0.027295927 -0.023943061 0.031368177 -0.024318995 -0.01705981 -0.02712407 0.031531643
0.019210666 -0.00091548933 0.019079518 0.017275367 -0.015164567 0.014328348 -0.025512164 -0.020914398

actor.4.weight f4 [2, 64]
00000000: 5eaa c7ba 503e bebb 0a5f 963c 1303 393c
00000010: 245e b2bb 36ff 243c e080 953c 5271 70bc
00000020: 2a8d b6bb 979b 15bc 8f0a f5bb 749e 69bc
00000030: c9b9 36bc f884 173c 845b 33bc 9bfd 90bc
00000040: 2c90 50bc 60af 8b3c 8b28 78bb b0ac ea3b
00000050: 1301 17bd 8ec3 793c 830b 343c 1ac5 543c
00000060: 0c94 c5bb b1b7 d03c f65a 56bb d710 103a
00000070: 3786 2a3c fe5b 3cbb e9cb 88bb 1fb7 803b
00000080: 0345 12bc 8cd0 35bc 1e19 acbc f91a 6fbc
00000090: 57aa 9dbc 6538 f03b e1a6 03bd 10c7 1a3b
000000a0: b3e4 a03c 0fd9 01bc b13c c3bc b257 1539
000000b0: c084 8ebb dfbe b5bc 2e0d d1bb 406e 4fbc
000000c0: 2881 6c3a b9d1 ec3c 022a 393a 16c4 213c
000000d0: 422f 8b3b f508 163c b40b 4dbc 5a6d 423c
000000e0: 63c2 b4bb 257a 8f3c b69e bdbb 75a5 a43c
000000f0: 9045 5ebc c939 8f3c 0fd4 70bc f622 97bc
00000100: e028 5a3a b897 5c3b a791 7dbc 9f4b 84bc
00000110: dab2 e93b 5635 19bc a8e7 97bc 69be 6b3c
00000120: 8697 6b3a 4e13 f03b c3ed 153c 1bed 5a3c
00000130: 3fac 3f3c 70a5 10bc 4ee0 253c 0159 953c
00000140: 1eb8 673c d2be 63bc d6f6 dd3b 642c 87bb
00000150: 863e 113d d90f 81bc 9b15 32bc bcf7 6bbc
00000160: ef73 ca3b 35e3 cabc 7404 783b bb08 8fba
00000170: 5da0 30bc 9887 693b ce6c de3b 0052 3dbb
00000180: ec70 553c c9b0 503c 5a53 b13c a306 8e3c
00000190: ad09 9b3c 1768 03bc 8e40 083d 2028 c7ba
000001a0: 95cf 8fbc 780f 0f3c e31a c23c 82c3 1cba
000001b0: bf2b a33b adda ad3c 9ffa 8b3b bc13 623c
000001c0: e240 c0ba 0fb1 e4bc 8cc1 aabb b842 15bc
000001d0: 2df2 4fbb 5260 2fbc 8828 473c e7c7 2ebc
000001e0: 66c9 b93b 416e 78bc cce6 b13b 7b2f 8fbc
000001f0: aa7a 5c3c 51b7 8abc 95be 813c 9221 923c
-0.0015233268 -0.005805768 0.018355865 0.011292237 -0.0054433513 0.010070613 0.018249929 -0.014675455
-0.0055710273 -0.009131334 -0.0074780653 -0.01425897 -0.011152693 0.009248011 -0.010947112 -0.017699054
-0.012729686 0.017051399 -0.0037865962 0.0071616992 -0.03686626 0.015244378 0.010989073 0.012986446
-0.0060296115 0.025478216 -0.0032708026 0.00054956734 0.010407976 -0.0028741355 -0.0041746986 0.0039280797
-0.0089275865 -0.011097085 -0.02100807 -0.014593833 -0.019246263 0.0073309415 -0.03214157 0.0023617186
0.019640302 -0.007925286 -0.02383265 0.00014242416 -0.004349321 -0.022185741 -0.006379745 -0.012660563
0.00090219313 0.028908597 0.00070634496 0.009873411 0.004247577 0.009157409 -0.012514997 0.011866892
-0.0055163368 0.017514298 -0.005786742 0.020098427 -0.01356639 0.017483609 -0.014698996 -0.018449288
0.0008322131 0.0033659767 -0.015476621 -0.01614934 0.0071319165 -0.009351095 -0.01854308 0.014388659
0.00089871173 0.00732652 0.009150925 0.013362194 0.0116987815 -0.008828506 0.010124279 0.018230917
0.014143018 -0.013900476 0.00677381 -0.004125165 0.035460018 -0.015754627 -0.010869409 -0.014402326
0.006178371 -0.024766544 0.003784445 -0.0010912636 -0.010780421 0.0035633799 0.006787873 -0.0028887987
0.013027411 0.012737461 0.02164619 0.017337149 0.018925512 -0.008020422 0.03326469 -0.0015194453
-0.017555038 0.008731715 0.023694461 -0.00059800607 0.00497958 0.021222437 0.0042718197 0.01379865
-0.0014667774 -0.02791646 -0.005211061 -0.009110145 -0.0031730041 -0.010704117 0.0121556595 -0.010667778
0.0056697605 -0.015163005 0.0054291245 -0.017478695 0.01345698 -0.016933115 0.015837947 0.017838273

actor.4.bias f4 [2]
00000000: 5825 ca3c 5825 cabc
0.02467601 -0.02467601
