python/pong/policies/final.pt (torch, 40933 bytes, 11 tensors)

critic.0.weight f4 [64, 6]
000000 de cd 91 be ae 57 4e 3b a0 4c fa bd b6 7c 2b 3d
       -0.28477377 0.0031485367 -0.12221646 0.04186698
000010 62 55 dd bd 22 89 67 be 86 07 12 be 0e 37 d5 3d
       -0.10807301 -0.22610906 -0.14260682 0.104108915
000020 05 ec 38 3e ad b6 98 3e 86 d4 6b bd f3 76 9d bd
       0.18058784 0.2982687 -0.057575725 -0.076887034
000030 af 4f 17 3c ba 9e 04 be 80 16 96 be f3 1c 99 3d
       0.009235307 -0.12951174 -0.2931404 0.07476225
000040 aa a2 50 3e 6e 8f 14 be 26 d2 3e bb dc 8b 5d bc
       0.20374551 -0.14507839 -0.0029116957 -0.013522115
000050 1a 51 09 3d 92 60 3c 3e da 2e 5e be 5c 78 53 be
       0.03352461 0.18396214 -0.2169756 -0.20651382
000060 bb 5e 8a be da c0 92 3b 16 08 72 3d 63 08 34 be
       -0.270254 0.004478556 0.059089743 -0.17581324
000070 97 ce cb 3e b4 58 3f 3e 3e 7a b5 3e d6 92 02 be
       0.39806053 0.18686181 0.35444826 -0.12751326
000080 24 1d 76 3e 58 9d 11 be 2a 75 00 be 52 e5 c4 bd
       0.24034554 -0.14220178 -0.12544695 -0.09614052
000090 b5 db e2 bd 28 fa 7d bd e9 2c 8e be f2 72 b7 bd
       -0.11077062 -0.062006146 -0.2776864 -0.08957471
0000a0 6f 22 99 3c c2 e4 4b 3d db 45 c6 bd 8e ec 49 be
       0.018693177 0.049778707 -0.096812926 -0.19719145
0000b0 02 36 30 bd 8c 85 be 3c d7 aa 75 3d 61 27 17 bc
       -0.043020256 0.02325704 0.05997738 -0.009225697
0000c0 0c ba 76 3e 5c 3e 58 bc 8f b0 86 bd ea e3 9c bd
       0.24094409 -0.013198461 -0.06576645 -0.07660659
0000d0 bb ac 95 bd 28 16 41 bd da c3 81 be 7e 96 80 3e
       -0.07308336 -0.04714027 -0.25344735 0.25114816
0000e0 eb dc 4c be 0f d4 03 bf 3b 2c bd 3d 23 cc b4 3d
       -0.20006149 -0.5149545 0.09236952 0.088279985
0000f0 2d 57 11 3e c9 6c c9 3d 18 f3 bb bd d8 aa 8f 3d
       0.14193411 0.09835202 -0.09177226 0.07015008
000100 c2 a6 64 be 9e 95 dc 3d d2 67 05 be b7 f7 c5 bb
       -0.22329238 0.10770725 -0.13027886 -0.006041493
000110 a0 27 97 3e f0 ce 22 3d ac c7 1a be 9c c0 5a be
       0.2952242 0.039748132 -0.15115231 -0.21362537
000120 73 d1 de 3d 73 f6 22 bd 7a 59 96 3c 52 5a 01 3e
       0.10879793 -0.039785814 0.018353213 0.1263211
000130 b7 87 b5 be b2 ae 82 3d be ae b8 be 2f cf 32 be
       -0.35455105 0.06380977 -0.36070818 -0.17461847
000140 01 52 a0 3e 5b 7c 22 be 56 94 a9 3d 54 73 03 bd
       0.31312564 -0.1586775 0.08280246 -0.032092407
000150 60 bb 01 3c 0f ab e2 be 9f 25 2f be a7 eb 58 be
       0.007918209 -0.44271132 -0.17104195 -0.21183644
000160 87 28 84 bd f1 a1 6e 3d 50 1d 5b 3e 49 c6 34 bd
       -0.064530425 0.058259908 0.213979 -0.044134412
000170 6e c5 19 3e f5 b1 c7 3c e6 bf 48 3e 5c 7e 32 be
       0.1501672 0.024376849 0.19604453 -0.17431015
000180 e6 55 a5 be d1 dd 93 bd 6d 21 46 be 83 a9 6b 3e
       -0.32292098 -0.072200425 -0.19348688 0.23013882
000190 be e9 e4 bd 10 9b 0f be 3f d9 85 bb 52 6e 97 3e
       -0.11177395 -0.14023995 -0.0040847356 0.29576355
0001a0 1c 00 a0 3e 14 e4 62 be 38 55 5c 3e ee 8a 4b 3e
       0.31250083 -0.22157317 0.21516883 0.19877216
0001b0 27 da df be 01 92 e5 bd 82 8e 07 be 5a b4 ce 3d
       -0.43721125 -0.11209489 -0.13237956 0.10092993
0001c0 64 52 5d 3e 91 d6 a5 3e 15 f9 d8 3d 39 a1 75 3d
       0.21613461 0.32390264 0.105943836 0.059968207
0001d0 7e 07 b6 bc 66 ee e3 bd e2 22 24 bd ff f8 82 bd
       -0.02222037 -0.11129455 -0.04007233 -0.063951485
0001e0 89 1e 06 3e 7c 8e 04 3e 7c a2 1c 3e 4c 50 af bd
       0.13097586 0.12944978 0.15296358 -0.08560237
0001f0 06 71 35 bb 69 90 00 be 65 69 2f 3c 68 b3 6c 3d
       -0.0027685775 -0.12555088 0.01070628 0.057788283
000200 f7 ae 98 be dd 70 0c bf 9d 3f d0 3c 8b 96 0d be
       -0.29820988 -0.54859716 0.025420958 -0.13826959
000210 4b 4f aa be 84 ba c4 bd 83 bd ba bc 0f 1b cb 3e
       -0.3326362 -0.096058875 -0.022795444 0.39669082
000220 7e df 98 bd e8 19 80 be 1b 67 d1 3d aa eb ac 3c
       -0.07464503 -0.25019765 0.10224744 0.021108467
000230 9a b9 0b 3d ca 96 dd 3c 24 97 65 be 82 5e 07 be
       0.03411255 0.02704944 -0.22420937 -0.13219646
000240 28 31 dc 3d c3 d4 80 3c b9 b7 5d 3d 0d a2 77 bd
       0.10751563 0.015726453 0.05413029 -0.060457278
000250 ae 0a 01 be e5 8b ee 3d 80 dc 3b 3e b9 af 03 be
       -0.1260173 0.116477765 0.18345833 -0.12860002
000260 c0 41 18 3e 5b f7 1d bf f3 b8 52 3d 0e ac 2b 3d
       0.14868832 -0.6170556 0.051445913 0.04191213
000270 43 18 33 3e ef 0b db 3c ec d2 a3 3e 0f 02 01 3e
       0.17489724 0.026739089 0.31996858 0.12598442
000280 19 20 96 be bb 10 d2 3e 1e a6 69 be 32 cc 3e 3d
       -0.29321364 0.4102839 -0.22817275 0.046581455
000290 c5 38 12 be 3c 6d 08 be 07 24 34 3e 54 f5 1f 3b
       -0.14279468 -0.1332292 0.17591868 0.0024407702
0002a0 d5 f9 19 be 86 1e 86 3e 2e 84 8b 3e 69 9f a3 3c
       -0.1503671 0.26195163 0.27249283 0.019973474
0002b0 3d 9b 77 3c 1f 67 85 bd 83 93 19 3e 3e e9 1e 3e
       0.015112695 -0.065138094 0.14997678 0.15518662
0002c0 21 74 ed bd 49 28 b6 3d 95 0f 18 be 23 f6 db bb
       -0.115944155 0.088944025 -0.14849694 -0.0067126914
0002d0 32 a5 dd 3c 76 4c 0b 3d fc e6 a3 3e 7f f3 22 3d
       0.02705631 0.034008466 0.32012165 0.039782997
0002e0 77 d2 27 bd f7 92 16 be af d5 1a 3e a4 fc 89 3e
       -0.0409722 -0.147045 0.15120576 0.26950562
0002f0 78 5b 4d bd b1 db 44 3e 28 4c a7 3d 97 09 c8 3d
       -0.05013606 0.1922443 0.081688225 0.09767454
000300 06 57 73 be 00 86 35 bd 39 84 c2 3e b5 d7 94 3d
       -0.23763666 -0.044317245 0.37991503 0.07267705
000310 46 fb 3f 3c 36 e2 71 be 72 e6 54 be 90 7a 0a 3d
       0.011717623 -0.23621449 -0.20791033 0.03380829
000320 32 8e a8 3c bc 43 5e 3e 1e 37 27 be 0d a4 d2 3e
       0.020575617 0.21705526 -0.1632962 0.41140786
000330 5e 05 28 bc 15 6a ea bb bd cd e0 be 76 24 d5 be
       -0.010255186 -0.0071537592 -0.43906966 -0.4162938
000340 ea 6c 74 bb 73 a7 93 bb 56 10 2f bd 71 98 b9 be
       -0.0037296363 -0.0045060455 -0.04274019 -0.36249116
000350 6d 36 96 3d 0b dc 4e 3e c2 2a dd bc 78 61 c5 bc
       0.073346 0.20201127 -0.026997928 -0.024094328
000360 d5 93 24 be 49 01 7d bb 90 94 50 be ef 82 f7 3d
       -0.16072018 -0.0038605502 -0.20369172 0.120855205
000370 5b 09 a7 bb 44 d4 48 3e a5 49 a4 ba 44 cf 90 be
       -0.005097551 0.19612223 -0.0012534155 -0.2828313
000380 76 9f db 3e 09 1d 76 be 3b 0e bf bc 9a 41 81 be
       0.42895097 -0.24034514 -0.023322215 -0.25245363
000390 cf 41 ce bd c9 5e fd 3d 50 46 a6 3d c6 cf dc bd
       -0.10071146 0.123715945 0.0811888 -0.10781817
0003a0 55 b8 f5 be 0d f5 5e be f9 c0 af 3d 3b f2 9e be
       -0.47992197 -0.21773167 0.085817285 -0.31044182
0003b0 59 b3 51 3e 75 e8 40 bd f3 75 32 3c 4d 11 ea 3d
       0.20478572 -0.04709669 0.010892379 0.11429081
0003c0 82 e3 c8 3d 8c ce 12 3e 94 d7 6f 3b b5 e8 9d 3e
       0.09809019 0.14336604 0.0036597 0.30841604
0003d0 15 e6 ea 3d 47 2c 23 bd 84 c6 ea 3b 52 67 7b 3e
       0.11469666 -0.039837148 0.007164778 0.24551132
0003e0 c2 fb 83 bd 20 6e eb bc ba d3 73 3e cc 3e 4e be
       -0.06444503 -0.028739035 0.23811236 -0.20141143
0003f0 9e b2 7c be 34 fa de 3e ec 35 24 3e cc 6b ae 3d
       -0.24677512 0.43550265 0.16036195 0.08516654

critic.0.bias f4 [64]
000000 f9 d9 e4 bc 1a a1 c7 39 13 62 64 3d 76 d8 32 bb
       -0.027935969 0.00038076268 0.055757593 -0.0027289665
000010 89 e8 2a 3d 70 34 a6 3c 74 30 3b 3c 7e c7 8f 3b
       0.04172567 0.020288676 0.011425126 0.004387795
000020 96 4d ae 3d 76 5d 0d 3d 83 e8 11 3c 1b 6e f6 bb
       0.08510892 0.03451296 0.008905533 -0.00752045
000030 09 7c bf bc 6a be da ba 16 c6 66 bc e0 d2 68 bb
       -0.023374574 -0.0016688828 -0.014085313 -0.0035526082
000040 57 16 d8 32 f3 2f cd 3b 7a ea 84 3b c7 a8 e5 3c
       2.5155868e-08 0.0062618195 0.004056272 0.02803458
000050 89 9a a0 3c d3 71 1c 3e e9 92 e0 2e 6e 92 c2 bd
       0.019604938 0.15277795 1.0212437e-10 -0.095005855
000060 91 d6 73 3d ce 59 1b 3d 0d 26 91 bc c0 89 bf 3c
       0.0595308 0.03792744 -0.01771834 0.023381114
000070 23 3b 0d bc 3f 75 38 bb 7c e6 6a be d1 08 0d 34
       -0.008620056 -0.0028146056 -0.22939485 1.3134856e-07
000080 f5 e5 63 33 02 99 bf 3c ed e7 9e 3e 5f cf 7d b3
       5.30617e-08 0.02338839 0.3103632 -5.9094756e-08
000090 48 c2 db 3c 66 7d a0 bb 98 eb 13 bd 99 64 b1 bc
       0.026826039 -0.004897761 -0.03611335 -0.021654414
0000a0 36 5d a7 3c 72 61 a6 3b f3 a6 dc 3c 92 46 6b 3a
       0.020430189 0.0050775344 0.026935076 0.00089750544
0000b0 f1 0f 8d bd 90 6a 15 34 84 bf eb 35 39 43 47 bd
       -0.06887806 1.3915474e-07 1.7564603e-06 -0.048648093
0000c0 26 d2 2d 3c b1 80 00 bc 65 63 b7 bd 93 b5 61 bd
       0.010609185 -0.007843182 -0.08954505 -0.055104803
0000d0 85 b8 74 3c 16 86 64 bd 4c 3b 2a bc c4 01 03 bd
       0.014936571 -0.055791937 -0.010390114 -0.031984106
0000e0 e0 3f 23 3c 89 20 03 3c 8d 73 b4 b4 52 03 32 ba
       0.009963959 0.008003362 -3.3611687e-07 -0.0006790656
0000f0 30 02 66 3d 4b a6 01 3c 52 55 29 bd ae be 4b bd
       0.05615443 0.0079131825 -0.041341133 -0.049742393

critic.2.weight f4 [64, 64]
000000 50 74 fb 3d 0d 72 33 3e f1 84 5e bd 83 92 ce be
       0.12278044 0.17523976 -0.054326 -0.40346155
000010 4a 11 20 3d 34 18 5a be 6a bd 4d 3e 68 97 5f 3e
       0.039078988 -0.21298295 0.20091787 0.218351
000020 e9 ce 3a be 60 22 9a 3e 03 84 86 be 24 9d fa 3d
       -0.18242992 0.3010435 -0.26272592 0.122370034
000030 01 3c 69 3c 11 74 c4 3c d9 fe 5e be 78 1a 0c be
       0.014235497 0.023981126 -0.21776904 -0.13681972
000040 82 d9 75 3e 21 3d a0 3c cc f0 0a be fd 69 bc 3d
       0.24008754 0.019560399 -0.13568419 0.09199903
000050 c7 e0 1a 3e e0 ef 8e 3e 5c a4 85 3e f1 14 91 be
       0.15124808 0.27917385 0.2610196 -0.2833629
000060 e7 d4 34 be 23 16 44 bd 11 d8 ed 3b af 18 a2 be
       -0.17659341 -0.047872674 0.007258423 -0.31659457
000070 4c 21 46 3e 36 d5 88 be ff ae ce bd 53 6a 92 3d
       0.19348639 -0.26725167 -0.100919716 0.07149186
000080 d6 1f ea bd c1 2a 69 be 9e 55 9d 3e 01 74 e6 3c
       -0.114318535 -0.22770216 0.30729383 0.028131487
000090 af 39 bf bd a4 93 ea bd 73 38 bc bd 02 dc 37 3e
       -0.09337174 -0.114539415 -0.09190454 0.1795502
0000a0 62 fe 73 be d6 9a 22 3e 04 1e ae 3c e8 f9 35 be
       -0.23827508 0.15879378 0.021254547 -0.17771113
0000b0 20 57 dd bd e7 45 bc bd dd ef a7 3e a8 02 b9 3d
       -0.108076334 -0.0919302 0.3280019 0.0903371
0000c0 7f 86 2e 3d e7 e1 1b b9 33 ae 98 be 6c eb f2 3d
       0.042608734 -0.00014866107 -0.29820403 0.118613094
0000d0 eb bc af 3c ac 6f b9 be f5 10 4d be e7 83 3e be
       0.021452388 -0.3621801 -0.20026 -0.18605004
0000e0 dd f1 a8 bd 33 0e ac 3d ea cd 37 3c 83 a9 72 be
       -0.08249257 0.08401146 0.011218527 -0.23697476
0000f0 9a 51 17 3d 26 2c 06 3e 25 84 fb bd bd 9d 26 bd
       0.036943056 0.13102779 -0.12281064 -0.040677775
000100 8a 42 0f be f1 f2 75 be 96 67 13 be ba ed d2 bd
       -0.13990226 -0.24018456 -0.14394984 -0.10299249
000110 7d 86 c9 3d 88 d9 9d be dc 5b c3 bd a0 1d ed 3e
       0.09840105 -0.30830026 -0.09539005 0.46311665
000120 38 09 74 3d 80 51 c7 bd 47 92 2d bd 32 31 fa 3d
       0.059579104 -0.09732342 -0.04237583 0.122164145
000130 8a 2c 6a bd 5d 7c 3c be 10 87 11 bd 89 b5 13 3e
       -0.057171382 -0.18406816 -0.035529196 0.14424719
000140 5d 05 3a be 49 d0 4d 3d 97 6c 9a 3c 7b 15 b4 bc
       -0.18166108 0.050247464 0.018850608 -0.021982899
000150 ff 6f ca be ff 40 72 3e b1 a1 13 3e ac 8e 14 be
       -0.3953857 0.23657607 0.14417149 -0.1450755
000160 75 f8 c7 bd 98 19 7d 3d cf 30 4d 3e 89 8e 94 3d
       -0.09764186 0.061791986 0.2003815 0.07253749
000170 8d 68 a8 bd 7a 86 dc 3e 70 2b 22 bd 49 10 27 be
       -0.082230665 0.43071347 -0.039592206 -0.16314806
000180 3b bd 09 3d f5 b1 a1 3b cb a1 71 3c 4c 5d c7 bc
       0.03362773 0.004934544 0.014748047 -0.02433648
000190 c2 c8 0b be b6 45 43 be 42 ee 3f 3e 87 30 54 3e
       -0.13650802 -0.19069561 0.18743232 0.20721637
0001a0 b5 3e 84 3e fa 7c 61 3c e5 c3 eb bd 93 f8 40 3e
       0.25829092 0.013762707 -0.11511973 0.18844824
0001b0 8a 44 8a 3d e6 c9 e0 3d 10 3c b9 3e 0f 25 de bd
       0.06751354 0.10976009 0.36178637 -0.10846912
0001c0 71 25 c9 3c 5c 5a 3e be 22 f7 97 3c 41 64 3f 3e
       0.024553986 -0.18589157 0.01855046 0.18690588
0001d0 bd 0c 29 be fe 9f db 3d 8f 00 94 3d 1a f6 e3 bd
       -0.16508766 0.107238755 0.07226669 -0.111309245
0001e0 d0 59 cd be 51 d2 73 3e 15 d0 43 3e c2 c5 58 3d
       -0.40107584 0.23810698 0.19122346 0.05292297
0001f0 91 ad 8a 3e bf 8e e2 bc 1a 6c 4f 3e 07 bd 66 3e
       0.27085546 -0.027655957 0.20256081 0.22533046
000200 83 89 ab 3d 64 68 e7 3c 62 4d 2f bd 04 c3 04 3e
       0.08375838 0.02824802 -0.042798407 0.12965018
000210 1b dd ab be 78 07 80 3d 2c b4 0c 3e 31 f1 53 3d
       -0.33567128 0.062514246 0.13740605 0.05174369
000220 49 32 16 3e 72 be 05 bd d8 bb 1b bd 85 58 4d 3e
       0.1466762 -0.032652326 -0.03802094 0.20053299
000230 af 3a 10 be df 69 29 3e 54 0a a8 bc 89 c3 85 be
       -0.14084886 0.16544293 -0.020512737 -0.26125744
000240 89 03 88 be 06 7a 1f be 50 79 89 3e 76 a1 c0 be
       -0.26565197 -0.15573892 0.26850367 -0.37623185
000250 da c0 7a 3d 15 b1 0d be 74 fb b0 3e f4 15 9c 3e
       0.061219074 -0.13837083 0.34566844 0.304855
000260 eb 69 c1 3e 98 ef 51 3e 16 eb 07 be e1 fb f0 bd
       0.37776121 0.20501554 -0.13273272 -0.11766792
000270 78 c0 69 bd 5c 28 84 be f8 12 f4 bd 76 97 95 3d
       -0.057068318 -0.25812042 -0.119176805 0.073042795
000280 90 5e 12 be d4 fb 2d 3d 52 87 82 bd 5e 27 de bd
       -0.14293885 0.04247649 -0.063734666 -0.108473524
000290 e5 94 73 bd 7a a6 20 3e 62 54 16 3e 1c 96 94 3d
       -0.05946817 0.15688506 0.14680627 0.072551936
0002a0 dd 55 75 3d 2a 33 e0 3d f1 02 8c bd 88 e8 fc ba
       0.05989634 0.10947259 -0.068364985 -0.0019295374
0002b0 9b 20 73 be 9a 37 09 be 09 83 86 3e 52 27 1f bd
       -0.23742907 -0.13400117 0.26271847 -0.03885586
0002c0 d3 e5 9a 3e 61 8f 87 bd 49 1c c3 3e 94 07 0e bc
       0.30253467 -0.06619144 0.38107517 -0.008668799
0002d0 30 d5 55 3a 17 86 e4 bd cf 3e 82 3c 1d b2 16 be
       0.00081570726 -0.11158388 0.01589909 -0.14716382
0002e0 0a 2e bc be d1 93 3f 3e 07 bd 40 bd 33 3d b1 bd
       -0.36753875 0.18708731 -0.04705527 -0.08654251
0002f0 bb d9 2d 3d 8b 90 de 3d 44 8d 75 3c 12 0d 9f bd
       0.042443972 0.10867413 0.014987294 -0.07766165
000300 51 0f 3d be d7 40 be 3c ca dd 3f 3d 00 ce 31 be
       -0.18462874 0.023224277 0.046842374 -0.17363739
000310 90 0d c0 3b bb 48 cf 3d bf 44 02 bd f4 29 02 3e
       0.005860992 0.10121294 -0.031803843 0.12711316
000320 78 fc 05 3d 21 e8 e3 bc 09 16 21 3e a0 82 50 be
       0.032711476 -0.027820649 0.15731062 -0.2036233
000330 39 71 5b be 83 c3 c7 be 07 fb 07 3e 74 9b 35 be
       -0.2142991 -0.3901635 0.13279353 -0.17735082
000340 49 07 c1 3d 2d 4a 8e be da 2c 3d 3e e7 d1 7c bd
       0.09425218 -0.27790967 0.18474141 -0.061723616
000350 1f ee 54 3e a3 ab 0c 3c 1e 33 03 bd 73 a8 a5 bd
       0.20793961 0.008585843 -0.03203117 -0.0808877
000360 08 75 8a bd 6b 13 75 3e db 74 a0 be f1 38 ff bc
       -0.06760603 0.23933189 -0.31339154 -0.031155081
000370 71 e9 4b 3b 08 8a ce bc 37 23 c2 be 25 0d 30 3d
       0.0031114484 -0.025212303 -0.37917492 0.042981286
000380 b3 4a 31 bd e2 33 ee bd 43 d3 c3 bc fa b1 21 3e
       -0.04328413 -0.116309896 -0.023904448 0.15790549
000390 ac c4 32 3e 43 04 96 bc 34 3d 81 3e 0b 80 4b be
       0.17457837 -0.018312579 0.25242007 -0.19873063
0003a0 9e 66 3d 3e c9 77 6f be 4b ed 16 3c 8a 86 1f 3e
       0.18496177 -0.23385538 0.0092118485 0.15578666
0003b0 bc e9 c7 3b 9a 69 4f 3e c9 0f 92 3e 3b 80 b6 3d
       0.0061008614 0.20255128 0.28527668 0.08911177
0003c0 02 50 50 3e 53 08 9d bd a6 e9 ab be aa 48 10 be
       0.2034302 -0.07667603 -0.33576697 -0.14090219
0003d0 75 77 e1 3d 8d 35 29 3e bf f9 84 3e b4 b5 6c be
       0.11009113 0.16524334 0.2597179 -0.23116189
0003e0 26 2e c7 3e fe e0 d6 3d 35 a6 89 3e 7e 82 c8 bd
       0.38902396 0.104921326 0.26884618 -0.097905144
0003f0 9f 4a b1 3c 04 e0 66 3e c0 49 20 3c 2d f2 90 bd
       0.021642027 0.22546393 0.009783208 -0.07077441

critic.2.bias f4 [64]
000000 61 c7 be 3c ed 6e f9 3c 95 0b b1 3c c0 9e 8a 3b
       0.02328843 0.030448401 0.021611968 0.0042303503
000010 1d d8 b9 3c 69 b7 2d 3c b0 d4 0f 3c f9 0a 95 bc
       0.022686059 0.01060281 0.008778736 -0.018193709
000020 d4 f3 c4 3a c8 85 31 bd 7e 46 1b 3d f1 d2 9f 3c
       0.001502628 -0.043340474 0.037909023 0.019509764
000030 2b bb 03 bd 67 33 d4 bb 76 3e 52 3d ba 39 d9 bc
       -0.03216092 -0.006475854 0.0513291 -0.026516784
000040 c7 7b 0d bd 2b 2b 17 3c 53 f7 bb bc 74 1f be 3c
       -0.03454187 0.009226601 -0.022945082 0.023208357
000050 ab 6f 75 3c ad f9 7e 3b 05 d6 dc 3b 7d 6d 9e bc
       0.014980237 0.0038906143 0.0067393803 -0.019339317
000060 b7 c7 b8 bc 1d e2 40 3c 77 8d ca 3c e8 47 d3 3a
       -0.022556169 0.01177266 0.024725659 0.0016119452
000070 9e 37 d7 3c b9 48 9a ba d4 6a 18 3b 78 a0 3b bc
       0.026271638 -0.0011770941 0.0023257034 -0.011451833
000080 49 e1 ac bc 96 dd a7 bc 01 b4 47 bc 86 70 4f bb
       -0.021103518 -0.020491403 -0.012188912 -0.0031652763
000090 aa a2 d7 bb 0c 9b e4 3c e5 e3 b6 bc 7d ae 40 3a
       -0.0065806704 0.027905963 -0.022325465 0.00073502195
0000a0 e6 1c 2b 3c f5 e9 99 bc 9f 25 ce 3c 2a 0b 80 bc
       0.010443902 -0.018788317 0.025164424 -0.015630323
0000b0 e3 8b 34 3d 4d 38 a7 3c 9f 15 e9 bc f2 06 63 3c
       0.04407872 0.020412588 -0.028452693 0.013856636
0000c0 c6 6e 30 3b 45 e0 93 bb 2c 85 b3 bc 5c 8f f9 3b
       0.0026921495 -0.004512819 -0.021914087 0.0076159667
0000d0 8e ab 3a 3c 10 32 85 bb 48 fc 34 3c 2b f1 12 3c
       0.011393441 -0.004064806 0.011046477 0.008968632
0000e0 7b 38 f6 38 6b 26 3d 3b c0 fc 4c bc 95 6b 06 3d
       0.000117407144 0.002886201 -0.012511432 0.032817442
0000f0 94 51 38 bd 4d d8 a5 bb 43 41 0f bd e2 34 46 3b
       -0.044999674 -0.0050611855 -0.034974348 0.0030243923

critic.4.weight f4 [1, 64]
000000 c9 51 2b 3d 12 15 6d bd b9 89 e8 b9 52 d5 c3 3d
       0.041826043 -0.057881422 -0.000443531 0.09562172
000010 0c f7 ff 3d 90 7b 35 3d a2 7b 64 3c 69 1c ee 3c
       0.12498292 0.04430729 0.013945492 0.029066281
000020 76 af 93 bd e2 48 ca bd 1e 22 3d be 41 0e 9e 3e
       -0.07211201 -0.098771825 -0.18470046 0.3087025
000030 02 ba d4 bd a2 29 41 bb 52 41 e4 bd b3 33 0f 3d
       -0.10387041 -0.0029474278 -0.11145271 0.034961414
000040 7c 94 1a 3e 6a 7f eb bb f5 85 0d bd 79 2f 0d 3c
       0.15095705 -0.00718682 -0.03455158 0.008617275
000050 f1 e4 f6 3c 60 31 c8 3c 28 43 af 3d 14 22 05 3e
       0.030138465 0.024437606 0.08557731 0.13001281
000060 0a 90 9d 3d be c7 30 bc ef c1 37 bd d6 29 02 3e
       0.07693489 -0.01078981 -0.044862684 0.12711272
000070 5c 82 1b be 28 1e 8c ba 77 7e a0 bd 1c b0 02 3e
       -0.15186447 -0.001069014 -0.07836621 0.12762493
000080 ff 37 9e 3d 02 80 57 be c7 b4 20 3e 74 19 d6 3c
       0.07725524 -0.21044925 0.15693961 0.026135184
000090 62 f5 8a bc 4b e6 a4 3c ea c2 e5 3c cf 16 85 3d
       -0.01696271 0.020129343 0.028047044 0.06498491
0000a0 87 b3 2b be 34 33 9c 3d c0 6c 23 bd 8a 2b cb bd
       -0.16767703 0.07626954 -0.039898634 -0.09920414
0000b0 26 e1 5d be a1 5c 2e bc 41 67 63 bb 85 1a b2 bd
       -0.21667919 -0.010642202 -0.0034698995 -0.086964644
0000c0 d6 16 ab 3d 59 c2 af bd 5b 72 b2 3d 14 3f c5 bd
       0.08353965 -0.08581991 0.08713218 -0.09631172
0000d0 c6 26 d3 ba c6 b1 51 3d cf db b7 bd 5a e8 c8 3c
       -0.0016109578 0.05119493 -0.08977472 0.024524856
0000e0 b9 1c 0a be bc 62 1b bd fa 81 f9 bd ce cd da bd
       -0.1348752 -0.037935957 -0.12182994 -0.106837854
0000f0 30 8a 6f bc f3 b5 25 be af 15 27 3d cb 42 7f bd
       -0.014620349 -0.1618269 0.040792163 -0.062319558

actor.0.weight f4 [64, 6]
000000 09 ce a4 be f9 e5 2b 3e 93 42 a7 3d 85 7b 54 be
       -0.32188442 0.16786946 0.08166995 -0.20750244
000010 5b 52 d3 be 29 32 c5 3d a4 8f e2 3d 49 d8 77 ba
       -0.4127377 0.09628708 0.110625535 -0.0009454531
000020 d6 59 b4 3c 88 cc 9c be 59 54 17 3d 64 86 6e 3e
       0.022015493 -0.30624795 0.036945675 0.23293453
000030 5d 5e 28 3e 86 1c 46 3e df 47 82 bd e3 76 50 be
       0.16442247 0.19346818 -0.063613646 -0.20357852
000040 96 28 f8 bd c0 83 3a bc 3b 8f 2b bd e4 b7 80 bd
       -0.12117116 -0.011383951 -0.041884642 -0.06285074
000050 34 d2 6b bd 61 52 4b 3d c6 70 95 3d 5a 97 c2 be
       -0.057573512 0.04963911 0.072969005 -0.38006097
000060 52 6d 79 3e a0 5b c5 3d 18 ff f3 bd 39 54 8a bd
       0.24358109 0.09636617 -0.1191389 -0.067543454
000070 cd 0c d4 bb 1a 34 88 3d 25 ac ab bc f4 fd 69 3d
       -0.0064712525 0.066505626 -0.020956108 0.057126954
000080 5c e0 24 3c 0d d3 cd bd 07 96 5c be 56 62 12 bd
       0.010063257 -0.1005002 -0.21541606 -0.03573831
000090 92 c7 93 3e aa 58 7a 3e 53 43 8c 3d 99 8a 53 be
       0.28863198 0.24447885 0.068487786 -0.2065834
0000a0 d2 60 ae 3e 72 64 3b be 69 df a1 bd 43 12 14 be
       0.34058243 -0.18300036 -0.0790394 -0.14460091
0000b0 94 33 24 be 9f b2 ca 3e 7a 6c c4 3d 33 9a 07 3d
       -0.160353 0.39589402 0.09591003 0.03310604
0000c0 98 57 a5 bc 18 be 07 bc e6 34 2b bd 6b bf 5e be
       -0.02018337 -0.008285068 -0.041798495 -0.21752708
0000d0 94 96 23 3f eb 37 df bc fa 34 fd 3d 32 a8 f1 bb
       0.6390164 -0.027248343 0.1236362 -0.007374787
0000e0 e2 b1 8d 3d e5 71 1c bf 2f 92 b1 bd 85 b1 8e be
       0.06918694 -0.6111129 -0.086704604 -0.27869812
0000f0 7e 0b 1c 3b 65 62 05 be 29 a7 2e be 6c 46 0d 3e
       0.002381056 -0.13025816 -0.17055954 0.13796395
000100 9f 0a 7d be f0 58 9d be f2 5f e6 bd 89 c7 07 3d
       -0.24711083 -0.30731916 -0.11248769 0.033149276
000110 3f 55 82 3e 33 f3 61 3d e5 96 e7 3d 02 22 47 be
       0.25455663 0.055163573 0.11308078 -0.19446567
000120 1c b3 98 3e dc 64 aa 3d bb 44 8c 3d de 1d b9 bd
       0.2982415 0.08320019 0.06849047 -0.090389
000130 ad 14 07 3c 35 95 05 3d 28 79 2e bd 32 35 25 3e
       0.008244676 0.032612998 -0.042596012 0.16133574
000140 64 f3 8e 3e 2b 1f 36 3d 6d 86 ed bd 3d 3b 05 3d
       0.27920067 0.044463318 -0.11597905 0.032527197
000150 b6 fc 5f be 12 79 fd 3d 6d d8 80 be 58 a2 a3 be
       -0.21873745 0.12376608 -0.2516512 -0.31959796
000160 2b 85 6b 3e 7c eb 4e 3e c1 4c 61 be e3 86 d4 be
       0.23000018 0.20207018 -0.22001936 -0.4150916
000170 38 40 21 3e 13 df 27 bc 39 88 27 3e 38 69 74 3e
       0.15747154 -0.010246056 0.16360559 0.23868263
000180 88 55 8d be 5a 7e 9b bd a9 eb 0f 3d 64 22 2e 3e
       -0.27604318 -0.07592459 0.035136852 0.17005306
000190 aa dc aa 3e c9 c2 8a bb 49 a8 93 be aa 59 18 be
       0.33371478 -0.004234646 -0.2883933 -0.14877954
0001a0 b5 13 d0 3d be 1a 32 3d 23 15 b9 be f0 dd b3 bd
       0.10160009 0.043482535 -0.3614894 -0.087825656
0001b0 a4 fd e3 bc 98 33 23 bc 2d a8 58 bc 45 05 03 3e
       -0.027830906 -0.009961031 -0.01322369 0.12794979
0001c0 98 f2 63 bd 0b 8d 64 be 05 4c 2d bd d1 71 e8 3e
       -0.055651277 -0.22319429 -0.042308826 0.45399335
0001d0 9e 65 88 bd 92 1f 99 3d cb 2c 29 be b8 66 8f 3c
       -0.06660007 0.07476725 -0.16520993 0.017505035
0001e0 5e af 97 3e 7d f2 ee bd 5e c4 52 3e 1c cf 14 be
       0.29625982 -0.11667345 0.2058272 -0.14532131
0001f0 d5 02 18 bd 3e 30 9b 3c 41 93 4c be 2e af f1 bd
       -0.037112076 0.018943902 -0.19978048 -0.11800991
000200 7e 3f 29 3b f1 aa d5 3d e1 5e 4d 3c 0a 2e fa be
       0.0025825198 0.10432995 0.012534828 -0.4886325
000210 7d c9 38 3e c7 02 0a 3e 2d 40 b5 bd 8f 40 38 3e
       0.18045612 0.13477622 -0.08850131 0.17993377
000220 b3 b8 35 bd 71 55 cc bc cd 3f a6 bd 6a 37 41 be
       -0.044365596 -0.024943085 -0.08117638 -0.18868795
000230 f0 96 59 bd fa c0 11 be 6d a8 61 be 73 77 bc 3d
       -0.05312246 -0.14233771 -0.22036906 0.09202471
000240 e5 ca 66 be 8b 25 02 3e 38 d9 89 bc 97 d1 94 3e
       -0.22538336 0.12709634 -0.01682721 0.29066154
000250 7a 1a b9 bd 98 cb 2b 3e 3b 4e 3c be 43 fb 9a 3d
       -0.09038253 0.16776884 -0.18389218 0.075674556
000260 0b 03 81 3e e1 c7 cc bc f9 c8 e6 bd 17 28 37 3d
       0.25197634 -0.024997653 -0.11268801 0.044715967
000270 42 be f8 3e 3d a8 2c bd bf ff 2c bf ec 44 cd be
       0.48582655 -0.042152632 -0.6757774 -0.40091646
000280 13 d5 63 3d 1b e2 b2 3d ca 83 8d 3e 84 95 17 be
       0.055623125 0.087345324 0.2763961 -0.1480313
000290 80 1c 75 bc 1d 2d 03 bf 3e c1 58 3e 9b 03 43 3d
       -0.014960408 -0.5124071 0.21167466 0.04761086
0002a0 d7 eb 92 bd eb 12 76 3d e0 03 10 be 43 41 00 3e
       -0.07173889 0.060076635 -0.14063978 0.12524895
0002b0 08 64 93 3d e4 d8 80 be 05 76 86 bd db 59 07 bf
       0.07196814 -0.25165474 -0.06565479 -0.52871484
0002c0 4f 9d 36 be b5 b2 55 3e a2 c0 80 3d 11 69 81 3e
       -0.17833446 0.20868953 0.06286742 0.25275472
0002d0 0e 14 65 be 66 c3 7f 3d 37 5c 4e be b7 16 be be
       -0.22370932 0.062442206 -0.20152365 -0.37126705
0002e0 13 d2 26 bd 07 92 df be ed ee 8a be 2c fa dd bc
       -0.040727686 -0.43666098 -0.2713541 -0.02709683
0002f0 65 e6 07 3e 54 62 1a be e0 a0 c8 3d 54 4f 9c bc
       0.13271482 -0.15076572 0.097963095 -0.019080795
000300 7a 50 41 3d ee e0 09 3e fc bc ff bd 09 9e ea 3d
       0.04719589 0.1346471 -0.12487218 0.11455924
000310 ed e6 3a bc bd 6b 57 3e 2d f2 85 3c 22 38 8b 3d
       -0.011407596 0.21037193 0.01635083 0.06797816
000320 e4 b8 0a be af ac d9 bd d7 06 8c 3e a6 79 43 3e
       -0.13547093 -0.1062864 0.27348968 0.19089374
000330 d9 4a 8a bd d7 90 6a 3b ec 6f 5e 3d ab 37 ca 3e
       -0.06752557 0.0035791898 0.054305956 0.39495596
000340 d8 d4 f1 bd 90 7b af 3e 70 79 38 3e a8 94 ee 3d
       -0.11808175 0.34273958 0.18015075 0.11649448
000350 5d bc 73 bd 32 51 9d 3e b9 27 d5 bd d8 aa a9 bc
       -0.05950581 0.3072601 -0.10407967 -0.020711347
000360 fa ec 67 be 61 40 b6 bb 15 9b 92 bd 78 e5 19 3e
       -0.22648993 -0.005561874 -0.07158486 0.15028942
000370 90 d9 ac bc b4 ee be bd f5 23 98 3e 9c 7a 92 3e
       -0.021099836 -0.09322873 0.29714933 0.2860917
000380 1e 1b 6d be d5 93 22 be 3d b5 03 be bf 30 3e 3e
       -0.23154876 -0.15876706 -0.12862106 0.18573283
000390 ab 99 28 3e 05 b8 9b 3e 0d 4c 17 3e 9a e0 98 3d
       0.1646487 0.30413833 0.14775105 0.07464714
0003a0 73 60 8c 3d 74 af b4 3e 5e 8d ee be 07 74 58 ba
       0.06854334 0.3529011 -0.4659223 -0.00082570355
0003b0 f0 6a db 3e 9a 69 91 3e 5d 0e 01 bd 47 5f 24 be
       0.42855024 0.2840088 -0.03150784 -0.1605197
0003c0 57 50 1c 3c 05 67 75 be fe ea d5 3d c0 9e 08 bc
       0.009540639 -0.2396508 0.10445212 -0.00833863
0003d0 a8 14 45 be 2b d3 0f 3e dd d7 b3 3e a4 bd 1b 3d
       -0.19246161 0.14045398 0.35125628 0.038022652
0003e0 24 aa 16 be aa 80 ab bd bd c2 02 bb 80 95 55 bd
       -0.14713341 -0.0837415 -0.00199525 -0.052144527
0003f0 26 f1 b9 3d 4f 98 64 be 12 7b 38 3e d7 f2 d1 be
       0.090791985 -0.22323726 0.18015698 -0.41005585

actor.0.bias f4 [64]
000000 ac db 74 bd 24 e7 de 3c 8d 23 6d 3c 07 08 10 3d
       -0.059779808 0.027209826 0.014473808 0.035163905
000010 ef c3 4e b3 33 b4 c0 bd 4d 51 16 3d ba a2 b4 bc
       -4.8141313e-08 -0.0940937 0.03669863 -0.02205025
000020 c8 29 46 be c5 c9 bf 3d cf fb f5 bb 16 f0 c6 bc
       -0.19351876 0.09364656 -0.0075068246 -0.024284404
000030 58 ab 94 35 1d 27 8d bd 01 00 4c 3d f2 aa 3f bd
       1.1076727e-06 -0.06892226 0.04980469 -0.046793886
000040 dd b8 53 bd 00 00 00 00 a3 ce 05 be cb d5 ab 3d
       -0.05168997 0.0 -0.13067107 0.08390387
000050 c0 e7 dc 3a de f3 33 b3 02 7a b3 3d 8a 7c ab 3a
       0.0016853735 -4.189848e-08 0.087635055 0.001308338
000060 89 31 cb bd 3a 48 57 be 6d d1 1c 3e 37 54 2d 3d
       -0.099215575 -0.21023646 0.15314265 0.04231664
000070 af 2b 50 3c 89 ae 53 bd 47 62 dd bd 4d 06 8b bc
       0.0127057275 -0.05168012 -0.108097605 -0.016970778
000080 7b 39 9e b7 97 7f 06 39 aa 0a cb bd fd af 75 3d
       -1.8861834e-05 0.00012826767 -0.099141434 0.05998229
000090 a8 85 ab bd b5 d6 1e b7 0e 6e a9 b3 42 ef b8 bd
       -0.08375102 -9.467524e-06 -7.8896946e-08 -0.0903001
0000a0 0a ee 77 bc fa 92 df 3d 01 f1 0b bd 7e a8 88 bd
       -0.0151324365 0.109167054 -0.034165386 -0.06672762
0000b0 1d 50 8c b4 2f ad 62 3d a9 bc 05 be b4 cc 85 bd
       -2.6135322e-07 0.055340942 -0.1306025 -0.06533185
0000c0 79 89 31 3e 63 19 32 be c2 15 c5 bd f8 ca 8d 3d
       0.17337598 -0.17392497 -0.096232906 0.06923479
0000d0 99 7a 42 3c 7e 86 17 be be f4 8d bd fb a1 bc bd
       0.01187005 -0.14797398 -0.069314465 -0.09210583
0000e0 94 a4 3f 38 1b a2 9e 3d 5d 54 bd 39 9e b2 0b 3d
       4.5691224e-05 0.07745763 0.00036111745 0.03410589
0000f0 8d 0b da 3d 73 34 cd bc d6 e3 09 b5 7d e7 61 bb
       0.106467344 -0.025049424 -5.136802e-07 -0.0034470253

actor.2.weight f4 [64, 64]
000000 25 d0 7e 3c f0 92 21 be b3 1e 17 be b1 be 64 bd
       0.015552555 -0.15778708 -0.14757805 -0.05584592
000010 c8 b8 92 bd 7b b2 81 3e fb 8f 8c 3d eb bb 80 be
       -0.071641505 0.25331482 0.068633996 -0.2514337
000020 cf 03 ce bd 38 bb da 3c a3 f0 5b 3e e2 df 84 3d
       -0.1005932 0.026700601 0.21478514 0.06488015
000030 a5 bd 91 bd 52 8e 8e 3d 34 77 19 be 62 97 13 bd
       -0.0711625 0.06960739 -0.14986879 -0.03603304
000040 c6 71 05 bc 31 5c b2 3e 8b 97 5b bd a8 ac 75 be
       -0.0081448015 0.3483596 -0.05361132 -0.23991644
000050 26 33 5c be 35 47 8b bd 10 e7 c4 3d 11 c9 86 bd
       -0.21503887 -0.06800691 0.09614384 -0.06581319
000060 f7 f2 40 be 7d 15 f0 be 28 63 b0 bd 6e c6 ee 3d
       -0.18842684 -0.46891394 -0.086126626 0.11658941
000070 d8 72 39 3d bb 4a 0a bd ac c2 0b be 76 c8 93 3e
       0.04527554 -0.033762675 -0.1364848 0.28863877
000080 4f d6 4f 3e d7 bd 44 bc 62 8f 25 3f ea 81 75 3e
       0.20296596 -0.012008152 0.6467191 0.2397534
000090 f7 27 8f 3e 9b d3 73 be 72 c8 93 3c 1f 43 12 3e
       0.27960178 -0.2381119 0.018039916 0.14283417
0000a0 da 7c c2 3e 79 09 40 bd a6 5f f8 bb 02 8d fd bc
       0.3798588 -0.046884034 -0.0075797616 -0.030951027
0000b0 d3 33 c8 bd a4 1e 7f 3d 74 e7 c7 bd d9 4c 1a 3e
       -0.0977551 0.06228508 -0.09760943 0.15068378
0000c0 cf 11 f8 bd 7e 61 bb bd 58 f9 0e be 26 32 fe bc
       -0.12112772 -0.091494545 -0.13962305 -0.031029772
0000d0 85 1b f2 bd b4 71 4f 3e 81 8d 8d 3e 01 eb 64 3d
       -0.11821655 0.20258218 0.2764702 0.05588818
0000e0 22 55 01 3d 8e de 7b 3d f6 e9 d7 ba 78 f8 d8 3e
       0.03157533 0.06149154 -0.0016472924 0.42377067
0000f0 5a 6d db 3d 2c c0 78 3e c3 d2 81 3d 8e ad 2d be
       0.107142165 0.24292058 0.06339028 -0.16960737
000100 23 de 69 3e 71 8b 16 3e 2b ff 24 3d 4a 8f 82 bd
       0.22838645 0.1470163 0.04028241 -0.063749865
000110 e1 8f 20 bd 01 98 73 bd 7e 9b d9 3d e0 e5 34 3d
       -0.039199714 -0.059471134 0.10625361 0.04416454
000120 09 99 38 3e e0 4f ea bc a8 7c b5 be 0e a3 1e 3e
       0.18027128 -0.02860254 -0.35446668 0.15491888
000130 36 c6 59 3e 86 8b 06 be d8 6b d5 bc 8b 19 85 3d
       0.21267018 -0.13139161 -0.0260524 0.064990126
000140 50 99 a5 3d bc b5 db 3d d9 6f e2 bd 41 b4 a0 3e
       0.08085883 0.107280225 -0.110564895 0.31387523
000150 a5 b2 e2 3d 27 e9 ee bc 57 60 88 3d f0 41 07 be
       0.1106923 -0.02916391 0.06659 -0.13208747
000160 53 40 ca bd 38 3f 0a 3e 1a 16 13 3e 73 df 52 3e
       -0.0987555 0.13500679 0.143639 0.20593052
000170 12 5e 57 3d a2 5d 7a be 07 5a e6 3d 38 2e a8 3e
       0.052579947 -0.2444978 0.1124764 0.32847762
000180 c7 99 d8 be cd ad a5 3e 24 f8 30 3e 19 09 0f 3d
       -0.42304823 0.32359162 0.17282158 0.034920786
000190 31 08 7f 3d d2 79 68 be 88 35 9e bc b8 45 12 3e
       0.06226367 -0.22702721 -0.019312635 0.14284408
0001a0 12 0e ff bd 36 1d 83 3d b7 70 34 be b3 d8 7e 3b
       -0.124538556 0.06402056 -0.17621122 0.0038886487
0001b0 dc d9 d5 3d c4 36 f0 be a1 d4 91 bd bc 6e b1 be
       0.10441944 -0.46916783 -0.07120634 -0.34654796
0001c0 65 7d bf 3e d9 ca 4c 3d ca 94 d8 bc fa 6e d1 3d
       0.37400356 0.049998138 -0.026438136 0.10226245
0001d0 fa 0d 75 3e 31 ed 71 3e 50 f5 c2 3d 7f 16 c1 be
       0.23931113 0.23625638 0.09519446 -0.37712476
0001e0 c1 58 78 3d 21 ab 17 be 12 d4 38 be 82 ad 68 3e
       0.060631517 -0.14811374 -0.18049648 0.22722438
0001f0 5c 90 34 be 01 e6 7a be fa 6d 88 be 58 9f 20 be
       -0.17633194 -0.24501802 -0.26646405 -0.15685785
000200 e7 f8 25 3d 36 a7 a0 3e 14 a4 a0 3d 58 34 4e 3c
       0.040520575 0.31377572 0.078437954 0.012585722
000210 c7 8c 58 3e 4e 0b 6d bd 00 1f 5f 3d 27 3b 49 3e
       0.21147452 -0.05787211 0.054472923 0.19651471
000220 d8 04 70 be 20 b2 4d be 97 10 5e 3e 13 0d a6 be
       -0.23439348 -0.2008748 0.21686016 -0.3243185
000230 7d 34 fe bc 7b de 42 3d c0 bf 84 3e a6 53 74 be
       -0.031030888 0.047575455 0.25927544 -0.23860034
000240 db 74 84 3d 39 33 78 bd 07 8a a6 be 51 54 02 bd
       0.06467601 -0.060595725 -0.32527182 -0.03181869
000250 5a ca 96 bd 38 a6 86 be d3 a2 e5 3d ee 9e 8f be
       -0.07362814 -0.2629869 0.11212697 -0.2805094
000260 86 d0 59 bc 3d 1f 91 bd af a6 3c 3c c9 c7 76 be
       -0.013294345 -0.07086036 0.01151435 -0.2409965
000270 1d f7 c4 be 8f 95 9a be d9 46 21 bd 6d ef 68 3e
       -0.38469782 -0.3019223 -0.039374206 0.22747584
000280 b6 fa 9d bd 4b 1e a5 3e e6 2b 54 3e cf f1 c4 bd
       -0.07713835 0.32249674 0.20719871 -0.09616434
000290 48 f4 8c be ed d8 4e 3e d6 2c bd 3d de f4 2e 3c
       -0.27530122 0.20199938 0.092370674 0.010678498
0002a0 ca ec 8f 3e 5d 02 23 3e bd 1f a4 3c e8 dd 92 3d
       0.28110343 0.1591887 0.020034665 0.071712315
0002b0 ee 74 a8 3d 14 76 14 bc 4c 97 f4 bd 5c 84 01 be
       0.082254276 -0.009061355 -0.1194292 -0.12648147
0002c0 fc ff 18 bd 35 11 8f be fe 2e 22 3e 94 98 bd 38
       -0.0373535 -0.27942815 0.15838239 9.040642e-05
0002d0 94 b1 9c 3e f9 11 eb bd a5 fc 9d bd 7f ce f2 3a
       0.3060423 -0.114780374 -0.07714204 0.0018524675
0002e0 57 b4 1d 3e cf dc ea 3d b0 10 c9 3e 7e 90 5b bd
       0.15400825 0.11467897 0.39270544 -0.053604595
0002f0 86 b7 4a be 94 eb f6 3d 32 54 37 3d 5e b4 84 3e
       -0.19796571 0.12056652 0.04475803 0.2591886
000300 da 63 83 3e 07 49 5b 3e 5b bc de be ec dd 0a bd
       0.25662118 0.21414576 -0.4350308 -0.033903047
000310 6e 46 bf bc f4 f8 0d 3e e5 b0 cb bd c3 9f 8a 3d
       -0.023349013 0.138645 -0.09945849 0.067687534
000320 11 f7 9b 3e 20 ec 88 3e 63 bc 50 be cf 63 a2 bd
       0.30461934 0.2674265 -0.20384364 -0.07929193
000330 cb ea b3 3d 17 b5 b3 3d ed ff 81 be 9c 18 1e 3e
       0.087850176 0.087747745 -0.25390568 0.15439075
000340 47 71 7a 3c 2f 0a d6 3d 85 d1 ec 3c 2f 06 2b be
       0.0152857965 0.10451161 0.0289085 -0.16701578
000350 e1 a2 09 3c 07 6e a8 be 57 e6 0e be 02 93 bc 3d
       0.00840065 -0.32896444 -0.13955055 0.09207727
000360 bb 77 8b 3e 8e 58 c7 3d 4b 86 f5 bd 04 22 f8 be
       0.27239785 0.09733687 -0.11988505 -0.48463452
000370 90 c2 a7 3d 41 a8 23 bd bf ee 35 3e 76 77 a5 bc
       0.08191407 -0.03995538 0.17766856 -0.020198565
000380 02 a1 85 3c b9 d6 3a be 48 f2 10 3d f0 30 28 be
       0.016312126 -0.18245973 0.035387307 -0.16424918
000390 06 3b 3b bd fd dd 40 bd ec 8f fb b9 8b e9 44 3e
       -0.045710586 -0.047086705 -0.0004798168 0.19229715
0003a0 e9 0c 94 3d 32 b4 48 bd 5f 68 a2 3e 29 15 23 bd
       0.07229025 -0.048999973 0.31720254 -0.0398151
0003b0 99 0a 44 bd 3d 92 8b 3d 31 82 e3 3d 3c 92 a1 bd
       -0.04786167 0.06815002 0.111088164 -0.0788922
0003c0 20 7b 5f 3d a4 2d 28 be dd 37 ad be 96 cf a6 be
       0.05456078 -0.1642366 -0.33831683 -0.3258025
0003d0 0c d4 57 bc ca ad dd bc d7 5d 7a 3d 51 66 f1 3d
       -0.0131731145 -0.027060408 0.06112465 0.117870934
0003e0 44 51 87 be b0 ab 88 3e 0e 1f 65 be 37 13 f4 3b
       -0.26429188 0.26693487 -0.22375128 0.0074485797
0003f0 09 c7 82 be e5 1f 8e be 57 d9 d6 bd 19 cb 8e be
       -0.25542477 -0.2775871 -0.10490673 -0.27889326

actor.2.bias f4 [64]
000000 42 de 40 bd f8 fa 02 3d 73 37 2b 3d 26 65 25 bd
       -0.04708696 0.031977624 0.041800927 -0.040379666
000010 f4 62 87 bd a0 bd cf 3c 2d 8a d4 bc 84 16 85 bd
       -0.06610671 0.025358975 -0.025944794 -0.06498435
000020 04 13 4c bd 80 af 06 3c df d1 31 bd 88 90 22 3d
       -0.049822822 0.008220553 -0.04341304 0.039688617
000030 ac a9 d8 bc 4a 71 65 bd d1 26 c0 bd 30 75 bc 3d
       -0.026448093 -0.056016244 -0.09382404 0.09202039
000040 ae e2 49 bd cc ec 53 3d f3 d2 99 3d 68 93 56 bd
       -0.049288444 0.0517395 0.075109385 -0.05238667
000050 20 49 d0 bb ac a3 93 bd 3a 9e c4 bd 86 f6 71 3d
       -0.0063563734 -0.07208952 -0.09600492 0.059072994
000060 79 3a bd 3c 8f 77 b0 bd f1 d2 8c bd 33 00 0e 3d
       0.023099171 -0.08616554 -0.068761714 0.03466816
000070 b1 1c 70 bd 2f 95 a6 3c 7e dd bd 3b 69 57 91 3c
       -0.058621112 0.020334808 0.005794226 0.017741876
000080 7a cb ae bc a8 d5 60 bd 1e 9d af 3c 46 3f 40 3c
       -0.02133726 -0.05489126 0.021437224 0.011733836
000090 fa 71 8d bc 0e 7f 2a 3d 91 43 b9 3d c0 cc 8e bd
       -0.017266262 0.041625075 0.090460904 -0.06972647
0000a0 74 da 35 3d 19 28 ec bc d3 81 77 3c 9a 58 cf bc
       0.044397786 -0.028827714 0.015106636 -0.025310803
0000b0 12 85 4b bd 74 da f0 ba ce d3 fa 3c 21 f5 7c bd
       -0.049687453 -0.0018375651 0.030618574 -0.06175721
0000c0 76 11 6d 3d 21 4e 1b bc d2 9f 9d bc 06 75 e8 bc
       0.05787798 -0.009479077 -0.019241247 -0.028376114
0000d0 07 e4 5a 3d 6f 41 64 bc 71 cb cc 3c fc 87 0a bd
       0.05344012 -0.013931616 0.024999352 -0.03382109
0000e0 9e d4 79 bc 1b c6 87 bd 6c 67 1d bb c5 98 e2 bb
       -0.015248446 -0.066295825 -0.0024017943 -0.006915184
0000f0 63 fa 1c bd 75 da fd bc a7 47 16 bd 56 db fa bc
       -0.038324725 -0.030987957 -0.036689427 -0.030622166

actor.4.weight f4 [2, 64]
000000 91 a9 8b 3a 97 d5 2a 3c eb f0 b9 3c 71 45 e1 bb
       0.0010655393 0.0104269 0.022697886 -0.006874733
000010 5f eb d5 3c fa 35 bf 3b 57 9c aa bb 33 6d 26 bc
       0.02611321 0.005835292 -0.0052066254 -0.010157871
000020 a5 41 5f 3d 62 9c 21 bd da a9 59 3c 72 67 2e 3b
       0.054505963 -0.03945578 0.013285125 0.0026611951
000030 e3 11 2d bc 3a d2 1d 3e 81 3d 06 bd a0 3a 42 bd
       -0.010563347 0.15412226 -0.0327735 -0.04741919
000040 39 07 a7 bc bd 56 01 39 bf b7 17 3c e7 b3 9f bc
       -0.020389186 0.00012334711 0.009260117 -0.019494964
000050 0f a8 50 bd 60 4b 23 bd 2a ff a0 bc 3d c9 95 bb
       -0.050941523 -0.039866805 -0.019652922 -0.0045711086
000060 cb 0e da 3c 96 bd d7 39 cb 17 7c 3e 55 09 15 bc
       0.026618382 0.00041149248 0.24618451 -0.009096463
000070 d9 30 99 bb f5 20 0c be 3f d9 86 bd 88 a0 85 bd
       -0.0046750125 -0.13684447 -0.06584405 -0.065247595
000080 ba 04 52 b9 eb a0 5d bc 48 d4 c6 3b 25 42 c2 bc
       -0.00020028921 -0.013527135 0.0060677864 -0.02371318
000090 48 09 54 3d 09 ee 51 3c 94 97 32 3c 33 0d f5 bb
       0.051766664 0.0128131 0.010900397 -0.00747838
0000a0 ae 19 42 3d 0d 2a 14 3d 32 fa d5 3c 20 e3 10 bb
       0.04738777 0.036172915 0.026120279 -0.0022108033
0000b0 69 ab d7 bc 8d c3 ac bc 9c 91 b1 3c 57 48 c4 bc
       -0.026326852 -0.02108934 0.021675877 -0.023960276
0000c0 ac 4f 07 3d 77 89 78 3d 49 6c be bc 9c c4 b3 bc
       0.033034965 0.06067797 -0.023244994 -0.021944337
0000d0 0f e9 13 3d 72 f5 03 bd 0a bb 4e 3c 21 ac 8d 3c
       0.036110934 -0.032216497 0.012617836 0.017293992
0000e0 79 b6 ba bc 71 00 a2 bb ce 2a 59 bd bd a8 da 3c
       -0.022792088 -0.0049439003 -0.053019337 0.026691789
0000f0 2c 47 74 bd aa 17 81 3d 4c dc b2 bc 28 91 b0 3c
       -0.059638187 0.06303342 -0.021833561 0.02155359
000100 a8 a3 17 bb a8 09 3c bc c5 a0 cd bc aa 8d f4 3b
       -0.0023138318 -0.011476912 -0.025101075 0.0074631767
000110 ad 35 d0 bc 92 0d 80 bb cd 0f 55 3b 48 88 04 3c
       -0.02541622 -0.0039078677 0.0032510639 0.008089133
000120 cf 9c 5c bd 4a ba 31 3d 4f 85 82 bc 52 77 17 bb
       -0.05386048 0.04339055 -0.015932707 -0.0023111892
000130 d7 27 0f 3c a7 00 1c be 29 4a 09 3d 18 30 52 3d
       0.008737526 -0.15234624 0.03351799 0.051315397
000140 00 37 a8 3c c0 c9 bb 3a 35 5c 1c bc 24 c3 98 3c
       0.020534039 0.0014327094 -0.009543468 0.018647738
000150 d2 14 56 3d 02 d5 1c 3d 8a 1d b3 3c 5e fd 0d 3b
       0.05226595 0.038289078 0.021864671 0.0021665911
000160 3e c8 d6 bc 35 ca 7a ba cf 2e 7c be fc c6 37 3c
       -0.02621853 -0.00095668744 -0.24627231 0.011216875
000170 e3 97 33 3b 33 a1 0b 3e 98 37 87 3d 22 c0 89 3d
       0.0027403764 0.13635711 0.066024005 0.067260996
000180 2c 92 22 39 fd e7 51 3c d4 d1 e0 bb 35 50 a1 3c
       0.00015503977 0.012811658 -0.006860951 0.019691566
000190 37 6d 4f bd c9 dd 48 bc 1f a2 48 bc 75 90 0d 3c
       -0.050641265 -0.012259909 -0.012245684 0.008640398
0001a0 96 f1 3f bd ea 18 08 bd 31 53 d1 bc 93 eb c6 ba
       -0.046861254 -0.033226885 -0.025552364 -0.0015176408
0001b0 14 af e0 3c 30 9a 98 3c f1 a1 b9 bc 8e bb c6 3c
       0.027427234 0.01862821 -0.022660227 0.024259355
0001c0 04 3d 03 bd 43 5c 74 bd 43 9f c1 3c 8f 7a af 3c
       -0.03204061 -0.0596583 0.023635512 0.021420745
0001d0 e6 34 1b bd 31 b6 0a 3d ea f8 4c bc 8a 96 98 bc
       -0.037892245 0.033865158 -0.012510518 -0.01862647
0001e0 7a dc c0 3c 2a c6 eb 3b dd 33 62 3d aa 84 d3 bc
       0.023542631 0.007195254 0.055225242 -0.025820095
0001f0 35 71 5f 3d 61 e0 80 bd 84 60 a9 3c 8b 18 ac bc
       0.054551322 -0.06292797 0.020675905 -0.021007797

actor.4.bias f4 [2]
000000 dd 2e ab 3c e6 2e ab bc
       0.02089637 -0.020896386
