python/pong/policies/final2.pt (torch, 40947 bytes, 11 tensors)

critic.0.weight f4 [64, 6]
00000000: 2c5e e8be 730d 9c3d 9db7 99bd a454 203f
00000010: c63d 87bd 24da 9d3c 1544 87be fafb 343e
00000020: 8ff4 2abf be54 963f 2e7f c7bd 3592 393c
00000030: 537b 1fbd e954 78be f128 6abf e27a d43e
00000040: 7474 883e d75b ff3b 65b7 543d 06ff cb3c
00000050: 4cce 05be 852c 4e3f 0882 a1be e10c aebe
00000060: ab64 4fbe 6342 e13d 9956 0fbf 3c3f c5bf
00000070: e065 4c3e 8a88 1b3b b159 af3e aa9f b6bd
00000080: 9af1 0240 b8da 17bf 8f97 a33d 9d16 9bbc
00000090: c106 093d 540a 3cbe ebc3 2f3e 4049 adbf
000000a0: e842 803e 3825 633d fd7f 75be 6bf6 e2bd
000000b0: 4f5d 62be 3734 42bd f437 223e c1fc e6ba
000000c0: 0bea 5d3e 8a68 cf3a d6be 3bbf 1b24 4fbd
000000d0: 0fe2 6ebb 05ac 8abd 7f71 05be 60ef b13d
000000e0: ac13 b1bf 8263 cfbf f5fd 193c 4020 293c
000000f0: 8509 6c3e 98bb 0d3e fd1a 4fbd 87c4 013f
00000100: 08a3 25be 364f af3b c75a d6bc 84ad 993c
00000110: a433 19bf 94ec 4f3f c8f6 1fbc f5d6 a73a
00000120: bf27 923d 181f 76bd a7c8 d43f 9b1c 28c0
00000130: 6c3b 723c 8caa 01bc 5f9c c4be 1b03 54be
00000140: ff79 a73e 2e92 32be fd62 473c a9c2 cfbd
00000150: 4919 043d 68d0 8fbe 8603 7bbe b79e 2cbd
00000160: da42 c2be 7a16 3f3e 334e 3a3e 31a9 dcbd
00000170: 76f4 803f 75f8 a3bc 7ebe cc3d 57e7 d7bd
00000180: e655 a5be a1db 93bd 6d21 46be 7da9 6b3e
00000190: c7e9 e4bd 049b 0fbe 6c60 d23a 4352 903e
000001a0: cd35 9f3e 99cd 5fbe 76fa 573e 8271 513e
000001b0: a95d 10be 19ec 81bd 8faa 663e d894 b03e
000001c0: 3746 283e d3ab 533e ca9d ebbc 4c48 423e
000001d0: cc76 16be 549a 1e3f d911 5ebe b26a c13c
000001e0: 1a8c 07bd 03ef 333d b306 18c0 18b2 b43f
000001f0: eb0e 67bc 743a b8bc ca1f 08bc 06fe 96bc
00000200: 8bfe 3ac0 d498 6bbd 7946 e53a 4d8a 9dbc
00000210: 4b4f aabe 84ba c4bd 83bd babc 0f1b cb3e
00000220: 7edf 98bd e819 80be fc4c 583e 3726 893d
00000230: 799d 49bf 8122 a5be 0b82 9a3d f38c 8cbe
00000240: b1fd 053d f529 4a3c d20b 98bd 381f 0c3e
00000250: a197 06bc 6cbc bfb7 473e 9b3e 506d 14be
00000260: 9ba4 8b3f e666 b3bf 2e8a f4bd 7c26 e93b
00000270: 1335 373d 2ba1 c53d f813 6f3f c92e 98bf
00000280: 6c3b bbbc 67ec b93d f4fb c2bd 9d1d 203d
00000290: f55e 03c0 ebc1 643f 1842 bf3b f684 063d
000002a0: 0376 b4be a099 873e bfbb 7b3e 2b02 453f
000002b0: 3f04 3cbe cd43 d1bc a2e9 153d 2b23 0e3e
000002c0: ffd2 89bf d9c2 123f 536a 12be 3b10 6e3b
000002d0: 1f14 733c 8c0d 533c 8fe7 3d3f 02ff 8540
000002e0: 6734 12bd 732f cebc 9ba6 1b3e 5c5a 893e
000002f0: c35b 4dbd a6db 443e b187 a73d 21bc c73d
00000300: ff30 75be 4621 4cbd cdda c23e df88 913d
00000310: 62d6 3fbb e175 72be 8d54 c8bc 2c68 dd3c
00000320: 7e34 f5bf 5162 4a40 0a36 a3bc d9ce b7bb
00000330: cf0e 10bd 7248 963b 06b0 ecbf 3274 ccbe
00000340: 51f9 02bc 8937 e4ba 19fc 2ebd 6a98 b9be
00000350: 6d36 963d 0fdc 4e3e ae1d ddbc d955 c5bc
00000360: f656 22be 0784 d3bd 9bd4 edbc a143 08bf
00000370: 4732 97bd 81a7 aa3e a835 593a 30c8 8ebe
00000380: 7b09 d93e efba 76be 19ea bdbc 1100 81be
00000390: 9cbb c0be d54f 973d e5d4 91bf c61e 1b3f
000003a0: 654e 7fbd e868 c23c 3981 813e 0a99 91be
000003b0: a6b7 113f 697b 723e 915e 983e d3e1 2e3b
000003c0: b93e edbd f01a 683e 406a 333e 370f 85bc
000003d0: b04d 6ebe ce14 a0bb 7f62 73bd 3fa4 483e
000003e0: c3a3 923e 16a9 bd3e 37d7 8a3d a2fe a8be
000003f0: 8752 90be 2a70 033f 2861 903e 0744 813f
-0.45384347 0.07619753 -0.075057246 0.6262915 -0.06603579 0.019269057 -0.2641913 0.17674246
-0.66779417 1.1744611 -0.097410545 0.011326362 -0.03893597 -0.2425114 -0.9146872 0.41500002
0.26651347 0.0077929306 0.05193271 0.024901878 -0.13066977 0.8053668 -0.31544518 -0.339942
-0.20253246 0.109989904 -0.5599151 -1.5409923 0.19960737 0.0023732507 0.34248117 -0.08917172
2.0459962 -0.59318113 0.07987892 -0.018931681 0.033453707 -0.18363315 0.1716458 -1.3537979
0.25051045 0.055455416 -0.23974605 -0.11082157 -0.22105907 -0.047413077 0.15841657 -0.0017622934
0.21671312 0.0015824002 -0.7333807 -0.050571542 -0.003645066 -0.06771091 -0.13031577 0.08688235
-1.3834128 -1.6202242 0.009398927 0.01032263 0.23050506 0.13841093 -0.050562847 0.506905
-0.16175473 0.005350019 -0.026166333 0.018759497 -0.5984442 0.81220365 -0.009763427 0.0012805151
0.07136487 -0.060088247 1.6623734 -2.626746 0.014784675 -0.007914197 -0.38400552 -0.2070431
0.32710263 -0.17438576 0.012169597 -0.1014455 0.032250676 -0.2808869 -0.24513063 -0.04214355
-0.3794163 0.18660918 0.18193893 -0.10774458 1.0074604 -0.020015934 0.09997271 -0.105421714
-0.32292098 -0.07219625 -0.19348688 0.23013873 -0.11177402 -0.14023978 0.0016050464 0.2818776
0.31095734 -0.21855773 0.21091637 0.20453456 -0.14098229 -0.0634386 0.22526 0.3448856
0.16433035 0.20671014 -0.028761763 0.18972892 -0.14693755 0.61954236 -0.21686496 0.023610447
-0.033092596 0.04392911 -2.375409 1.411685 -0.014102678 -0.02248881 -0.00830836 -0.018431675
-2.921786 -0.057518795 0.0017492316 -0.019230986 -0.3326362 -0.096058875 -0.022795444 0.39669082
-0.07464503 -0.25019765 0.21123117 0.06696742 -0.7875591 -0.32252887 0.07544335 -0.27451286
0.032712642 0.012339105 -0.074241295 0.13683784 -0.008214862 -2.2856715e-05 0.3032095 -0.14494824
1.0909609 -1.4015777 -0.11940418 0.0071151834 0.04472835 0.09649881 0.93389845 -1.1889278
-0.022855483 0.09078293 -0.095207125 0.03909074 -2.0526707 0.89358395 0.0058367364 0.032841645
-0.35246286 0.26484394 0.24583338 0.76956433 -0.18360995 -0.025545025 0.036599763 0.13880603
-1.0767516 0.57328564 -0.14298372 0.0036325592 0.01483634 0.012881648 0.74181455 4.187379
-0.035694506 -0.02516911 0.15200274 0.2682675 -0.05013634 0.19224414 0.08180178 0.097526796
-0.23944472 -0.04983642 0.38057557 0.07106184 -0.002927207 -0.2367778 -0.02445438 0.027027212
-1.9156644 3.1622508 -0.019923229 -0.005609375 -0.035170373 0.004586273 -1.8491218 -0.399324
-0.007994012 -0.001741157 -0.042720888 -0.36249095 0.073346 0.20201133 -0.026991691 -0.024088787
-0.15853485 -0.103279166 -0.029032042 -0.53228194 -0.073826365 0.3333092 0.00082858885 -0.27887106
0.42390046 -0.24094747 -0.023182916 -0.25195363 -0.37643135 0.073882736 -1.1393095 0.6059383
-0.062330622 0.023731664 0.25293902 -0.28437072 0.5692085 0.2367989 0.29759648 0.0026684895
-0.11584229 0.22666526 0.17521 -0.016242607 -0.23271823 -0.0048852926 -0.059420105 0.19593905
0.28640565 0.37043065 0.0677933 -0.3300677 -0.28187963 0.51343024 0.28199124 1.0098885

critic.0.bias f4 [64]
00000000: 77a8 eebe 0c0b e1be f5a4 993f f241 14bd
00000010: 9d11 4b3f 6cf1 c83e 2553 383e 457c c33d
00000020: e9c3 933f a877 6d3f ef31 b33e e322 07c0
00000030: 078e 87be 5c84 28bc ce56 b33c d098 02bd
00000040: 3dbb ea33 280b d73b 7a68 263e 70f3 8ebe
00000050: 3b0d c43f 41ee 2340 256d 6bb0 2567 163f
00000060: ea94 93c0 e093 903e a16b e7be 01c2 083e
00000070: f7cd 0dbe 8f22 933f 33c8 56c0 13c4 97b3
00000080: 0155 9db9 43e0 283e bb43 1540 8465 c534
00000090: 306c cdbd 8079 18bb b632 5cbf 4728 283f
000000a0: 7235 48bf 05e2 4fbe 192a 2abe f29c 4fbe
000000b0: e276 f3bf 96d4 29b5 cb5a 2536 274e f3bb
000000c0: 95f9 2c3f 147b a5bc 46d7 c0be d879 69be
000000d0: 685e 55bd f5f4 88bf b101 afbb f0e3 b5bc
000000e0: 3412 d33e a311 7e3d e78d 0eb5 1592 5b3d
000000f0: 54d0 933e 6083 993d 6552 08be 27f0 083e
-0.46612903 -0.4395374 1.2003466 -0.036195703 0.7932375 0.3924669 0.18000467 0.09545187
1.1544162 0.92760706 0.34999034 -2.1115043 -0.26475546 -0.010285463 0.021891978 -0.031884015
1.09305326e-07 0.006562609 0.16250792 -0.27920103 1.5316538 2.5614169 -8.5647606e-10 0.58751136
-4.611928 0.2823782 -0.45199302 0.13355257 -0.138481 1.1494921 -3.3559692 -7.067151e-08
-0.00030008706 0.16491799 2.332259 3.6767972e-07 -0.10030401 -0.002326578 -0.8601488 0.6568646
-0.7820655 -0.20301063 -0.16617621 -0.20274714 -1.9020655 -6.326676e-07 2.4639764e-06 -0.007425088
0.6756833 -0.02020029 -0.3766424 -0.22800386 -0.052091986 -1.0699755 -0.005340778 -0.022203416
0.41224825 0.06202854 -5.310562e-07 0.05360611 0.2886988 0.07495761 -0.13312681 0.13372861

critic.2.weight f4 [64, 64]
00000000: 38ec c33d c732 9e3d 54f0 aebe 72f7 83be
00000010: 220f 19be 0d66 ddbd dc08 2b3d 55c1 233e
00000020: 1f30 efbd 21a9 d13d 3afa a3be efec 303c
00000030: df61 593e 03da 573d 9a07 40be c407 cebc
00000040: ffc1 893e 6ecf 1bbc e141 d8bb 3ca5 1b3e
00000050: 128b 7f3d 4e69 a7bd 7b79 943e ceef 58bc
00000060: 3d50 8abb 292f bb3c f930 bd3d c928 9fbe
00000070: c29a 093d 98ff 94be fe38 adbb b61e 2e3d
00000080: cfc4 aebd 470c b63c 3aed 183e 89f0 693d
00000090: 6471 06be d744 afbd 073f f1bd 3d47 0a3e
000000a0: b4d4 02bd 9712 a03d 3e90 90bc 04c6 1dbe
000000b0: d870 ffbd 7da1 f7bd c71a 993e 1335 2a3e
000000c0: d31f 8f3d 507e 3b3e 8316 2fbe 7a5b 91bd
000000d0: 6854 1abd de22 a3be 2b73 2abe c196 10be
000000e0: 83a3 3cbd 1cb4 c13c ac86 91bc 669c 52be
000000f0: cf54 a23d 7973 313e a555 92bc 6190 adbd
00000100: 69a1 a9bc 54db 04bf 7b0d a8be d6c3 1bbe
00000110: 27ab 043e bcfa 0e3e 2237 93bd 0a60 dcbd
00000120: 977c 293e f7cc 80bd 03e4 343e a800 aebd
00000130: 9ce5 1c3e 77bc 79be 0219 11bd 7842 173e
00000140: 3a25 7cbe 10de ed3d a468 42be 68a1 063e
00000150: 27b6 c9bd 8bca c93e 1a06 a33d a3a7 dfbd
00000160: 288c 3cbf be71 2f3e 2834 323e 611d 97bd
00000170: fb96 8abe 330c f03e 924c f3be 26e3 c9bd
00000180: c2e6 fcbc c0af a93e b6d3 c53d 9215 b6bd
00000190: e1ac 073e c90b 82be 7269 7c3e db89 0ebd
000001a0: f97c 093e 5e6e 39be b4a3 8bbe da07 243f
000001b0: bb31 77be e983 323e 7a4d da3e d593 39be
000001c0: a641 0b3e 68fa 343d e0d6 2f3e a893 103e
000001d0: a273 26be 6a19 2d3e 7476 713b 8ba2 a8be
000001e0: 62f1 d8be d8fb c53d 40f8 823e 4803 ba3a
000001f0: 5ab3 fb3b 0a12 05be dd40 1dbe 8cf9 1b3e
00000200: 301b 033e 8ff2 c23c 1500 25bd eb0a 283e
00000210: f446 49be 2962 47bd 012f 833c 030c b6bc
00000220: 667f 4c3b 088b 2f3d 7fdb 31bd 9722 ef3d
00000230: 6a5e 05be 7a2d 163e c19e d6bc 5195 92be
00000240: 8a99 90be e8bc 0ebe 86a4 93ba 1930 41be
00000250: b5e8 013c 16ac f83d b465 a83e 04f6 773d
00000260: 78e0 f33d 84b2 303e f118 3fbe edd1 93ba
00000270: 1144 bd3c 5625 8ebe 8fbb 35be 50ec b73d
00000280: da8b 23be 86ca c83d 7b39 303c 723e 00be
00000290: 660f 553d 2ca0 0f3e 19e3 a73e 653c 0e3d
000002a0: 4e76 e23d d79c b6bc 910c 8d3d bfa2 d33d
000002b0: 18c2 b7bd 261c f0bd 7e18 8f3e 51c0 69bd
000002c0: 0d8d 943e f8f0 2abe 2a4a 2d3e d63a 65ba
000002d0: 125f 8b3d 2203 e7bd d29b a5ba 868c 373d
000002e0: 0851 c8be fd0d 433e c526 f8bc b99c c1bd
000002f0: 8154 043e 4c87 073d 6a0a 893c 3489 03be
00000300: a060 cfbd 5cd9 0ebd d4df febd d42e 6ebe
00000310: 6ac7 723d 928b d3bc 1e29 4bbd 0ee2 d03e
00000320: 69f7 d6bd 8a96 ab3e 87fb 443e 708a 0bbe
00000330: 21f5 8e3d cec0 cfbe e067 a63e 8894 58be
00000340: 401d ae3d a526 8abe b26e 2e3b e5ff 893c
00000350: ff4f 953d 110c e63e 6108 29bd e838 c7be
00000360: b119 f4bf 41c0 6e3c 70dc 81be 13e6 af3d
00000370: 5693 c53d 911a cd3d 21a8 ae3c 79e3 553d
00000380: 9934 57bd 40c5 dcbe 08aa 983d da3c 183e
00000390: 5ae4 09bd 9b83 e3bc 1696 2b3e 9c24 e23d
000003a0: 949d 5d3e d82f 313e 1a01 3a3e f136 95bd
000003b0: 00d1 c23d cede 583e abca 963e 9cd6 c53d
000003c0: 3a19 3dbd 523f 0c3e 3710 5fbd 803c be3d
000003d0: bd65 803e 56ae 8bbe 1f28 803e 7e87 f0bd
000003e0: f6a0 c83e 1c41 3b3e 5b60 8e3e a796 08be
000003f0: 7c57 443e 082b db3e 75db 9e3d 57b9 313f
0.095665395 0.07724529 -0.3416773 -0.25774723 -0.14947179 -0.1081048 0.041756496 0.15991719
-0.116791 0.10237337 -0.32026845 0.010798677 0.21228741 0.052698147 -0.187529 -0.025150187
0.2690582 -0.009509904 -0.0065996503 0.1519975 0.062388487 -0.08174382 0.28998932 -0.013240768
-0.004220991 0.022849636 0.092378564 -0.31085804 0.033594854 -0.29101253 -0.005286335 0.042509757
-0.08533632 0.022222651 0.14934245 0.057114158 -0.13129193 -0.08558052 -0.117796 0.13503738
-0.03194113 0.07816046 -0.017646905 -0.15407568 -0.12472695 -0.12091348 0.29903242 0.16621809
0.06988492 0.18309903 -0.17098431 -0.07097526 -0.037678152 -0.3186254 -0.16645496 -0.14120008
-0.046054374 0.023645453 -0.017764412 -0.20567474 0.07926332 0.17329206 -0.017863104 -0.08474804
-0.02070685 -0.5189717 -0.32822785 -0.15211424 0.12955914 0.13962835 -0.0718825 -0.107605055
0.16551434 -0.06289094 0.17665105 -0.08496219 0.15321964 -0.243883 -0.03542424 0.1477145
-0.24623576 0.11614621 -0.1898523 0.13147509 -0.09849196 0.3941234 0.07960148 -0.10920646
-0.7365136 0.17133233 0.17402709 -0.073786505 -0.27068314 0.46884307 -0.47519356 -0.09857778
-0.030871753 0.331419 0.09659521 -0.08890833 0.13249542 -0.25399616 0.24649599 -0.034799438
0.1342658 -0.18108508 -0.27273333 0.6407448 -0.24140064 0.17433132 0.42637235 -0.181228
0.13599262 0.04418412 0.17171812 0.14118826 -0.16255048 0.16904226 0.0036844285 -0.3293651
-0.4237166 0.09667176 0.25580025 0.0014191652 0.0076812925 -0.12995163 -0.15356775 0.15231913
0.1280334 0.023797302 -0.04028328 0.16410415 -0.19655973 -0.048677597 0.016013624 -0.022222525
0.0031203865 0.0428572 -0.04342222 0.11676519 -0.13024297 0.14665785 -0.026198747 -0.28629544
-0.2824214 -0.1393925 -0.0011264242 -0.18866004 0.007929017 0.12142198 0.32890093 0.060537353
0.119080484 0.17255598 -0.18661858 -0.0011277773 0.023103746 -0.2776286 -0.17747329 0.0898062
-0.15971318 0.09804253 0.010755892 -0.12523821 0.05201664 0.14025944 0.3279045 0.034725565
0.11057721 -0.022291584 0.068871625 0.10333776 -0.08972567 -0.11724119 0.27948374 -0.057068173
0.29013863 -0.16693485 0.16922823 -0.0008744424 0.068052426 -0.112798944 -0.0012634939 0.044811748
-0.39124322 0.19048305 -0.030291924 -0.094537206 0.1292286 0.033088014 0.016728599 -0.12845308
-0.10125852 -0.03487526 -0.124450356 -0.23260051 0.059272207 -0.025823388 -0.04959976 0.40797466
-0.104964085 0.3351329 0.19236575 -0.13627028 0.069803484 -0.40576786 0.32501125 -0.2115041
0.08501673 -0.26982608 0.0026616273 0.016845653 0.07290649 0.4493108 -0.041267756 -0.38910604
-1.907034 0.014572204 -0.25363493 0.08588805 0.09647243 0.10014833 0.021320404 0.052218888
-0.052540395 -0.4311924 0.07454306 0.14866963 -0.03366504 -0.027772715 0.16756472 0.11042139
0.21642143 0.17303407 0.18164483 -0.0728587 0.0951252 0.21178743 0.29451498 0.09660074
-0.046166636 0.1369603 -0.054458823 0.09288883 0.2507762 -0.27281445 0.2503061 -0.11744593
0.39185303 0.18286556 0.27807888 -0.1333872 0.19173998 0.42806268 0.07756702 0.6942343

critic.2.bias f4 [64]
00000000: 9f99 babb ce99 c23d 342e 1d3d aaa9 5c3c
00000010: dc4f 43bd 38fb 8e3b 986f 44bc a42b 703c
00000020: daad 5a3c 796e b9bd 5784 1d3e b338 203e
00000030: 8750 06be adb4 8c3c 165d 3f3e d6d9 48be
00000040: 7679 2cbe 096c 903b b3c8 b83c 684a 0a3c
00000050: d13a 8e3c 6568 173d 9412 1fbd 3ff8 8bbe
00000060: a57d 1ebd 3e74 53bc 988a abbd bf3d 413d
00000070: fbfa 243e 13bb 15bb 9eff 703b 9adf 52bc
00000080: 05dd cfbb bac1 d7bd 8390 75be 28da 3a3b
00000090: 823e 20bc 2985 ccbc d3d5 8d3c 4b0b 5b3d
000000a0: 7ea2 edbd 0867 1bbe 2d62 5ebd 217b ddbd
000000b0: 709d 403e 1d69 8c3d 9252 9ebc b724 333d
000000c0: 1bd6 07bd 0567 84bc 3fd2 0bbc b1b2 a93c
000000d0: 9640 ee3b d315 373c b033 97bd d8b2 a5bc
000000e0: 132f 25b9 10ae 24bc cd18 0ebd e402 153e
000000f0: 60e2 11bd f513 c9bd 756f 75be 3923 2d3e
-0.0056945826 0.09501992 0.03837414 0.013468185 -0.04768358 0.0043634437 -0.011989497 0.014658842
0.0133471135 -0.09054274 0.15382515 0.15646629 -0.13116656 0.017175997 0.18687853 -0.19614348
-0.16843209 0.00440741 0.022556638 0.008440591 0.01736203 0.036964793 -0.038836077 -0.27337834
-0.038694043 -0.012906132 -0.08376044 0.047178026 0.16111366 -0.00228471 0.0036773453 -0.012870694
-0.0063434863 -0.10534997 -0.23980908 0.002851138 -0.009780528 -0.02496584 0.017313873 0.053477567
-0.116032586 -0.15176022 -0.054292846 -0.108145006 0.18810058 0.06855986 -0.019326482 0.043736186
-0.03316317 -0.016162405 -0.008534013 0.02071509 0.007270883 0.011174637 -0.073829055 -0.02022688
-0.00015753163 -0.010051265 -0.03469162 0.14551884 -0.03561628 -0.098182596 -0.23968299 0.16907968

critic.4.weight f4 [1, 64]
00000000: 0450 e63a 076c ffbd fda1 8cbb 0d19 a13d
00000010: a3f7 92bc a299 28bb c930 243b 0c61 ccbb
00000020: 5fa1 42bd b618 b8bc 896f 5fbe c3f7 fe3e
00000030: 8f00 c2be af88 6b3b 779a 71bd 5f30 3f3e
00000040: b7cc 163d b816 99bb 8ffe 113c 2ea7 aa3a
00000050: ebc7 743c 1cef 46ba 8035 993c d296 e53d
00000060: e993 61bb c379 c7bb d8fb 53bd 4688 f43c
00000070: 716f 6ebe 5add a13b 5879 88bb 3099 803c
00000080: 97c0 323c ffd3 8bbe f19b 2f3e 12f5 d93b
00000090: e8f9 9abb a35d 263b c23f 203c ba28 0e3e
000000a0: 3eb6 57bd 61ff d53d 2f57 8abc a44a 52bd
000000b0: af3f 8bbe 47ee e4bb ae6b 81bb 31e2 07bb
000000c0: c6a1 623a 89b1 25bb 6f10 983d cc5a bd3b
000000d0: 10e6 a7bb a2af db3c 535e 58bd 2211 b63c
000000e0: 73f4 6e3c 0846 0fbc d859 3cbd 5530 07be
000000f0: 4fec 39ba 09f1 f7bd fe8f f63d 8bbb f23d
0.0017571454 -0.124717765 -0.0042917714 0.07866106 -0.017940348 -0.0025726338 0.0025053492 -0.006237155
-0.047517177 -0.02247272 -0.21819891 0.49798402 -0.3789105 0.0035939624 -0.0589852 0.18670796
0.036816325 -0.0046718977 0.008910789 0.0013019794 0.014940242 -0.00075887307 0.018702269 0.11210407
-0.0034420437 -0.006087513 -0.05175385 0.029850136 -0.23284699 0.0049397172 -0.004164856 0.015698045
0.010910175 -0.27310178 0.1714933 0.006651529 -0.004729498 0.0025385402 0.009780826 0.13882723
-0.052664034 0.104491 -0.016887276 -0.051340714 -0.27197024 -0.0069864127 -0.003949604 -0.0020734186
0.0008645322 -0.002528282 0.074250095 0.005778646 -0.005123861 0.026817147 -0.05282433 0.022224966
0.014584648 -0.008744724 -0.04598412 -0.13202031 -0.00070924027 -0.12106521 0.12039183 0.11852177

actor.0.weight f4 [64, 6]
00000000: b718 583e be06 863d adea 8a3f 38d8 9abf
00000010: 1093 cdbe 22a8 053f 95fa 79be 39a0 bcbe
00000020: d7f8 f8be 78b1 eabe 536c 103d a22f 77be
00000030: deb0 183e ce88 783e 5c66 0640 9985 003f
00000040: 4971 92be 07cb c43b 48e7 fc3e 34c0 493d
00000050: 3606 d13d ff46 72bf cd11 d53e 6a6a c6bd
00000060: 68b6 7b3e f44e f53d 523a f5bd c4c9 8abd
00000070: 03f5 033d 5366 b83d ab80 d1be 35d2 f5bc
00000080: 3707 1f3e 33bf 31be 8d3a c9be 9b34 953d
00000090: 8ce5 2fbe 5445 c43e d2cd e23e d0b6 c6be
000000a0: f07f 803d b026 94be 31f7 16be c9e7 9abe
000000b0: dbb9 35bd 927b fb3e 5c94 73bc e690 cdbc
000000c0: 9ec8 d4bc bfdb 8c3c 900f 8e40 7330 193f
000000d0: a989 923f 829a 4abd 2714 babd 3ce4 933e
000000e0: 4222 d53f a65f f73e b87c 90be 526e 3bbc
000000f0: b726 803b 05b0 27bc 4964 bb3e fd25 f4bc
00000100: a833 1abf 284a 9cbe 744c 293e 49d6 a83d
00000110: 07c7 f93e 24bd 9abf fe06 d43d 547e 3b3d
00000120: b05e 973e 5a2e d83d 1acc 8a3d d73e babd
00000130: db27 323d ea65 743d 13e8 0fbf 30e1 85bc
00000140: 4a0b 3f3f 8b5c 35bd 9700 18bd 6ef4 b7bb
00000150: 2953 8ebe 3fe4 233e 59cf e6be ec50 00bf
00000160: 8c9e 003f 96bb de3e 001c e7be 0523 8cbe
00000170: 7d3a 183e 677d df3e bb54 f33c 0840 493e
00000180: 4ba4 47bf e02c 46be 0d31 b5bb f8bd 3fbd
00000190: 08e1 613d 1212 65be 49a8 93be aa59 18be
000001a0: b513 d03d be1a 323d 2315 b9be f0dd b3bd
000001b0: 7185 df3c 8bd5 183c 68e8 11bd 8037 c63d
000001c0: ce7a 0cbe efdb 88be d5ba 473a 8b09 503e
000001d0: e6ef b03f 1381 99be e958 4fbf c348 443e
000001e0: 88d5 f43c d4e4 cb3b 7b57 5dbe 1b49 5b40
000001f0: f46b 3abc 5a69 1abc 0cc8 4ebe d31d febd
00000200: d41e 543b 7a04 d23d 75f5 6b3b 7779 fabe
00000210: e1dd 883e 160d 0d3e 2ef6 dabd ac35 5a3d
00000220: 4663 313e 02dc 0e3c 5377 59be e041 56be
00000230: 3c9d 79bc 3f02 bdbc c2b3 67be 5cf5 973b
00000240: 8e73 efbe 8b5c 113e a833 663f a9a1 cdbf
00000250: 79a9 c6be 97ad ac3c da0f 91be 9f82 c9bc
00000260: 1ce1 f0bd 5586 db3e dd92 42be 373b b8bd
00000270: 92fc 943f 271e 1cbe f185 943d 3a7f bcbf
00000280: 9870 4c3e 4e21 9dbc 453f bc3e 41e3 b43c
00000290: e1a4 a0bd 6d42 213f b469 a43e 1e65 9c3d
000002a0: 1253 3b3e e369 bd3e 79a8 88be 843b 17c0
000002b0: 2278 d5bd 0dbc 73be 0d2c 5c3f 15a3 bebd
000002c0: 6a88 19bf 23b8 b8bd 4902 9e3e 35d9 a93e
000002d0: c8ed 033c 5637 54be 58ea 00c0 2055 37c0
000002e0: e47d 4d3e d64e 633c 103c 39bf 1329 34be
000002f0: 808b b1bc fbcd 8fbe e692 db3b 800d 8ebc
00000300: a190 a13e 41c7 94bb bf21 0cbf 801e f13f
00000310: 0ea5 873e f451 67ba 4ed2 e0bc d27c c6bd
00000320: d61a 38bf bc49 6c3f 1e2c 733f 3765 3dbd
00000330: 7270 a1bd e8cb 12bd edc9 27c0 30d7 7240
00000340: 298b 1a3e 31fe 06bc 1a1c e93d 126d af3b
00000350: fe03 4fbf 41fb 4340 6af1 8e3d cc9c cbbc
00000360: dfd4 5d3d 21db 05ba 128d 98bf 217c 983e
00000370: f4c8 0c3e 5d52 093d c41e ac3e ac32 b43e
00000380: 8fc6 84be 04e9 0bbe 1a15 3fbd 5e42 843e
00000390: 19e8 293e f516 a43e 9449 173e 4d6c 983d
000003a0: e7e2 b03d 2f03 bc3e 57fa 24bf 63d4 2f3b
000003b0: 530d 6c3f 6fe4 753d 680d 36be 9481 d2bd
000003c0: a61a 133e 2ae7 233d bbea 50bc c122 843e
000003d0: c110 bb3d 73c5 c73e 9559 8c3f 3574 a93d
000003e0: 255b 92be 63a1 7f3d 24a2 a73d 6691 07bc
000003f0: 0fab 523f 8ed2 b2bd 7dd4 893f 9b04 083f
0.21103178 0.06544255 1.0852867 -1.2097235 -0.40151262 0.52209675 -0.24411996 -0.3684099
-0.4862735 -0.45838523 0.035259556 -0.24139264 0.1491122 0.24270937 2.0999975 0.50203854
-0.28602055 0.006005648 0.49395204 0.049255565 0.10206263 -0.9463958 0.41615143 -0.096882656
0.24581301 0.1197795 -0.11974014 -0.06776765 0.032216083 0.09003892 -0.40918478 -0.030007461
0.15530096 -0.17358093 -0.39302483 0.07285424 -0.17177409 0.38334143 0.44297653 -0.3881135
0.06274402 -0.28935766 -0.14742734 -0.30254963 -0.0443667 0.49117714 -0.014866915 -0.025093507
-0.025974568 0.017194627 4.4393997 0.5983955 1.144826 -0.049463756 -0.09085875 0.28885067
1.665108 0.4831516 -0.28220153 -0.011439877 0.003910865 -0.010234837 0.3659995 -0.02980327
-0.6023507 -0.30525327 0.16533071 0.08243997 0.48784658 -1.2088971 0.10352896 0.045774773
0.29564428 0.10555716 0.067772105 -0.09094017 0.04349504 0.059667505 -0.5621349 -0.01634273
0.746266 -0.04427771 -0.037109938 -0.005613855 -0.2779782 0.16005038 -0.4508007 -0.50123477
0.50241923 0.43502492 -0.4513855 -0.27370468 0.14866062 0.43650362 0.029703489 0.19653332
-0.77985066 -0.19353056 -0.005529529 -0.046812028 0.055146247 -0.22370175 -0.2883933 -0.14877954
0.10160009 0.043482535 -0.3614894 -0.087825656 0.02728531 0.009328256 -0.03562203 0.096785545
-0.13718721 -0.26730296 0.00076190877 0.2031614 1.3823211 -0.29981288 -0.8099504 0.19168381
0.029886976 0.006222347 -0.21615402 3.426337 -0.011378277 -0.009424532 -0.201935 -0.12408032
0.0032367008 0.1025476 0.0036004458 -0.48920795 0.2673178 0.13774523 -0.10691486 0.05327384
0.17323026 0.008719446 -0.21236925 -0.20923567 -0.0152352415 -0.02307236 -0.22627166 0.0046374034
-0.4676785 0.14195459 0.8992257 -1.606496 -0.38801172 0.021078868 -0.28332406 -0.024598418
-0.11761686 0.42875925 -0.19001336 -0.08995669 1.1639578 -0.15245877 0.0725211 -1.4726326
0.19964826 -0.01918092 0.3676702 0.02208102 -0.07843948 0.6299198 0.32111895 0.07636474
0.18293408 0.36994848 -0.26691034 -2.3630075 -0.10423304 -0.23802204 0.86004716 -0.09308449
-0.59973776 -0.09019496 0.30861118 0.33173528 0.008052297 -0.20724234 -2.0143032 -2.8645706
0.20067555 0.013873776 -0.72357273 -0.17593794 -0.021672964 -0.28086838 0.0067008613 -0.017340422
0.31555656 -0.0045403545 -0.5473899 1.8837433 0.26493114 -0.00088241627 -0.027444031 -0.09691776
-0.7191595 0.9230001 0.9498919 -0.046239104 -0.07882775 -0.03583899 -2.6216996 3.794384
0.15092148 -0.008239315 0.11382313 0.0053535784 -0.80865467 3.0622103 0.0697964 -0.02485504
0.054158088 -0.00051062 -1.1918051 0.29782203 0.13748533 0.033525813 0.33617222 0.3519491
-0.25932738 -0.13663107 -0.046650983 0.25831884 0.16592444 0.32048765 0.14774162 0.07442532
0.08637028 0.3672118 -0.6444449 0.0026829473 0.9220783 0.060032304 -0.17778552 -0.10278621
0.14365634 0.040015377 -0.012751277 0.25807765 0.09134055 0.3901783 1.0964838 0.08274118
-0.28585163 0.06240977 0.08185223 -0.008274412 0.82292265 -0.08731566 1.0767971 0.5313203

actor.0.bias f4 [64]
00000000: 12ea e43e eb81 f63e 3aef 25c0 1d21 193f
00000010: c1b4 ea38 d3e3 e8bd 9e4e aebe d1cd d7bd
00000020: 4830 e5bf 03fc 4ac0 c09b 7fbe 2622 9d3e
00000030: 475a aa38 8308 e2be ad6d a4be 8d71 b73e
00000040: 077f d9bc 0000 0000 973e 03be 512c 39be
00000050: 36c5 b1bf 374b c9b9 28fe ca3d dadd 01bd
00000060: fa5f bd3e 92f6 4abe 7db2 253f 6889 09bf
00000070: 6188 903f 914c 373f 615c 9e40 4948 e13e
00000080: 6207 00bf 83a3 07bf 7e4c 193e 9372 09c0
00000090: d220 a83f 82a1 9f3c 6691 fe36 aad9 6dbf
000000a0: e934 023e 1709 803e 0330 fdbe 9689 d9be
000000b0: 1733 e337 be5b f03e 3ac5 fa3e 1d26 b2bf
000000c0: e206 973f d014 30be 5a04 073f 9c36 4f3f
000000d0: 6b24 863f 78a6 ecbe 41de 2d40 3475 4b3f
000000e0: 4115 773d c1f9 0dbe e7ac d7c0 1d0f 073f
000000f0: 3c07 703e 2f38 92bd a8f5 2637 80a6 e8bf
0.4470983 0.48145995 -2.5927262 0.5981615 0.000111916575 -0.11371579 -0.34044355 -0.10537303
-1.7905359 -3.1716316 -0.24961758 0.30690116 8.123047e-05 -0.4414712 -0.32114926 0.3582882
-0.02654983 0.0 -0.12816845 -0.18083312 -1.3888309 -0.00038393747 0.09911758 -0.031705715
0.36987287 -0.19820622 0.64725477 -0.5372529 1.129162 0.71601206 4.9487767 0.44000462
-0.50011265 -0.52983874 0.14970586 -2.147618 1.3135016 0.019486193 7.5867165e-06 -0.92910254
0.12715496 0.25006935 -0.49450693 -0.42487782 2.70843e-05 0.46944994 0.48978597 -1.3917881
1.1798975 -0.1719544 0.52741015 0.809427 1.0479864 -0.46220756 2.7166903 0.7947571
0.060323004 -0.13864805 -6.7398562 0.52757436 0.2344026 -0.071396224 9.951567e-06 -1.8175812

actor.2.weight f4 [64, 64]
00000000: 8085 40be 9b0a 7e3e 8101 c9bf ec65 2dbd
00000010: 2bad 62be 900c ae3e 908c f6be b123 39bd
00000020: 7625 c83d 414a 4fbf 5df1 583e f1e6 d03b
00000030: d72f 62be 220e ba3d bebc a8be 2b04 203f
00000040: 4f8f fd3e 0e04 ff3e 62ca f43d 8943 08bd
00000050: a1b5 0b3f ec5a a73d b1de 92bc 00b5 053e
00000060: d3f3 16bd 8a0e b5be 63ff 84bf 2e73 043e
00000070: a57d ac3e e6b7 733d a352 ef3e bd74 563f
00000080: 9efd ba3e 3637 6e3d d072 723f 1bb6 7c3e
00000090: f1b8 1a3f 3455 c6be 23d8 06be a0cd 6d3e
000000a0: 5213 603d 4155 b4bc 85ad a13d 9bc6 53bf
000000b0: c86b 7dbe 3cc8 7dbe 2736 dbbe 2f84 df3d
000000c0: 2d8f b73f 8fc9 19bd 4501 c2be b0fd 3fbe
000000d0: 3219 b4bd adee 103e efc9 843f 2749 a1be
000000e0: d115 663e 21c4 d73d e6ca d6bf 3dbf 163f
000000f0: a76e f1bd fa8d ab3e d7cf b0bd f3b0 85bc
00000100: 29e8 62bc a560 073e 4651 4f3e e546 7fbb
00000110: 5d2c 7cbd 980f 49be 0417 be3d 7b15 0a3e
00000120: c996 703d a331 98bd a667 cfbe ca1a cc3e
00000130: 87de 423e 4eac 83be 0c9d 25be c9af 3b3e
00000140: 529b 2d3e 39c2 043e 8f5f 3bbe 4616 363f
00000150: 1725 2bbd 5eac debb fdcf 863d 8a30 18be
00000160: 6ff9 03bf 1207 9cbd 8b2d f13e 0cef 873e
00000170: 24ba 833e 3a5a abbe 8f56 c23e c0d4 b63e
00000180: 9a34 21bf 69f1 753f 8c2c 7dbe 2d9e 50be
00000190: 0340 29bb 65cb 7abe 68b7 2abd a8b7 33bd
000001a0: 0c38 72bd 2c51 903e cfbf 82be 7044 1fbc
000001b0: a309 a83d 152f b3be 914b d03d 5a5f 8abe
000001c0: d510 84bd 55c1 df3c c302 1a3c ec4a 923e
000001d0: c05f c63e 76e1 a93d fa8a 83bd ace4 c6be
000001e0: df89 9c3d 03b6 39be f004 e0be 1569 933e
000001f0: 8947 c7bd 2213 f0bd 7ae3 93be f508 e5bd
00000200: b4cf 5f3d 8ac2 393f d22f 2bbe 58e1 b23d
00000210: 174c 87bc f9af dd3d 4fa1 9f3d d142 d23e
00000220: 2a9f d4bb 21cf 83be d12e fd3e ac7c 6dbe
00000230: 3a9d 84be 27cc 90be bccb ca3e c95d 2c3e
00000240: a440 5f3e ad68 2b3e 1099 3abe 5f0c 1abe
00000250: fe89 23bd 5b4d 0fbd 07a6 f9bd af86 7cbd
00000260: bc8b 62bd 7d32 353d 7c32 54be d458 b1be
00000270: 436a 82be 1cf4 9cbb d84a 173e d096 a33e
00000280: 5403 1fbe c2d8 383d 812e 8e3c a8e7 f4be
00000290: 7cfc c7be ba6d 14bd b1df 0abe 6f1b 5c3e
000002a0: 588b df3e d1c9 4bbe e0c7 973d 6f5e 92bd
000002b0: 4d3b 15be 44b3 2fbd 6400 59be 0719 79be
000002c0: 034c 1dbc 2de9 08be 4787 84bd 8461 143d
000002d0: 9143 1f3e 8c52 acbd 7ffa aabe 995d adbd
000002e0: 8d66 04bd ab22 aabd 122d 623e dfb9 dcbe
000002f0: 545e cbbe b33f af3e 8fa0 3bbe 56bc 923d
00000300: 24fc b23e dba9 8c3e 39ac d7be 0b03 bc3a
00000310: bc40 84bd 6628 b73d 3897 19be ff73 b43d
00000320: 06dd 323f c1c2 c23e 6bf0 fbbd 1212 223e
00000330: cbfc 3e3d dc6c 3e3d 79a2 9cbe dc96 1a3e
00000340: 378b a13d 343b 153e cfd0 1b3e 0a96 99bd
00000350: 6629 c5bd c952 93be 05fd 73bd da2e f53d
00000360: 49e9 293f 98dc 7c3e e42c d3be b472 f5be
00000370: 7ba1 bc3c e634 d5bd a08e c63e 6e5d d93c
00000380: e81b 8cbe 7c41 12bf abb9 91be 8c5f 40bf
00000390: fc6a 50be 58e3 d0bd 7bd3 2abd 8880 143f
000003a0: 3cad 2abe e243 f1bd ebbc 6a3e d82f 633e
000003b0: d871 b6bd 91cc a93e f56c 05be 982a 87be
000003c0: 1ddb c1bd 0709 89bd b7c5 31bf 78e9 b5be
000003d0: 0a3d 723d 83ae 61bd 696e ef3b ff32 513d
000003e0: 7edd 02bf faa3 c43e 411e 6a3c d8f7 66be
000003f0: e267 92be 0c89 7ebe b2a2 15be 8372 45bf
-0.18800926 0.24808733 -1.5703584 -0.04233353 -0.22136371 0.3399396 -0.48154116 -0.045200054
0.0977277 -0.8097268 0.21185823 0.0063751866 -0.22088562 0.09084727 -0.329565 0.6250636
0.49523398 0.4980778 0.11952664 -0.03326753 0.5457402 0.08171639 -0.017928453 0.13057327
-0.036853623 -0.35362655 -1.0390438 0.12934563 0.3368961 0.05950155 0.46742734 0.8377188
0.3652162 0.058158122 0.9470644 0.24678843 0.6043845 -0.3873688 -0.13168387 0.23222971
0.054705925 -0.022013308 0.07894424 -0.8272492 -0.24748147 -0.24783415 -0.42814752 0.10913884
1.4340569 -0.037545737 -0.37891594 -0.18749118 -0.08793868 0.14153548 1.0374125 -0.31501123
0.2246926 0.105354555 -1.678067 0.58885556 -0.117886834 0.33506757 -0.08633392 -0.016319728
-0.013849297 0.1322046 0.20245847 -0.0038952169 -0.061565746 -0.19634855 0.09281734 0.13484757
0.05873755 -0.074313425 -0.40508765 0.39864188 0.190302 -0.25717396 -0.1617319 0.18328775
0.16953781 0.12964715 -0.18298171 0.71127737 -0.04178342 -0.00679545 0.06582639 -0.14862266
-0.5155248 -0.07618536 0.4710506 0.26549566 0.25727952 -0.33467275 0.37956664 0.3570919
-0.6297089 0.9607149 -0.24724025 -0.2037284 -0.0025825507 -0.24491651 -0.041678816 -0.04387632
-0.05913548 0.2818693 -0.25536963 -0.009720907 0.08204963 -0.34996858 0.10170663 -0.27025872
-0.06448523 0.027313868 0.0094000725 0.28572786 0.38744926 0.082949564 -0.06422992 -0.38846338
0.07643484 -0.18135838 -0.43753767 0.2879111 -0.09730441 -0.11722399 -0.28884488 -0.11183349
0.05464144 0.7256247 -0.16717461 0.08734387 -0.016515775 0.1082458 0.07794439 0.41066602
-0.0064887004 -0.25743964 0.4944978 -0.2319209 -0.25901204 -0.28280756 0.39608562 0.16832651
0.21802002 0.1673915 -0.18222451 -0.15043782 -0.03992652 -0.03498588 -0.1218987 -0.06165188
-0.055309042 0.044237603 -0.20722383 -0.34638083 -0.25471696 -0.0047898423 0.14774644 0.31950998
-0.15528613 0.04512859 0.01735616 -0.4783299 -0.39059818 -0.036237456 -0.13561894 0.2149484
0.43660998 -0.19901206 0.0741117 -0.07146918 -0.14573403 -0.04289557 -0.21191555 -0.24325953
-0.009600642 -0.133702 -0.064711146 0.03622581 0.15553118 -0.08414182 -0.33394238 -0.08465118
-0.032324363 -0.08307394 0.22087505 -0.43110558 -0.39720404 0.34228286 -0.18322967 0.071648285
0.34957993 0.2747334 -0.42123583 0.0014344169 -0.064576596 0.08943252 -0.14999092 0.08811187
0.69868505 0.3803921 -0.123017155 0.15827206 0.0466278 0.046490535 -0.30592707 0.15096611
0.07887881 0.14573365 0.15216373 -0.07499321 -0.09627037 -0.28774098 -0.05956747 0.11971827
0.6637159 0.24693525 -0.41245186 -0.47939074 0.023026219 -0.1041048 0.3878069 0.026533809
-0.2736504 -0.5713117 -0.28461966 -0.7514579 -0.20353311 -0.101996124 -0.04170559 0.58008623
-0.16667646 -0.11780526 0.22923629 0.2218622 -0.08908433 0.33163884 -0.13029845 -0.26399684
-0.09465621 -0.06691175 -0.69442314 -0.35529685 0.059140243 -0.055098068 0.007306863 0.051074024
-0.5111922 0.38406354 0.01428944 -0.22555482 -0.2859488 -0.24856967 -0.14612845 -0.77127856

actor.2.bias f4 [64]
00000000: 8b88 49be 7f70 1d3c d2a7 3ebe 521f a7bd
00000010: d6a4 90bd 7f4f 4fbe 9de6 fe3c 7de7 9ebd
00000020: 6a8e c1be 9c6f 2f3c 222b e0be 0cf1 463e
00000030: 1eab 1cbe 9ceb 023e c89b 7dbe 0aae 273e
00000040: b79c b9be 618e 4f3e 65ce 863e 540a e63d
00000050: d446 c73d c3d2 8dbc 9ec5 ebbd 6871 83bd
00000060: 8569 eb3d 6969 243e 95db c1bd 4da7 223e
00000070: f962 dd3e ce91 5f3e f2cf 16bd fef0 7f3e
00000080: 03b8 3fbe 83aa 49be 330c f3bd 8cb4 a0bd
00000090: ebf0 dbbd 0946 283d 2de6 833d d02d 3ebe
000000a0: a3e4 d6be e38e f3bd 3310 df3d 2500 babe
000000b0: e1fb c23d 3b11 903d c4a9 03be 817c a2be
000000c0: d35c 0f3e bb0d 66be 615e d93d 2fe0 383e
000000d0: 958b 843c 9b57 acbd 2110 dd3a 3717 02be
000000e0: 363e 0cbe 0129 043e 04e6 e63d 1bf9 26be
000000f0: 2889 c83d af5b 793d 309b fb3d 725e a1bd
-0.19680993 0.009609341 -0.18618706 -0.08160271 -0.0706269 -0.20245169 0.031115824 -0.07758997
-0.37803966 0.010707762 -0.43782908 0.1942789 -0.15299651 0.1278519 -0.24766457 0.16374984
-0.36252376 0.20269157 0.26329342 0.11232439 0.09730306 -0.017312413 -0.11512302 -0.06418115
0.11494736 0.16055836 -0.0946571 0.15884133 0.43239573 0.21832964 -0.036819406 0.24994275
-0.18722539 -0.19693951 -0.11867561 -0.078469366 -0.10739311 0.041082416 0.06440387 -0.18572164
-0.4197131 -0.11892488 0.10891762 -0.36328235 0.09520698 0.070345365 -0.12857729 -0.31735614
0.14000253 -0.22466175 0.106137045 0.18054269 0.01617984 -0.08415147 0.0016865769 -0.12704168
-0.13695607 0.12906267 0.11274341 -0.16305964 0.097917855 0.060878452 0.12285459 -0.07879342

actor.4.weight f4 [2, 64]
00000000: e564 d33e b675 94ba aefa c3bd c1b3 62be
00000010: 238d 0fbc dfed 21be 9c4c 6b3d e541 bcbd
00000020: a3cc f03e f32d 523e ca47 243f a0ce 22bf
00000030: f365 093e 220e e83c 4ec9 41be 865f 02bc
00000040: 347c 583f a760 a13d ad76 2e3e 7c59 2c3e
00000050: 30c6 663e abcd a53b ec8b 4bbe 01fa be3e
00000060: 637a 653e b27a 2abd f10c 78be 0de7 0a3e
00000070: 1fc9 4fbf 3268 0b3e d870 5a3c 964b 0a3e
00000080: ee71 1ebe 91f9 1abe 411f 64bc e6b9 c6ba
00000090: 497b b1bc e4ac 723d 581c c43c 77c3 fabc
000000a0: 6606 923e 17ad 58be 421a 783e 9b7c 72bd
000000b0: c12c ae3d 0ce7 183e 99c7 63ba b447 943e
000000c0: f0a0 2d3c de6a 8dbc e3f4 e13c 0d30 e93d
000000d0: 7478 f13b a000 6abc 4d97 6a3c 3574 27be
000000e0: 5ef1 e0bc 77fd 5a3e 16ee 6b3d 1880 babc
000000f0: edde bdbc 5b2f 5f3e e7c5 cfbb 952f aabc
00000100: 9f08 d4be 7c55 af38 450e bf3d c64d 633e
00000110: ecf8 1a3c d2e6 233e 664e 73bd 0705 b83d
00000120: e777 f0be 2326 4ebe 3df5 24bf 80e5 223f
00000130: d544 0bbe 8e7f d9bc 478c 423e c430 423c
00000140: a972 58bf 9130 9ebd 87c0 2ebe 4437 2dbe
00000150: ac6a 65be bc7f d9bb 32cf 4d3e 3e35 c0be
00000160: 2c11 65be 923f 283d 9ef5 773e d2ba 08be
00000170: 174a 4f3f 9fe7 0bbe 577e 57bc c23b 08be
00000180: c165 1e3e 823d 1a3e 2622 573c 7636 24bb
00000190: e3b2 ba3c 6667 70bd 091f cfbc f123 023d
000001a0: 60c1 91be efb0 5b3e 0885 77be 4236 633d
000001b0: 7ceb abbd 0d6c 1bbe d84b f2b8 a520 94be
000001c0: 4056 1dbc 5dc5 953c 43bf debc 3942 eabd
000001d0: dced 15bc 4081 823c 9ed7 68bc 7516 263e
000001e0: 2516 e73c d7ae 58be e6e4 62bd 7aa4 c13c
000001f0: 822f 943c 4e13 5fbe 17da a93b b6a7 ae3c
0.41287914 -0.0011326584 -0.09569298 -0.22138883 -0.008761677 -0.15813397 0.057446107 -0.09192256
0.47031125 0.2052534 0.6417204 -0.63596535 0.13417797 0.028327052 -0.18924448 -0.007957345
0.8456452 0.07879763 0.17037459 0.1683101 0.2253654 0.005059918 -0.19877595 0.37300113
0.22409968 -0.041620918 -0.24223687 0.13564701 -0.8116626 0.13613966 0.013332568 0.13505396
-0.15473148 -0.15134265 -0.013923467 -0.0015161603 -0.021665232 0.059246913 0.023939297 -0.030610783
0.28520507 -0.21159779 0.24228767 -0.059200864 0.0850463 0.14931887 -0.0008689105 0.28960955
0.0105974525 -0.017262872 0.027582591 0.11386118 0.0073690955 -0.014282376 0.0143182995 -0.16352923
-0.027458843 0.21385752 0.057600103 -0.022766158 -0.023177588 0.21795408 -0.0063407305 -0.020774642
-0.41412827 8.360573e-05 0.093288936 0.22197637 0.009458762 0.1600602 -0.05940094 0.08985334
-0.46966478 -0.20131736 -0.64436704 0.6363144 -0.13600476 -0.02655008 0.18998824 0.011852447
-0.8454996 -0.07724107 -0.17065631 -0.16915613 -0.22403973 -0.0066375416 0.2009857 -0.3754062
-0.22369832 0.04107625 0.2421479 -0.13352516 0.8097243 -0.13662575 -0.01315268 -0.13304046
0.15468504 0.15062526 0.0131307 -0.0025056875 0.022790378 -0.05869236 -0.025283353 0.031772558
-0.28467846 0.21454214 -0.24171841 0.055471666 -0.083945245 -0.15177937 -0.00011553586 -0.28931156
-0.009603083 0.018282587 -0.02719081 -0.11438412 -0.009150948 0.015930772 -0.014211563 0.16219504
0.028208802 -0.21160446 -0.055394076 0.023637999 0.01808906 -0.21784708 0.005183469 0.021320205

actor.4.bias f4 [2]
00000000: bde9 333e 6ae9 33be
0.17569633 -0.17569509
