python/pong/policies/final2.pt (torch, 40947 bytes, 11 tensors)

critic.0.weight f4 [64, 6]
00000000: c998 d2be 0d47 8e3d 9398 b7bd a709 223f
00000010: 2868 b1bd d8d9 9b3c 99a9 82be b915 363e
00000020: d09c 43bf 8ef5 903f 5bbd bfbd 120b 6b3c
00000030: fb5d 2ebd 13e6 74be 7cc7 60bf ed60 e13e
00000040: 1984 8b3e b462 313b c697 ad3b b241 ea3d
00000050: 00dc 16be 9ec4 4f3f fa6e 93be 1003 87be
00000060: 3ef7 48be cedc bd3d 18b2 13bf 15c5 c5bf
00000070: be69 3a3e 607d 0d3c 3e06 a73e 8592 b1bd
00000080: 47f3 0540 bda5 13bf 5096 a63d 0488 5cbc
00000090: ae5f 64bc 59e7 36be a453 f73d 18b2 9abf
000000a0: 9acc 8c3e d2ad 113d 6a41 56be e644 e9bd
000000b0: 525a 75be 90bf 0fbe 077b 273e ccb5 b63b
000000c0: 221b 5e3e cda8 6abb e446 3fbf fc30 0cbe
000000d0: 528c c73a c560 7dbd 6ef4 f5bd e5e9 943d
000000e0: fca5 b7bf 78b9 cabf 2d1d 79ba 17b2 583c
000000f0: 6576 803e daef 083e ec78 2a3d 4029 0c3f
00000100: d191 1cbe 4153 6539 2b6b 68bc c139 7e3c
00000110: 5141 21bf 2756 433f 47d9 773b f373 e239
00000120: 480a 2d3d 4be4 48bd 8046 db3f 3986 2ac0
00000130: 3353 393c cef6 b23b 7b9c c4be 9c02 54be
00000140: f979 a73e 5c92 32be 36b5 463c d7c3 cfbd
00000150: 81ab 543c 3f7c 81be 3e5e 76be f6c5 8ebd
00000160: 9c1f c2be 85e1 553e ebb1 293e 00db efbd
00000170: a803 823f d02c 803d a596 cd3d 728d d0bd
00000180: e655 a5be a1db 93bd 6d21 46be 7da9 6b3e
00000190: c7e9 e4bd 049b 0fbe 176b 263b fc72 903e
000001a0: 3033 9f3e 97c2 5fbe a41e 583e 1c85 513e
000001b0: afba fabd 11ed 88bd 9699 533e 7a7e d43e
000001c0: 612d 0c3e 1c1c 453e 570c 13bd 58b2 443e
000001d0: a354 1cbe 4829 263f 1185 5ebe cd70 debb
000001e0: d9a2 6cbc 1d0e ec3c 781a 1cc0 91a6 af3f
000001f0: b497 e7bc 0c60 f0bc 2099 50bc 7ed9 7ebc
00000200: 9a4f 3ac0 9792 b4bd a4c6 a43b 4375 03bc
00000210: 4b4f aabe 84ba c4bd 83bd babc 0f1b cb3e
00000220: 7edf 98bd e819 80be fec3 5c3e 16a5 483d
00000230: dab7 4fbf 691c 8cbe f878 493d e437 90be
00000240: 1bc6 0a3d 8d17 413c 70e8 1dbc 270b d93d
00000250: 040b 09bc cad4 463a 2bdf 993e 39e4 0fbe
00000260: 5d37 953f 9864 afbf 7be0 e3bd cc54 043b
00000270: a28f 8d3d ab72 943d ef54 6b3f aa64 95bf
00000280: 5c81 23bd ac36 d63c 2e1e 79bd 88d1 243d
00000290: ca5c 07c0 aea6 583f 385d d8bb 31c5 8c3c
000002a0: e9a9 a6be 32e9 783e 2b6b 7f3e 2cec 473f
000002b0: bd81 69be 67a9 e2bb 6e03 cd3c 8c8e 0d3e
000002c0: 1db4 8fbf 5770 fe3e 9f9e 0bbe 0ac8 bb3b
000002d0: 423f 973c c5fb 543c ce03 5a3f 8d11 8440
000002e0: d6d0 c2bc f955 62bc 50a3 1b3e ae54 893e
000002f0: c35b 4dbd a6db 443e e487 a73d ffb8 c73d
00000300: 2830 75be d211 4cbd 96da c23e 4e87 913d
00000310: 00cb 3bbb 8975 72be 52e0 613c 0895 1c3a
00000320: 5457 00c0 c01d 4840 11dc 85bd 5955 0d3c
00000330: 2073 15bd fa81 643b 8072 eabf 24af d8be
00000340: 8066 c9bb f2bb 96ba e4fc 2ebd 6a98 b9be
00000350: 6d36 963d 0fdc 4e3e b51c ddbc b955 c5bc
00000360: abf6 20be 4b92 c1bd 25b0 7abd a205 0ebf
00000370: 91b0 a9bd 2cbd ac3e b98b 6b3a cbc6 8ebe
00000380: 6409 d93e 79bb 76be 2dc4 bdbc 1100 81be
00000390: 258a b5be 3472 8f3d 2c7c 9abf 6903 123f
000003a0: e8fd 8dbd 2ba5 b13c f52f 793e 4283 92be
000003b0: 13e6 073f 45bf 503e 5655 983e 0ef6 bd3a
000003c0: 965d e6bd aafb 653e 1339 273e 46fb 963c
000003d0: 1b50 74be 457e 1abb 3664 40bd 2daa 423e
000003e0: c65e a23e a24e e83e 9f50 803d 1dff a8be
000003f0: c35a 8dbe c32b 073f 29cd 963e e007 853f
-0.4113219 0.069471456 -0.08964648 0.6329598 -0.08662444 0.019024774 -0.25520018 0.17781724
-0.7641115 1.1324937 -0.093622886 0.014345901 -0.042570096 -0.23915891 -0.8780439 0.4401926
0.2724922 0.0027066888 0.005297634 0.11438312 -0.14732361 0.8115939 -0.28795606 -0.26369524
-0.19625565 0.09270631 -0.57693624 -1.545077 0.182044 0.008635849 0.3262195 -0.086705245
2.0929735 -0.5767477 0.081341386 -0.013460163 -0.013938827 -0.1786169 0.120765 -1.20856
0.2749985 0.03556616 -0.20923391 -0.113900945 -0.23960236 -0.14037919 0.16355525 0.005575871
0.21690038 -0.003580618 -0.74717546 -0.13690561 0.0015224314 -0.061859865 -0.12009512 0.07271174
-1.434753 -1.583785 -0.0009502944 0.013226054 0.25090328 0.13372746 0.041619226 0.5475044
-0.1529 0.00021870156 -0.014185707 0.015516699 -0.6299029 0.76303333 0.0037818716 0.00043192468
0.042246133 -0.049045842 1.713089 -2.6644423 0.01131134 0.0054615503 -0.38400635 -0.2070412
0.32710245 -0.17438644 0.012128165 -0.10144775 0.012980343 -0.25290105 -0.24059388 -0.06971352
-0.3791474 0.2088681 0.16571777 -0.11711693 1.0157366 0.06258547 0.10038499 -0.101832286
-0.32292098 -0.07219625 -0.19348688 0.23013873 -0.11177402 -0.14023978 0.002539342 0.28212726
0.3109374 -0.21851574 0.21105438 0.20460933 -0.12242638 -0.06685842 0.20664057 0.41502744
0.13689186 0.19249004 -0.03590044 0.19208658 -0.15266661 0.6490674 -0.21730448 -0.0067883492
-0.014443123 0.028815323 -2.4391155 1.3722707 -0.02827058 -0.029342674 -0.01273182 -0.015554784
-2.9111085 -0.08817022 0.0050285626 -0.008023563 -0.3326362 -0.096058875 -0.022795444 0.39669082
-0.07464503 -0.25019765 0.2155914 0.048985563 -0.8113991 -0.27365425 0.04918763 -0.2816764
0.033880334 0.0117854 -0.009637937 0.1059783 -0.008364443 0.00075848086 0.30053076 -0.14051904
1.165752 -1.3702574 -0.111268006 0.0020192144 0.069121614 0.07248434 0.91926473 -1.1671345
-0.03991829 0.026149116 -0.060819797 0.040238887 -2.1150384 0.84629333 -0.0066029094 0.017183872
-0.32551506 0.24307707 0.24943225 0.78094745 -0.22803397 -0.006917167 0.02502605 0.13823909
-1.1226841 0.49695083 -0.13634728 0.0057306336 0.01846278 0.01299948 0.85162055 4.1271424
-0.023781221 -0.013814443 0.15199018 0.26822418 -0.05013634 0.19224414 0.08180216 0.09752082
-0.23944151 -0.049821682 0.38057393 0.071058854 -0.0028654933 -0.23677649 0.013786392 0.0005973135
-2.00533 3.1268158 -0.06536115 0.0086263055 -0.036486745 0.003486751 -1.8316193 -0.42321122
-0.006146252 -0.0011500104 -0.042721644 -0.36249095 0.073346 0.20201133 -0.026991228 -0.024088727
-0.15719096 -0.09451731 -0.06120314 -0.55477345 -0.082856305 0.33738077 0.0008985359 -0.27886042
0.42389977 -0.24094953 -0.023164833 -0.25195363 -0.35456958 0.070042044 -1.2069144 0.57036453
-0.069331944 0.021685204 0.243347 -0.28615767 0.5308544 0.20385464 0.29752606 0.0014492886
-0.11248319 0.22459283 0.16330366 0.018430363 -0.23858683 -0.0023573798 -0.04697057 0.1901023
0.3171293 0.45372492 0.06265377 -0.33007136 -0.27608308 0.5280115 0.294534 1.0393028

critic.0.bias f4 [64]
00000000: 40c6 fdbe f18c ddbe 241b 9c3f 14c9 15bd
00000010: 15ee 503f 4906 c23e 6bfe 543e 9e04 ae3d
00000020: be8a 913f 71f7 7b3f 43cf ab3e b00c 0fc0
00000030: ca30 89be 0984 28bc 8153 9f3c c0c2 21bd
00000040: fe54 eb33 da71 d73b 0ec0 303e 112a a9be
00000050: 7e10 ce3f 8fa1 2540 256d 6bb0 763e 153f
00000060: 386d 95c0 8f60 963e 834a e0be c692 3f3e
00000070: 118b 23be 3556 a43f 067e 60c0 31bc 6eb3
00000080: c7eb 9cb9 5df0 223e e3e5 1f40 e4e6 c534
00000090: a1cc b2bd 8b6e 18bb a310 5fbf 41ef 2f3f
000000a0: 3d78 5cbf d315 62be 1a73 31be 1379 35be
000000b0: 0544 f6bf 6a4b 23b5 8e81 2d36 ee4e f3bb
000000c0: 7393 1d3f 34ab 5bbc c42d bdbe 5ce8 6dbe
000000d0: 2ca4 57bd 85b1 93bf 3c6c aebb 5900 62bd
000000e0: 28d9 d23e 441d d73d 3b29 08b5 b7c1 873d
000000f0: b725 8e3e 30e3 993d dade 10be 5eb7 183e
-0.49565315 -0.43271592 1.2195783 -0.036568716 0.81613284 0.3789542 0.20800178 0.084969744
1.1370466 0.9842444 0.33556566 -2.2351494 -0.26795036 -0.010285386 0.019448997 -0.03949237
1.09585e-07 0.0065748515 0.17260763 -0.33039907 1.6098783 2.5879858 -8.5647606e-10 0.5829843
-4.6695824 0.29370543 -0.43806848 0.18708333 -0.15971018 1.2838808 -3.5076919 -5.5584852e-08
-0.00029930306 0.15912004 2.4984062 3.6862104e-07 -0.08730436 -0.0023259248 -0.8713476 0.6872445
-0.8612097 -0.22078638 -0.17329064 -0.17721967 -1.9239508 -6.0831974e-07 2.585442e-06 -0.0074251806
0.61553115 -0.013407517 -0.3694898 -0.2323317 -0.0526468 -1.153855 -0.005322961 -0.055176113
0.41181302 0.10503629 -5.0723946e-07 0.06628745 0.2776315 0.07514036 -0.14147511 0.14913699

critic.2.weight f4 [64, 64]
00000000: 85d5 c43d 5bea 5d3d 91ec 9dbe e81f 88be
00000010: 9c3e 37be 7570 cabd e236 053d f16e 243e
00000020: 9fac e7bd 8743 bc3d ad4f a5be 484e e8bc
00000030: 76aa 653e 9cde 523d 5ac6 22be b35e 0abd
00000040: 9423 893e b3e4 07bc 8241 08bc c5be 043e
00000050: a9cd 633d 4ede 80bd 10db 933e 62c2 c3bc
00000060: 6c37 40bb 4aa0 0f3d 0f97 be3d 9db8 95be
00000070: 5b35 613c f446 98be 4dea 98bb 1c1a 333d
00000080: 4741 b1bd 2031 513d bdd3 1b3e 2af5 643d
00000090: 0194 00be 4fc1 b1bd b188 f8bd bf29 0f3e
000000a0: 0860 34bd 1dc0 b53d 4bd7 34bd 25b8 11be
000000b0: 58cd 07be 9d26 f5bd 32b9 993e fdf5 283e
000000c0: dd79 813d a0b9 263e 7bd1 1cbe 74a0 56bd
000000d0: 4561 7dbd a8d9 a6be 3cb2 2bbe ec48 16be
000000e0: 2088 41bd daa1 b73c 5f90 87bc c23b 54be
000000f0: ff8b 9d3d 2103 383e 1206 83bb e015 d0bd
00000100: b4a7 e0bc 83d3 05bf b090 b2be f6d0 21be
00000110: 9cd5 123e 72c3 113e 7f94 ebbd 6b97 44be
00000120: ecf7 303e 592b a8bd 91d5 5e3e 5df2 8abd
00000130: feae ff3d 5fa4 85be 9288 4abd f67e 333e
00000140: b3d8 86be dd7f 083e 4f36 4fbe e69f 2b3e
00000150: 56cd 85bc b14f c13e 9fd2 7f3d eef6 b2bd
00000160: 46d9 47bf bd15 263e 18af 323e 1e09 96bd
00000170: 25a0 74be 3ec5 d53e ea88 cabe 4bc6 a6bd
00000180: 21ae 44bd 4e33 243e a138 443e 6c32 d9bd
00000190: 39b8 fa3d a9d1 8abe 2261 203e 4d98 0b3d
000001a0: fcfb 993d c5e4 52be 85e1 83be 5ddc 2a3f
000001b0: 3501 82be b514 443e 5c13 e33e a324 4bbe
000001c0: b64d 313e 2397 003e 5c81 413e 1206 073e
000001d0: 9e0d 49be f0a2 2c3e 948f 5cbc 01d9 b8be
000001e0: afc2 e1be f1b9 e93d 22be 8b3e 7610 6ebc
000001f0: 4bb2 a1bc 1ad3 f2bd 181c 4fbe 9dc9 233e
00000200: dc69 093e f83a 483d bf84 d5bc 5a75 393e
00000210: 41e4 34be 02a4 7dbd 3830 963c 362b 72ba
00000220: 771f debc 849c 703d 0aae 4ebd e86b 093e
00000230: bc24 0fbe 1e5b 163e d3be f1bc 89dc 9abe
00000240: 6781 90be 8eea 0ebe 7392 ea3b deef 2dbe
00000250: afe4 773c 70ff 0a3e d77d a83e 2069 103d
00000260: 3029 9c3d f87e 093e bd76 45be d551 763c
00000270: 996b 383d 5852 91be 650e 2dbe 848e b73d
00000280: 365e 23be 3921 cd3d 1164 273d 6210 00be
00000290: a51e 693d d0cd 0f3e 2792 ab3e 83a8 863c
000002a0: f7a9 0d3e df19 dbbc 77a1 ab3d 41eb 9b3d
000002b0: 7e94 a0bd f279 f0bd 5800 8f3e 2307 69bd
000002c0: b13b 833e 9e3a 27be aac0 063e cd34 ac3c
000002d0: 2902 883d cfe8 d2bd 3d61 8eba 23f7 633d
000002e0: ca3a c8be 6e65 463e ff9b f9bc 7703 bbbd
000002f0: 288d 033e eae3 7e3c e80a 123d f837 e4bd
00000300: 7fd3 ddbd 4203 0dbc d8ca f5bd 3ef8 37be
00000310: c7da a63d 6a7f 903c 6ce8 2a3d 7de3 c13e
00000320: b51b b7bd 28ec b93e b511 2c3e f5eb 65be
00000330: e298 073e cd39 c3be 858a a23e 8a86 29be
00000340: 183b e03d a6ad 96be de0c 8439 5ea9 25bd
00000350: 638c 313c 6e5b e13e 91a3 89bc c6f5 c1be
00000360: 6b08 f7bf 1248 7b3b 80a2 8ebe 8c53 ae3d
00000370: 616f cf3d 5377 ed3d 2f01 dbbb 6f59 e33c
00000380: d7fb e5bc 315c a0be e748 373e 5949 313e
00000390: 86fa b8bc 2bad 58bb dfc7 353e a222 ac3d
000003a0: 1e0a 833e 2008 403e 9a8f 463e 8265 8fbd
000003b0: 8c81 8b3d 50d2 3f3e a843 8a3e eaf3 f73d
000003c0: 768d a1bc d029 cf3d f370 31bc 26c1 533d
000003d0: 925f 333e c51b 9ebe 25af 8c3e 8553 1abe
000003e0: 4d28 d53e 7dd4 203e d9d9 813e b8a6 dfbd
000003f0: e977 373e 1842 c83e a24f b13d dc53 473f
0.09611038 0.054178577 -0.30844548 -0.26586843 -0.17894977 -0.09884731 0.032523043 0.16057946
-0.11312222 0.09192567 -0.3228735 -0.02835764 0.22428307 0.051481828 -0.15895978 -0.03378172
0.26784956 -0.008294272 -0.0083163995 0.12963398 0.055616055 -0.06292401 0.2887807 -0.0238964
-0.002932991 0.035064973 0.09306156 -0.2924241 0.013745631 -0.29741633 -0.0046666027 0.04372607
-0.08655029 0.05107224 0.1521749 0.05589787 -0.12556459 -0.08679449 -0.12135447 0.13980769
-0.044036895 0.08874533 -0.044150632 -0.14230402 -0.13261926 -0.119702555 0.30024105 0.16500087
0.06322072 0.16281748 -0.15314285 -0.052399114 -0.06186034 -0.32587934 -0.1676721 -0.14676255
-0.04724896 0.022416044 -0.016548334 -0.20725921 0.07692718 0.17969944 -0.0039985264 -0.10160422
-0.027423717 -0.52275866 -0.34876013 -0.15802369 0.14339298 0.14234713 -0.11502933 -0.19198386
0.17282075 -0.08211393 0.21761157 -0.067845084 0.12484549 -0.26101968 -0.04944665 0.175289
-0.26337203 0.13330026 -0.20235561 0.16760215 -0.016333263 0.37756112 0.062456723 -0.08738504
-0.7806591 0.1621923 0.17449605 -0.07325958 -0.23889215 0.41752046 -0.39557582 -0.0814329
-0.048017625 0.16035196 0.19162227 -0.1060532 0.12242169 -0.27113083 0.15662053 0.034080792
0.07518765 -0.20595081 -0.25757995 0.667425 -0.25391546 0.19148524 0.44350708 -0.19838195
0.173148 0.12557654 0.18897003 0.1318591 -0.19634101 0.1685903 -0.013461966 -0.3610306
-0.44093844 0.11412419 0.27293497 -0.014530292 -0.019738337 -0.11856671 -0.2022556 0.15994878
0.13419288 0.048884362 -0.026064275 0.18111172 -0.17665197 -0.06192399 0.01833354 -0.00092380063
-0.027114613 0.058743015 -0.050458945 0.13420069 -0.13978857 0.14683196 -0.029509937 -0.3024638
-0.28223726 -0.13956663 0.0071585714 -0.16986033 0.015130206 0.13574004 0.32908508 0.035256505
0.076250434 0.13427341 -0.19283576 0.015034159 0.045024488 -0.28383136 -0.16900022 0.089627296
-0.15953907 0.10016102 0.040866915 -0.1250625 0.05691399 0.14043355 0.33509943 0.016437775
0.13834368 -0.026745735 0.08380406 0.076132305 -0.07840823 -0.11742009 0.2792995 -0.05689157
0.25631478 -0.16330954 0.13159433 0.021021271 0.06641037 -0.10298311 -0.001086272 0.05565561
-0.39107352 0.1937463 -0.030469893 -0.0913152 0.12846816 0.015557269 0.035654932 -0.11143488
-0.10831355 -0.008606734 -0.1200158 -0.1796579 0.08147197 0.01763888 0.04172556 0.37868872
-0.089408316 0.36312985 0.1680363 -0.22453292 0.13241914 -0.38130036 0.31746307 -0.16555229
0.10948771 -0.29429358 0.0002518659 -0.040444724 0.010836693 0.44015068 -0.016801627 -0.37882823
-1.9299444 0.0038342518 -0.27858353 0.08512029 0.10128666 0.11595025 -0.0066834907 0.027752606
-0.028074188 -0.31320336 0.17898904 0.17313136 -0.022580396 -0.00330622 0.17752026 0.08405043
0.25593656 0.187531 0.19390717 -0.07001783 0.068118185 0.18732572 0.27004743 0.1210707
-0.019720774 0.10115397 -0.010830152 0.051697873 0.17516926 -0.3088056 0.27477375 -0.15070923
0.4163231 0.15706058 0.25361517 -0.10920471 0.17916836 0.39112926 0.08657767 0.77862334

critic.2.bias f4 [64]
00000000: 11c3 92bb adb6 e53d ff74 1c3d 1233 34bc
00000010: e06f 46bd b59c 693c 88cc ffbb fe5e e83c
00000020: 7e32 5a3c dbf5 a4bd 186b f53d a676 203e
00000030: 9510 04be 42fb ab3c 60cd 463e 6271 5abe
00000040: 6c6d 2cbe 883c 3f3c 3c95 843c ed0c 673c
00000050: b417 e13c 80bf fe3c 07e5 58bd a670 88be
00000060: be2b 0cbd 780e 07b8 a0c9 a6bd d7c9 273d
00000070: 5b8f 233e 268c 1a3c b780 7f3c ee4c febc
00000080: e830 c7bb 468c eabd d4df 7fbe 3c6b 4dbb
00000090: ba1a c5b9 c3d9 86bc 37af 8fbc ebb4 353d
000000a0: cf9c f2bd 3cb3 0abe b70d 10bd 9fc6 d7bd
000000b0: e8a7 4d3e ee40 843d f979 48bc f3f6 343d
000000c0: dede efbc a982 9abc 5ea8 81bb 2091 833c
000000d0: 998a f439 cf9f 84bb c3b6 21bd ee1b e0bc
000000e0: 1e98 15bc 6171 f6bb e47e 58bc cdaf 1f3e
000000f0: dc92 54bd 136b e6bd 97aa 80be e248 2e3e
-0.00447882 0.11216483 0.038197514 -0.010998504 -0.048446536 0.014258553 -0.0078063644 0.028365608
0.013317702 -0.08054706 0.11983317 0.15670261 -0.1289695 0.020993832 0.19414282 -0.21332315
-0.16838616 0.011672147 0.016184442 0.014102203 0.027477123 0.031097174 -0.052952792 -0.26648444
-0.034221403 -3.2199983e-05 -0.08143926 0.040963974 0.15972655 0.009432828 0.015594653 -0.031042542
-0.006078828 -0.11452536 -0.24987727 -0.0031344434 -0.0003759468 -0.016461259 -0.017539604 0.04436199
-0.11846315 -0.13544935 -0.03516933 -0.10535931 0.20083582 0.06457697 -0.012236112 0.04418082
-0.029281076 -0.018861132 -0.0039568385 0.016060412 0.0004664257 -0.004047371 -0.039480936 -0.027357068
-0.009130506 -0.00752084 -0.013213847 0.15594406 -0.05189787 -0.112508915 -0.2513015 0.1701999

critic.4.weight f4 [1, 64]
00000000: 4700 1b3b 4f5c 0abe f37d a3bb 5981 803d
00000010: 5046 dfbc 5038 a0bb 7b40 d5bb d860 6e3a
00000020: 4698 5cbd df4f 23bd c33d 55be b7c1 003f
00000030: 0ccf c4be adc6 d1b9 e754 86bd 86a8 413e
00000040: ac61 0d3d ee94 a839 b8c4 2e3a b2c6 69bb
00000050: 7ce2 843c 2437 dcbb bfeb af3c 5259 aa3d
00000060: 21cc 2cbc 0eef 05bd 4e47 78bd 50e4 dd3c
00000070: 0a4c 79be 9b1b ee3b c642 91bc 7062 073c
00000080: fcb8 073c a996 94be e052 413e 1112 43ba
00000090: fb0a c23b aa25 cebb 64b3 ae3c 6697 123e
000000a0: 7332 74bd 4661 f63d 44da 4fbb 50c1 49bd
000000b0: 0989 8fbe c562 0cba e3b7 2fbc f46e 94bc
000000c0: e269 e3bc 2296 0bbb 5682 973d 63eb c13a
000000d0: 47f9 a03c ec46 353d 2791 6cbd 7455 0c3d
000000e0: 086d 043d b1dc 933c 5c77 5fbd 1322 0fbe
000000f0: 1142 f2bb f2b3 01be c917 f23d 674e b03d
0.0023651288 -0.13511775 -0.0049893796 0.06274671 -0.027255207 -0.0048895255 -0.006507931 0.00090934103
-0.053856157 -0.039871093 -0.20824341 0.50295585 -0.38439214 -0.0004001161 -0.065591626 0.18911943
0.034516975 0.00032154418 0.00066668866 -0.003567141 0.016221277 -0.0067204405 0.021474717 0.08317818
-0.010546715 -0.032698683 -0.060614876 0.027086407 -0.24345413 0.0072664744 -0.017732035 0.008263215
0.00828385 -0.29021195 0.1887927 -0.0007441352 0.005921719 -0.006291111 0.021325774 0.14315566
-0.059618425 0.12030272 -0.003171579 -0.049256623 -0.28034237 -0.0005355294 -0.010724994 -0.018119313
-0.02776045 -0.0021299203 0.073979065 0.0014794882 0.019650115 0.04425709 -0.057755616 0.034261182
0.032330543 0.01804957 -0.05455719 -0.13977842 -0.0073931296 -0.126663 0.11820943 0.08608704

actor.0.weight f4 [64, 6]
00000000: 58cb 503e 3570 103e b2bb 803f 844d 95bf
00000010: e4b5 acbe 7583 1f3f 4128 7cbe e81f bebe
00000020: 7f92 f8be da65 eabe 6a54 d33c 6f11 78be
00000030: 1b29 893d 862a 853e 5a9e 0e40 82c4 3a3f
00000040: 5082 88be 44ab 9bbb 7491 013f 50d5 203d
00000050: d4e8 ea3d 3ebb 6cbf 3c35 b63e d441 e9bd
00000060: 00a8 7d3e 4a77 f93d 4e3b f5bd 12cd 8abd
00000070: 28d9 0d3d 24bb bb3d 2610 dcbe b7f0 6b3a
00000080: 5e36 143e 9534 71be 6c49 adbe 4364 ab3d
00000090: 52f8 1cbe a2ea c03e 1c8a cf3e 980a c7be
000000a0: f75f 303d a649 a3be bef8 16be 95e9 9abe
000000b0: fab5 35bd da7a fb3e c5b9 75bc a0f1 cdbc
000000c0: ce54 19bd 5a79 4f3c c943 8f40 b686 bd3e
000000d0: aead 963f 2f77 93bc 8868 afbd b012 963e
000000e0: a34e b43f 3481 083f 3bb3 98be cd20 093c
000000f0: ee91 5e3b b3d4 26bc 1765 bb3e 975e f4bc
00000100: d634 1abf 244a 9cbe e25a 2c3e 3a23 af3d
00000110: f0ae f83e cb4c 9abf 6a58 db3d a38a 4c3d
00000120: 8571 983e c983 dd3d 77c9 8a3d 5746 babd
00000130: ccdd 3e3d e384 7b3d 5fe7 0fbf 87a2 81bc
00000140: 960a 3f3f f572 35bd 55af 17bd f80c adbb
00000150: 2f2e 83be 825b 853e 4664 ecbe 105b cbbe
00000160: 35b1 f33e fcf7 f33e cf64 d3be 9c91 a0be
00000170: d79e cb3d c4ee eb3e 49cc 2139 9ca6 4a3e
00000180: 81f2 47bf 7c1a 4abe 8f8d a3bb 23a4 3ebd
00000190: be8b 343d 1b26 66be 49a8 93be aa59 18be
000001a0: b513 d03d be1a 323d 2315 b9be f0dd b3bd
000001b0: 3c41 4f3c 0935 653d a96d 7abb bc25 00bc
000001c0: f8f9 34be 1cd7 56be e61c 62bd 0892 603e
000001d0: 41cd aa3f ffc0 b3be abc5 4dbf 409a 223e
000001e0: 7c46 bd3c 755c d43c 44b4 82be d30f 6040
000001f0: 747d 97bb 0b48 d7bb 08c9 4ebe d41e febd
00000200: 7635 543b a201 d23d 9653 693b 8179 fabe
00000210: 1b23 893e 2c93 0d3e 71f7 dabd 632e 5a3d
00000220: df1b 323e c9ed 203c 0277 59be ee3f 56be
00000230: a9a2 79bc 8afb bcbc c6b2 67be 847c a03b
00000240: dc3c f3be 52d5 013e 3fcc 673f e32d dbbf
00000250: d3a4 bcbe 944f 203c da0f 91be d184 c9bc
00000260: 1ce1 f0bd 5586 db3e dd92 42be 383b b8bd
00000270: 5203 983f 538a 17be 7581 ce3d fabf b5bf
00000280: ce5b 4d3e 38bf 85bc 640b bd3e 2319 c03c
00000290: aca4 a0bd 7b42 213f 1360 a53e 01df 9e3d
000002a0: 7124 6e3e 6e10 b33e fcdd 95be 33fc 1dc0
000002b0: b10e 1ebe bbf3 54be a818 5e3f 3391 8abd
000002c0: 46d5 19bf afb3 afbd 213c a43e d0e1 ae3e
000002d0: a6ba 6a3b d97c 4dbe 64af efbf 15eb 3ec0
000002e0: a8dd 563e 590d afbb f53b 39bf 9023 34be
000002f0: e38f b1bc 2ecf 8fbe 62e5 dc3b 7b24 8ebc
00000300: 0f5f 9a3e c3c7 80bc db1a 0fbf 18b1 f03f
00000310: ef8f 8e3e 21d6 80bb 31dc 6c3c 4fce 21be
00000320: 00f9 3fbf 842b 763f fb55 673f 3960 1ebd
00000330: b90f a3bd bcfe 1ebd 1728 2ec0 9c0b 6d40
00000340: b55b 193e 9daa ca3b 356d d33d 1a31 453d
00000350: 519c 63bf 9f80 4340 5a34 5b3d 5155 753c
00000360: 20d3 573d 4de7 4dbb 748c 98bf 7283 983e
00000370: 75ad 0a3e d8de 043d 5005 ad3e 2633 b53e
00000380: 67c5 84be 72ec 0bbe dc15 35bd 0b41 853e
00000390: b515 2b3e 8ce3 a43e 8d49 173e f169 983d
000003a0: 5a85 b43d 34b0 bc3e 57fa 24bf ca8d 2f3b
000003b0: 530d 6c3f 61e4 753d 680d 36be 9481 d2bd
000003c0: f5b3 143e 6d75 2c3d 0e2a 51bc bc22 843e
000003d0: 21fd bf3d 502c c83e 1e3c 8c3f 0863 a73d
000003e0: 9660 92be fa1a 803d 0d52 a53d 7792 f9bb
000003f0: d548 473f b498 b8bd b32b 893f 09da 153f
0.2039007 0.14105304 1.005728 -1.1664281 -0.33732522 0.6230996 -0.2462473 -0.37133718
-0.48549268 -0.45780832 0.025797088 -0.242254 0.06697293 0.26009005 2.228415 0.729561
-0.2666192 -0.004750641 0.5061257 0.03926593 0.1147019 -0.9247321 0.3558749 -0.11389509
0.24771118 0.12180956 -0.11974202 -0.06777395 0.034630924 0.091665536 -0.4298107 0.0009000408
0.14473864 -0.23555215 -0.3384508 0.08368733 -0.15329102 0.3767901 0.40535057 -0.3887527
0.04306027 -0.31892127 -0.14743325 -0.30256334 -0.044363 0.49117166 -0.014997904 -0.02513963
-0.03743439 0.01266321 4.4770246 0.3701684 1.1771753 -0.018001167 -0.0856486 0.29311132
1.4086498 0.5332215 -0.29824242 0.008369637 0.0033961493 -0.010182547 0.36600563 -0.02983026
-0.6023687 -0.30525315 0.16831544 0.08551641 0.48570967 -1.2054685 0.10710223 0.0499369
0.2977411 0.10816152 0.067767076 -0.090954475 0.04659824 0.061406028 -0.5621242 -0.01582457
0.7462553 -0.044299085 -0.037032444 -0.005281087 -0.25621173 0.26046377 -0.46170253 -0.39717913
0.47596136 0.47650135 -0.41287848 -0.3136109 0.09942406 0.460806 0.00015430259 0.19790119
-0.78104407 -0.19736665 -0.0049912403 -0.04654325 0.04407858 -0.22475474 -0.2883933 -0.14877954
0.10160009 0.043482535 -0.3614894 -0.087825656 0.01264983 0.05595878 -0.0038212335 -0.007821497
-0.1767348 -0.20980495 -0.05520334 0.21930707 1.3343889 -0.35108182 -0.8037974 0.15879154
0.023104899 0.025922993 -0.25528157 3.5009658 -0.0046231095 -0.0065698675 -0.20193875 -0.12408224
0.0032380498 0.10254218 0.00356028 -0.48920825 0.26784596 0.13825673 -0.10691727 0.053266894
0.17393444 0.009822317 -0.21236804 -0.20922825 -0.015236535 -0.023069162 -0.2262679 0.004897656
-0.4750737 0.12679031 0.9054603 -1.7123379 -0.368445 0.009784598 -0.28332406 -0.024599465
-0.11761686 0.42875925 -0.19001336 -0.0899567 1.1876013 -0.1479886 0.10083286 -1.4199212
0.20054552 -0.016326532 0.36922753 0.023449486 -0.07843909 0.62992066 0.3229986 0.07757378
0.23256089 0.34973472 -0.29270923 -2.468518 -0.15435292 -0.20796101 0.8675637 -0.06765976
-0.60091054 -0.08579194 0.32077125 0.34156656 0.0035816818 -0.20067157 -1.87254 -2.9830983
0.20982993 -0.0053421673 -0.7235711 -0.17591691 -0.021675056 -0.28087753 0.0067412117 -0.01735138
0.3015065 -0.015720254 -0.55900353 1.8804045 0.27844188 -0.003931776 0.014456795 -0.15801357
-0.7498932 0.9616015 0.9036557 -0.038665984 -0.07961983 -0.038817152 -2.721197 3.7038336
0.1497639 0.0061848895 0.10323564 0.04814253 -0.88910395 3.0547254 0.053516723 0.014973954
0.05269158 -0.0031418384 -1.1917863 0.29787785 0.13542731 0.032439083 0.33793116 0.35390586
-0.25931856 -0.13664415 -0.0442103 0.26026186 0.167075 0.32204854 0.14774151 0.07442082
0.08814497 0.36853182 -0.6444449 0.0026787394 0.9220783 0.060032252 -0.17778552 -0.10278621
0.14521773 0.042104173 -0.012766374 0.2580775 0.093744524 0.39096308 1.0955846 0.081731856
-0.28589314 0.06255145 0.080722906 -0.007616337 0.7784551 -0.09013501 1.0716461 0.5853582

actor.0.bias f4 [64]
00000000: 1baa 053f 1c68 f63e 80cf 3dc0 9394 123f
00000010: db9e eb38 1463 82bd bb64 a1be 68ce d7bd
00000020: 1fcb e5bf 13b0 51c0 649c 7fbe 439d 9d3e
00000030: ff5d ab38 cf07 e2be 0e34 b2be 287c ef3e
00000040: bbc6 dabc 0000 0000 bdeb bebd 173c 99bd
00000050: dd9c babf cd59 c9b9 28fe ca3d 3bdd 01bd
00000060: 762e da3e 92f6 4abe 1734 303f 6889 09bf
00000070: 1daf 9a3f a5d0 363f 0426 a240 4b48 e13e
00000080: 733e fabe afac 13bf 5dc7 bf3e dd9e 0cc0
00000090: 9520 a83f c39d 9f3c da99 0037 aad9 6dbf
000000a0: ea34 023e d90b 803e fb82 f1be 5293 e4be
000000b0: 674a e837 ccdc ed3e 6667 ee3e c06a aebf
000000c0: e8fc 813f d014 30be 5713 073f 041e 4a3f
000000d0: 10df 9d3f 71a2 ecbe 169f 4840 fdb4 3b3f
000000e0: b9b8 0e3e fbb3 26be e2cb e1c0 035e 0e3f
000000f0: 3c07 703e c535 92bd fb45 2d37 3771 f5bf
0.52212685 0.48126304 -2.9657898 0.57257956 0.00011235262 -0.06366554 -0.31522164 -0.10537416
-1.7952613 -3.2763717 -0.24962002 0.30784044 8.1714235e-05 -0.44146582 -0.3480534 0.4677441
-0.02670609 0.0 -0.09322307 -0.07482164 -1.4579121 -0.00038404614 0.09911758 -0.031705122
0.42613572 -0.19820622 0.6882948 -0.5372529 1.208469 0.71412116 5.0671406 0.44000468
-0.4887577 -0.5768537 0.3745679 -2.1971962 1.3134943 0.019484406 7.665216e-06 -0.92910254
0.12715498 0.2500904 -0.47170243 -0.44643646 2.7691201e-05 0.46457517 0.46563262 -1.3626328
1.0155306 -0.1719544 0.52763885 0.7895205 1.2333698 -0.46217683 3.1347098 0.7332304
0.13937654 -0.16279595 -7.056138 0.556122 0.2344026 -0.07139162 1.0327897e-05 -1.9175175

actor.2.weight f4 [64, 64]
00000000: df7e cdbd 00e3 833e f172 eebf d5b9 37bd
00000010: 7c68 6cbe 3769 ad3e e5b7 06bf d635 12bd
00000020: c885 0f3d 5cf4 4dbf aaac 623e fce0 4dbb
00000030: 28eb 6bbe 4a85 cd3d 13eb 0dbf 4731 343f
00000040: 5537 013f 89f1 013f 5247 f73d 5bd3 24bd
00000050: 3e74 723f 20d2 ba3d eebb e0bc 7670 0f3e
00000060: 6231 fbbc e431 b0be 4d16 87bf 686e f53d
00000070: 6667 943e 3dcb 4c3d 12cc 1f3f 34e5 583f
00000080: 2121 b63e 40cb 043d ccf1 2c3f 8707 613e
00000090: 7c48 183f 2e32 cbbe b493 10be 4189 773e
000000a0: d224 393d 7219 01bd b601 7b3d 139c 59bf
000000b0: 5893 83be aa2b a0be c8c6 e4be f407 c23d
000000c0: f32b b83f 46b7 e5bc 09df c6be 9830 3cbe
000000d0: e368 97bc 08aa 1a3e 044d 3b3f aebf b8be
000000e0: ac25 823e 4c88 ed3d e77a d8bf 1d97 1d3f
000000f0: 7272 02be a06a b03e fc46 c4bd 6f46 a7ba
00000100: 7ef2 243d 71f2 ff3d 03e5 723e ef3e 193c
00000110: 5188 5ebd c4ea 4fbe 68df 1d3d c8ad 023e
00000120: 2386 e03d e091 cbbc 5a1b d3be 35ce cf3e
00000130: 6546 4a3e 1060 87be b66b 65be 66ba 263e
00000140: 8e33 263e 8db4 fa3d 3b24 0bbe 1d6d 223f
00000150: f127 493d 9be5 65bc 67a2 953d 6898 1fbe
00000160: 1891 03bf cdd9 aabd 8d6d f43e b2a2 8b3e
00000170: bbb9 773e 3a93 a7be 0abe 933e 0a21 b33e
00000180: 5d61 1fbf fbf2 853f d10d 37be 804b 4fbe
00000190: be7a 983b f963 73be 8114 0dbd 735a 51bd
000001a0: d394 54bd e204 943e 31fa 81be 7b99 1cbc
000001b0: 55dc b63d e523 9fbe c445 bc3d 4556 87be
000001c0: 8480 82bd c679 a43c a146 883c 77e5 963e
000001d0: 4fb5 b93e dd0e 9b3d b53a bdbd be15 d1be
000001e0: 5b54 af3d 9fe4 68be 9d07 d6be ad83 983e
000001f0: d774 b8bd 61e6 febd c42f 90be 38f8 05be
00000200: 746f 6a3d 1467 393f 9d8e 2abe 821c b53d
00000210: f683 78bc e70a db3d 74ed 9e3d 6e90 d13e
00000220: 65f0 8cbb 9566 84be 6e7c fc3e 6019 6cbe
00000230: d6ea 83be 8a7e 91be 8974 cb3e a9aa 2d3e
00000240: f1dc 5d3e 6505 2a3e 8000 3cbe 3fd6 19be
00000250: f34a 26bd f8d3 14bd 93e2 f6bd 8206 81bd
00000260: 0dca 64bd e0ab 2f3d 530d 53be 70a6 b0be
00000270: b809 82be 86a4 62bb bd89 163e 6ce4 a23e
00000280: 29bb 1dbe 5c9f 413d 5d70 953c 9ce0 f4be
00000290: 184a c7be 5ce5 0ebd 697c 09be 27b8 5a3e
000002a0: bc3d e03e 8a66 4abe a549 9a3d 0e66 8fbd
000002b0: 05d8 13be aa96 2bbd 49a1 57be 2ce3 78be
000002c0: 1f8f 1ebc 754c 0abe e8c2 81bd 0d3a 193d
000002d0: c257 1f3e ff15 afbd 41d7 aabe 7e7b abbd
000002e0: 468f 00bd 8a4c aebd 73b4 633e 649a dcbe
000002f0: f0ab cabe 508d ae3e 473d 3abe b8f8 913d
00000300: dcae ab3e f078 943e e36c debe fa55 a6bd
00000310: 9284 a3bd 0a15 cf3d c51e 1dbe 97b7 d33d
00000320: d13f 2f3f ff29 bb3e baad dcbd 1871 123e
00000330: c175 003d 9bf3 7c3d 8b67 a4be 6f3a 463e
00000340: cace c03d 2cdc 243e cdd3 3c3e 2375 d4bd
00000350: 8906 33be b183 8bbe b642 99bd 8739 0a3e
00000360: e429 253f 603d 863e 93e1 cbbe c741 fdbe
00000370: c955 18bd 8c38 d9bd 5f2f be3e 8b34 2b3d
00000380: 4ef0 a5be f83b 04bf d10e 8ebe 63d3 4ebf
00000390: 2f0c 60be ec26 f0bd be5a 69bd ec68 183f
000003a0: 354e 3abe ef43 08be 408e 6d3e e56f 7b3e
000003b0: 70b5 d5bd a9eb b23e bbfc eabd df64 cabe
000003c0: 8780 f4bd 1a8c 53bd 1bae 35bf de09 cdbe
000003d0: 07e6 523d 6c27 23bd 5aff 01bc b1fd e03d
000003e0: 5973 07bf 9d26 af3e 2d2a ab3c fa92 76be
000003f0: fb36 9abe 9be7 6ebe ac43 25be 4e30 4abf
-0.10033964 0.25759125 -1.8628827 -0.044854958 -0.23086733 0.33869335 -0.5262435 -0.035695873
0.035039693 -0.8045099 0.22136179 -0.0031414619 -0.23038924 0.100351885 -0.5543682 0.7038769
0.50475055 0.5075918 0.1207415 -0.040240627 0.9470862 0.091221094 -0.027433362 0.14007744
-0.030663196 -0.34413064 -1.0553681 0.11983949 0.28985137 0.04999851 0.6242076 0.84724736
0.3557215 0.032420397 0.6755645 0.21975528 0.594856 -0.39686722 -0.14118844 0.24173452
0.04520113 -0.031518407 0.06128093 -0.85003775 -0.25698352 -0.31283313 -0.44682908 0.09474173
1.4388412 -0.028041493 -0.38842037 -0.18377912 -0.018482631 0.15103924 0.7316439 -0.3608374
0.25419366 0.11598262 -1.6912507 0.61558706 -0.1273897 0.34456348 -0.09583852 -0.001276208
0.04027032 0.12497414 0.23720174 0.009353383 -0.05432922 -0.203044 0.038543135 0.12761605
0.109630845 -0.024849832 -0.41231805 0.4058701 0.19753416 -0.26440477 -0.2240437 0.16282043
0.16230604 0.122414686 -0.1358804 0.63447744 0.049110357 -0.014031793 0.073063664 -0.15585482
-0.5139327 -0.083423235 0.4773983 0.27272564 0.24191944 -0.32729512 0.28855926 0.34986144
-0.6225794 1.0464777 -0.17876364 -0.20243645 0.004653304 -0.23768605 -0.034443382 -0.05111165
-0.051899742 0.28909975 -0.25386193 -0.009558077 0.08928744 -0.31082073 0.09192994 -0.26433006
-0.06372169 0.020077597 0.016635241 0.29471943 0.3627114 0.07571194 -0.09239713 -0.408369
0.085610114 -0.22743462 -0.41802683 0.2978796 -0.090066604 -0.12446285 -0.28161442 -0.13082969
0.057235196 0.7242291 -0.16655965 0.08843328 -0.015168181 0.10695439 0.07760134 0.40930504
-0.004301118 -0.25859514 0.49313682 -0.23056555 -0.25765103 -0.28416854 0.39737347 0.16959633
0.21666314 0.1660362 -0.18359566 -0.15023135 -0.04059882 -0.03633496 -0.12054934 -0.063000694
-0.055856753 0.042888522 -0.20610552 -0.34501982 -0.2539804 -0.0034582927 0.1470098 0.31814897
-0.15403427 0.047271118 0.018242056 -0.47827613 -0.38923717 -0.034886703 -0.13426365 0.21359311
0.437971 -0.19765678 0.07533578 -0.07001887 -0.14437874 -0.04189173 -0.21057619 -0.24305409
-0.009677677 -0.13505729 -0.063360035 0.037408877 0.1556082 -0.08549117 -0.3336735 -0.08373164
-0.031386636 -0.085106924 0.22236805 -0.4308654 -0.39584303 0.34092188 -0.18187438 0.071275175
0.33531845 0.28998518 -0.4344245 -0.081218675 -0.0798427 0.10111435 -0.15343769 0.10337751
0.6845675 0.36555478 -0.10775323 0.14300954 0.0313623 0.061755758 -0.32110247 0.19358228
0.09414442 0.16099614 0.1844017 -0.103739046 -0.17482962 -0.2724891 -0.07483427 0.13498507
0.64517045 0.262187 -0.39820537 -0.49464247 -0.037191186 -0.106064886 0.37145516 0.041798156
-0.324099 -0.51654005 -0.2774568 -0.807913 -0.21879648 -0.11726174 -0.056971304 0.595351
-0.18193896 -0.13307165 0.23198795 0.24554403 -0.10434997 0.3494542 -0.11473986 -0.39530084
-0.11938577 -0.051647283 -0.7096879 -0.4004659 0.051488902 -0.039832518 -0.007934416 0.10985888
-0.5291038 0.34209147 0.020894134 -0.24079505 -0.30120072 -0.23330538 -0.16139096 -0.7897996

actor.2.bias f4 [64]
00000000: d943 53be 1300 8a3c 8a44 3dbe ec62 c6bd
00000010: 58a5 11be 1d04 7cbe d72c 363d c5ba adbd
00000020: c7fb c9be a4a1 7d3c ebba dcbe 26fc 573e
00000030: f5d6 29be 7797 e13d 8432 8abe 4228 0e3e
00000040: 3836 c2be a047 593e c379 843e 9bfc e63d
00000050: 60fa 963d 8bad b8bd b28a 03be 6aa0 b9bd
00000060: e35c cf3d 90d2 1e3e 1ed1 b1bd d19c 233e
00000070: ec8d e03e c45b 613e 8367 9cbb a08b 753e
00000080: e30d 15be 99ec 47be bb94 e0bd e150 57bd
00000090: 9fa7 78bd 6737 313d b699 ff3c f22e 62be
000000a0: 36d6 e3be b52c b8bd c419 923d 7bff aebe
000000b0: 631e ab3d d331 bc3d bd91 fdbd 92e0 b4be
000000c0: 527f 1e3e a50d 87be fac3 173e e11b 3b3e
000000d0: 5830 3e3b c626 b7bd cb54 e43c 899b fcbd
000000e0: 9a94 09be 7c6a 1a3e 1b44 f13d 68c0 13be
000000f0: 4dca 003e bac4 3c3d 9f90 e03d 56f6 aabd
-0.2063135 0.016845739 -0.18483177 -0.096868366 -0.1422323 -0.24610944 0.044476356 -0.08482889
-0.39449903 0.015480433 -0.43111357 0.21092281 -0.16585906 0.11015218 -0.26991665 0.13882545
-0.3793199 0.21218729 0.25874147 0.112786494 0.07371974 -0.09017476 -0.12845877 -0.090638
0.101251386 0.1551001 -0.08682464 0.1597779 0.43858278 0.22007662 -0.0047730817 0.23979044
-0.14556079 -0.19523849 -0.10965868 -0.052567367 -0.06070673 0.043265726 0.031201225 -0.2208822
-0.44499367 -0.08992902 0.07133821 -0.3417929 0.08355405 0.09189191 -0.12381313 -0.35327584
0.15478256 -0.26377597 0.14820853 0.18272354 0.0029020514 -0.08942942 0.027872464 -0.123343535
-0.13435593 0.15079683 0.11780568 -0.14428866 0.12577172 0.04608605 0.10965084 -0.08347766

actor.4.weight f4 [2, 64]
00000000: a4f7 e83e f93f bc3b 4b57 d4bd aa39 6cbe
00000010: 73fc 39bb 8182 27be 6557 893d 94f9 79bd
00000020: 1a43 013f cb37 5a3e b353 2b3f cb8e 2bbf
00000030: c36a 043e 9721 133d dde0 49be 9d82 bdbb
00000040: 9ff4 5d3f 32f9 b03d 2fa6 363e 1da6 333e
00000050: 5abc 723e f027 5fba eb69 56be e6a9 d03e
00000060: fa8c 6e3e 77e4 a3bc 2613 82be 849c 123e
00000070: aeb5 5ebf 347c 1b3e 16b5 583b b1de 163e
00000080: 310b 27be 8126 23be 6e02 15bb 74b8 763c
00000090: 227d febc f2a5 893d d32b 053d 2f53 6abd
000000a0: 096b 923e e120 61be 52e7 813e cb6a 87bd
000000b0: 6870 be3d 21a0 2e3e b1f0 08ba 6dc8 993e
000000c0: 3a9c 973c 8bd5 bcbc 215a aa3c 5084 f93d
000000d0: 2482 7d3b 1cc0 dd3a 0b7b 923b 19a4 2fbe
000000e0: 49b9 bdbc a2dd 653e c59a 883d 7fea b7bc
000000f0: 39f7 5b3a 14f0 5f3e bfc4 eebc 61cf f4bc
00000100: 6c9b e9be 959f debb c36a cf3d 9cd3 6c3e
00000110: d5a9 673b 697b 293e 1a58 8dbd 4d7f 713d
00000120: e118 01bf e92f 56be 2a01 2cbf aea5 2b3f
00000130: be49 06be acd9 0bbd d7a3 4a3e 1a92 1e3c
00000140: 15eb 5dbf 05c9 adbd 06f0 36be db83 34be
00000150: ca60 71be 3666 3eba 30ad 583e 2ce5 d1be
00000160: b523 6ebe b86e 9f3c 7b07 823e 4170 10be
00000170: a736 5e3f 98fb 1bbe c4ec 4cbb cfce 14be
00000180: f3fe 263e 696a 223e 9618 c23a 484f 9cbc
00000190: 76da 033d 2083 88bd e6ac 0abd 5915 6f3d
000001a0: 0826 92be a724 643e a59c 81be 728e 7f3d
000001b0: 0d2f bcbd 1925 31be b955 f2b9 62a1 99be
000001c0: 4176 8fbc b92f c53c 5224 a7bc 5696 fabd
000001d0: ff23 b9bb b490 36b8 9afc 8ebb 5346 2e3e
000001e0: 5ddd c33c 068f 63be ce15 84bd b90e bf3c
000001f0: 7d3a c2bb 0ad4 5fbe 614a e53c 6347 f93c
0.45501435 0.005744931 -0.10368212 -0.23068872 -0.0028379231 -0.16358377 0.06706122 -0.061029032
0.50493014 0.21310346 0.6692459 -0.6701476 0.12931351 0.035920706 -0.19714685 -0.0057833926
0.8670139 0.0864128 0.17836832 0.17543836 0.23704663 -0.0008512726 -0.20938842 0.40754622
0.23295966 -0.020006401 -0.25405234 0.14317518 -0.8699597 0.15184098 0.003306692 0.14733388
-0.16312863 -0.15932657 -0.0022737044 0.0150586255 -0.031065527 0.06721105 0.032512497 -0.057208236
0.28597286 -0.21985199 0.25371796 -0.06612166 0.092987835 0.17053272 -0.0005223854 0.30035725
0.018507112 -0.023051044 0.02079493 0.1218344 0.0038682306 0.0016918215 0.0044702343 -0.17152442
-0.02315964 0.22447827 0.06670145 -0.022450684 0.0008391026 0.21868926 -0.02914655 -0.029884042
-0.4562639 -0.006793926 0.10127785 0.23127598 0.003534903 0.16550983 -0.0690157 0.058959294
-0.5042859 -0.20916714 -0.67189276 0.6704968 -0.13114068 -0.034143135 0.19789062 0.009678388
-0.8668683 -0.08485607 -0.17864999 -0.17628424 -0.23572078 -0.00072631554 0.21159816 -0.40995157
-0.23255809 0.019461975 0.25396332 -0.14105321 0.8680214 -0.15232694 -0.0031269053 -0.14532016
0.16308193 0.15860905 0.0014808353 -0.019080773 0.032190762 -0.06665635 -0.033856295 0.058369968
-0.2854464 0.22279607 -0.25314823 0.062391706 -0.09188662 -0.17299308 -0.00046221705 -0.30005938
-0.017512443 0.024070607 -0.020403061 -0.122357056 -0.005650043 -4.3526947e-05 -0.0043636085 0.17019014
0.023909265 -0.22222528 -0.064494714 0.02332245 -0.0059273825 -0.2185823 0.027989568 0.030429548

actor.4.bias f4 [2]
00000000: 0516 3c3e 9715 3cbe
0.18367775 -0.18367611
