python/pong/policies/main.pt (torch, 40919 bytes, 11 tensors)

critic.0.weight f4 [64, 6]
0	0xbe83adc3	-0.25718507
1	0x3d1de922	0.03855241
2	0xbe1c34b3	-0.15254478
3	0x3d28d3b4	0.04121752
4	0xbdab9a9b	-0.08379098
5	0xbe4135e6	-0.18868217
6	0xbbb52ca7	-0.0055290046
7	0x3a958b50	0.0011409316
8	0xbe9d8048	-0.30761933
9	0x3d8ea6b2	0.06965388
10	0x3b498bc7	0.003075348
11	0x3ae958ae	0.0017802918
12	0xbe1aa39f	-0.15101479
13	0xbe895bb0	-0.26827765
14	0xbe70f239	-0.235299
15	0x3e1bcfab	0.15215938
16	0x3c8bbec1	0.017058732
17	0xbe57e4c7	-0.21083365
18	0x3c079093	0.008274215
19	0x3ade87a0	0.0016977675
20	0x3cdf1ed2	0.027236376
21	0x3e3f4e43	0.18682198
22	0xbe5fd0b5	-0.21856959
23	0xbe463461	-0.19355918
24	0xbdd37000	-0.10324097
25	0x3e2b3fdc	0.16723579
26	0x3ef2be7d	0.47410956
27	0x3f10ba15	0.5653394
28	0xbe38bd08	-0.1804086
29	0x3e9beb25	0.3045284
30	0x3d8fce3c	0.07021758
31	0xbe83d63a	-0.2574938
32	0x3ece6e6f	0.4031863
33	0xbf83e19d	-1.0303227
34	0x3e570d38	0.21001136
35	0xbe2a1363	-0.16608958
36	0xbdc1628a	-0.09442623
37	0xbdee571f	-0.11637711
38	0xbe8887e2	-0.2666617
39	0xbe08e19a	-0.1336731
40	0xbdd1abe3	-0.10237863
41	0x3cf501d7	0.029908104
42	0xbded96ee	-0.11601053
43	0xbe2536c7	-0.16134177
44	0xbd2030bd	-0.03910898
45	0x3cc68f60	0.024238288
46	0x3d73b478	0.05949828
47	0x3cdeeefb	0.027213564
48	0xbd1903aa	-0.03735701
49	0xbe709e9d	-0.23498006
50	0x3dffdb4d	0.12493
51	0xbf691e49	-0.91061836
52	0x3c7e7a04	0.0155320205
53	0xbe755a56	-0.23960242
54	0xbdd98e34	-0.10622826
55	0x3e4fa5d0	0.20278096
56	0xbf94dd6b	-1.1630071
57	0x3c0be4f7	0.008538476
58	0x3e511af9	0.20420446
59	0xbd17f217	-0.03709611
60	0x3e18eb64	0.14933544
61	0x3e2b7ec6	0.16747579
62	0xbddc8f05	-0.10769466
63	0x3df08986	0.117449805
64	0xbe5ade39	-0.21373834
65	0x3e350122	0.17676213
66	0xbde84c07	-0.11342626
67	0x3c0c75de	0.008573024
68	0x3e917414	0.28408873
69	0x3d1678bb	0.03673623
70	0xbe095c84	-0.13414198
71	0xbe5392e0	-0.20661497
72	0x3de6465a	0.11243887
73	0xbe7454e3	-0.23860507
74	0x3f9a7122	1.2065775
75	0x3dc9841a	0.098396495
76	0xbe5b530a	-0.21418396
77	0xbd5674df	-0.05235755
78	0xbec0adb3	-0.37632522
79	0xbe3a0fe8	-0.1817013
80	0x3ea473f9	0.3211973
81	0xbe27fb39	-0.16404428
82	0x3da06c4e	0.078331575
83	0xbd24dde3	-0.04025067
84	0xb9a6821c	-0.00031758926
85	0xbeea5af9	-0.45772532
86	0xbe81df88	-0.25365853
87	0xbe2db893	-0.1696494
88	0xbd066a16	-0.032816015
89	0x3c4f905d	0.012668696
90	0xbc92ce6a	-0.017920692
91	0x3d3e0cdb	0.04639898
92	0xbedebbbc	-0.43502605
93	0xbf26437c	-0.64946723
94	0x3e48fd45	0.19627865
95	0xbcaf305c	-0.021385364
96	0xbea555e6	-0.32292098
97	0xbd93de5a	-0.072201446
98	0xbe46216d	-0.19348688
99	0x3e6ba983	0.23013882
100	0xbde4e97c	-0.11177346
101	0xbe0f9b10	-0.14023995
102	0xbc7805e2	-0.015138121
103	0x3e89b27c	0.26893985
104	0x3ea70e94	0.3262831
105	0xbe58642f	-0.21131967
106	0x3e52f0b8	0.2059964
107	0x3e37bd5b	0.17943327
108	0xbddb00bf	-0.10693502
109	0x3e24f4f4	0.16109067
110	0xbe2ab701	-0.16671373
111	0x3f8b8660	1.0900383
112	0xbe1131a2	-0.1417909
113	0x3f1726cf	0.5904359
114	0x3c888525	0.01666505
115	0xbc8c92ad	-0.017159784
116	0xbce026dc	-0.02736228
117	0xbe8c24f8	-0.27371955
118	0x3ce54dbf	0.027991174
119	0xbe2f7807	-0.1713563
120	0xbd9a9fce	-0.075500116
121	0x3b08a357	0.0020849311
122	0x3e5a8923	0.21341376
123	0xbeb3d4be	-0.35123247
124	0xba5316b2	-0.0008052393
125	0xbe7f34dc	-0.24922508
126	0xbcafe95b	-0.021473577
127	0x3d5569f3	0.052102994
128	0xc0019e59	-2.0252898
129	0xbda4e822	-0.08052088
130	0xbbe849fb	-0.0070888973
131	0xbd30cb36	-0.043162547
132	0xbeaa4f4b	-0.3326362
133	0xbdc4baa4	-0.096059114
134	0xbcbabd83	-0.022795444
135	0x3ecb1b0f	0.39669082
136	0xbd98e00d	-0.07464609
137	0xbe8019e8	-0.25019765
138	0x3c805a10	0.015667945
139	0x3d05d954	0.032677963
140	0x3fe0a2de	1.7549703
141	0xbff3df41	-1.9052507
142	0x3a4ecc68	0.0007888735
143	0xbd336e23	-0.043806206
144	0x3e121eab	0.14269511
145	0x3dad1b0b	0.08452424
146	0x3db3c6c4	0.08778146
147	0xbc7c2523	-0.015389713
148	0xbd08a1ce	-0.033357434
149	0x3e0b03b0	0.13575625
150	0x3be16e13	0.006879577
151	0xbd8c0b72	-0.068381205
152	0x3e53a135	0.20666964
153	0xc016f2a1	-2.358559
154	0xbab60ac9	-0.0013888712
155	0x3d5e380a	0.05425266
156	0x3ea8f8f9	0.3300245
157	0x3e19db9c	0.1502518
158	0x3ead8e68	0.3389771
159	0x3dc11cf6	0.09429352
160	0xbdd39e4b	-0.10332926
161	0x3f07f45e	0.5310725
162	0x3e1be01d	0.15222211
163	0x3b9f6f89	0.004865591
164	0xbe90635a	-0.282008
165	0x3f54292e	0.82875335
166	0xbe5bd032	-0.21466139
167	0xbde5bece	-0.11218034
168	0xbb1da944	-0.002405719
169	0x3e9e642b	0.30935797
170	0xbe742dc6	-0.23845586
171	0x3f779a02	0.9671937
172	0x3db8d5f5	0.09025184
173	0x3be388d8	0.0069438033
174	0x3e02bf8f	0.12768386
175	0x3e451207	0.19245158
176	0xbdf8a938	-0.12141651
177	0x3ddbbecf	0.10729753
178	0xbdd39f81	-0.10333157
179	0xbd63e04b	-0.055633824
180	0x3c07152c	0.008244794
181	0x3c2e488d	0.010637415
182	0x3ddf48a1	0.10902525
183	0xbde29c2c	-0.11064944
184	0xbe5c034f	-0.21485637
185	0xbd4c0d3c	-0.04981731
186	0x3e1ea4c0	0.15492535
187	0x3e8977d8	0.26849246
188	0xbd4d56a8	-0.05013147
189	0x3e44dba2	0.19224408
190	0x3da71a28	0.08159286
191	0x3dc5ee5e	0.096646056
192	0xbe768bd9	-0.24076785
193	0xbd47d9df	-0.048791762
194	0x3ec34c29	0.38144043
195	0x3d9971d6	0.074924156
196	0x3b1f6b8a	0.0024325573
197	0xbe763876	-0.24044976
198	0xbc048f37	-0.008090786
199	0x3e91ac8a	0.2845195
200	0x3d5c7912	0.0538264
201	0x3e51da9c	0.20493549
202	0x3d94cfb9	0.072661825
203	0x3eeba393	0.46023235
204	0xbc0b1092	-0.008487837
205	0xbcdc843c	-0.026918523
206	0xbe1a23f3	-0.15052776
207	0xbdbc9330	-0.09207761
208	0xbda49675	-0.0803651
209	0xbdabb29e	-0.08383678
210	0xbd2efed6	-0.0427235
211	0xbeb993a3	-0.3624545
212	0x3d963564	0.07334402
213	0x3e4ede2f	0.20201944
214	0xbcdb9de4	-0.026808687
215	0xbcc51eda	-0.024062563
216	0xbbe3d06d	-0.0069523365
217	0x3d8fc5db	0.0702016
218	0xbeddf3a5	-0.4334995
219	0x3f21af8b	0.6315848
220	0x3e1a86f7	0.15090548
221	0x3e80c3af	0.25149295
222	0x3aab590e	0.0013072805
223	0xbe8d0b78	-0.27547812
224	0x3ed62ef5	0.418327
225	0xbe734687	-0.23757373
226	0xbcc07a52	-0.023495827
227	0xbe812fb6	-0.25231713
228	0x3ce30931	0.027714344
229	0x3dcde835	0.100540556
230	0x3e9f45c6	0.3110792
231	0x3ed5180c	0.4161991
232	0xbf0da87b	-0.55335206
233	0xbdefdf4e	-0.11712514
234	0x3babc300	0.0052417517
235	0xbea3d52b	-0.31998572
236	0x3ea02a08	0.31282067
237	0xbdf9ef19	-0.122038074
238	0xbdec4408	-0.115364134
239	0x3dd6ae82	0.104825035
240	0x3cea61f2	0.028611157
241	0x3dfed6b1	0.12443293
242	0x3cdfedad	0.027335012
243	0x3ed6b2c7	0.4193327
244	0x3df97534	0.12180558
245	0xbd8656a5	-0.06559495
246	0xbc0f478f	-0.008745088
247	0x3e84987e	0.25897592
248	0xbd4c0286	-0.049807094
249	0xbdb59536	-0.0886635
250	0x3e887bea	0.2665704
251	0xbe37fe66	-0.17968139
252	0xbdf2f8b2	-0.11863841
253	0x3eb69f9d	0.3566865
254	0x3f4a08be	0.7891959
255	0x3fb6da96	1.4285457

critic.0.bias f4 [64]
0	0xb3abe84a	-8.005061e-08
1	0xbfad95d5	-1.356135
2	0x3d1c4a83	0.038156997
3	0xb741eafc	-1.1558408e-05
4	0xbf0d955b	-0.55306023
5	0x3e714fd0	0.23565602
6	0xb49cdc85	-2.9217713e-07
7	0xbb373e63	-0.002796077
8	0x3e449288	0.19196522
9	0x3ed3cec7	0.41368696
10	0x3c6c5a96	0.014425894
11	0xafb93a72	-3.3692832e-10
12	0xbf2e46b1	-0.68076617
13	0xbc0d030d	-0.008606684
14	0x3cca1666	0.024668884
15	0x3f0d2753	0.5513813
16	0x32642cde	1.3281548e-08
17	0x3a675d26	0.0008825831
18	0xbe636ad2	-0.22208717
19	0x3d37fc1e	0.044918172
20	0x3ccc9698	0.024974152
21	0x3f3ddbfd	0.741638
22	0xb2b15781	-2.0645304e-08
23	0xbe4e0f56	-0.20123038
24	0x3d48e337	0.049044814
25	0x3f21ee49	0.6325422
26	0x3c1a9e7a	0.009437198
27	0xbe6cbc2d	-0.23118658
28	0x3d36e320	0.044650197
29	0x3c1f1639	0.009709888
30	0xbc12a45d	-0.00895032
31	0x33ad47d9	8.069009e-08
32	0xba73ff39	-0.00093077455
33	0x3c619b87	0.013769991
34	0x3891849e	6.938841e-05
35	0x3680547d	3.824533e-06
36	0x3c09d320	0.0084121525
37	0xbb077ce1	-0.00206738
38	0xbc8f28bb	-0.017475476
39	0xbca51466	-0.020151328
40	0xb5038d13	-4.9006593e-07
41	0x38ed2a60	0.000113089336
42	0xbf1c1026	-0.6096214
43	0xbb72da26	-0.0037056296
44	0xbdbbaf40	-0.09164286
45	0xb4a733e6	-3.1143935e-07
46	0x36830fb5	3.9059328e-06
47	0x00000000	0.0
48	0xb602e064	-1.9502122e-06
49	0x3d0f7863	0.03502692
50	0x3f04ee83	0.5192644
51	0xbd931ee9	-0.0718363
52	0xbf6ffaad	-0.93741876
53	0x00000000	0.0
54	0xbcb55fb1	-0.022140356
55	0xb30f8daf	-3.3423643e-08
56	0xbbd2162e	-0.0064113354
57	0x3cabed06	0.020987045
58	0xb58e4dea	-1.06025e-06
59	0x3b5e9c92	0.0033967835
60	0x3c6fff0a	0.014648208
61	0xbef33d17	-0.47507545
62	0x3d85711a	0.06515713
63	0xbd46036a	-0.0483431

critic.2.weight f4 [64, 64]
0	0x3e208bae	0.15678284
1	0x3fa391c0	1.2778854
2	0xbc17c73a	-0.009263808
3	0xbec22cbf	-0.37924764
4	0x3e8ec03b	0.27881035
5	0xbe9d3baf	-0.30709597
6	0x3e5b7884	0.21432692
7	0x3e7f8b02	0.24955371
8	0xbe723a14	-0.23654968
9	0x3e6d7396	0.23188624
10	0xbebb0997	-0.36530754
11	0x3e13c8bc	0.14432043
12	0xbdb022d1	-0.08600391
13	0x3d510914	0.05103405
14	0xbe4f4d0e	-0.20244238
15	0xbd1ddb1c	-0.038539037
16	0x3e8754f3	0.26432
17	0xbba3749e	-0.004988267
18	0x3cc0716e	0.023491587
19	0x3d0156fc	0.031577095
20	0x3e520fe2	0.20513871
21	0x3ebb261a	0.36552507
22	0x3e920cab	0.2852529
23	0xbec9efee	-0.39440864
24	0xbe4910ae	-0.19635269
25	0xbe689f2a	-0.22716966
26	0xbbedb9fb	-0.0072548366
27	0xbe7ba2a4	-0.24573761
28	0x3e875286	0.26430148
29	0xbe9a9a17	-0.30195686
30	0xbda89b5b	-0.08232757
31	0x3d418987	0.047250297
32	0xbdb8843d	-0.090095975
33	0xbe64ea4c	-0.22355002
34	0x3e36b306	0.1784173
35	0x3d56845c	0.05237232
36	0xbdfcd990	-0.12346184
37	0xbdb8fc3d	-0.09032486
38	0xbd2bd504	-0.041951194
39	0x3e7e06df	0.24807309
40	0xbe8a128a	-0.2696727
41	0x3e0ef28c	0.13959712
42	0x3e7abc7a	0.2448596
43	0xbe4b7ed0	-0.19872594
44	0x3c23f38b	0.010006796
45	0xbdeded29	-0.116175
46	0x3e9b8788	0.3037684
47	0x3e25d9ea	0.16196409
48	0x3c8d7456	0.017267387
49	0xbd41de03	-0.047330867
50	0xbeb54aab	-0.3540853
51	0x3d8c813b	0.06860586
52	0xbe203c8e	-0.156481
53	0xbe90761f	-0.2821512
54	0xbe2e9aca	-0.17051235
55	0xbe1160e4	-0.14197117
56	0xbd2f33c2	-0.04277397
57	0x3d46f55b	0.048573833
58	0xbc55621c	-0.013023879
59	0xbe56fca6	-0.20994815
60	0xbbae610a	-0.0053216266
61	0x3e552070	0.20813155
62	0x3c0e6e32	0.008693265
63	0xbdbde7ab	-0.09272703
64	0xbd2f9f05	-0.042876262
65	0xbf2268b6	-0.63441026
66	0xbc0382db	-0.008026804
67	0xbb905499	-0.004404616
68	0x3e037271	0.12836625
69	0xbe7e0d27	-0.24809705
70	0x3a6737e7	0.0008820281
71	0x3f0fe4ed	0.5620869
72	0xbcfbddcc	-0.03074541
73	0xbc5ba83f	-0.013406812
74	0xbd3e0081	-0.0463872
75	0x3e6258c8	0.2210418
76	0xbe214fbb	-0.15753071
77	0xbdaf7d67	-0.085688405
78	0x3d921d05	0.07134441
79	0x3e1152f6	0.14191803
80	0xbdaa06a3	-0.08302047
81	0xbd38251d	-0.04495727
82	0x3df6cc87	0.12050729
83	0x3d7d70d4	0.06187518
84	0xbeac0c7b	-0.33603272
85	0x3f556739	0.8336063
86	0x3e78a50e	0.24281713
87	0xbe9774d2	-0.29581314
88	0xbe4ad4b0	-0.19807696
89	0x3e8fdb6a	0.28097087
90	0x3da51d12	0.08062185
91	0xbe3ec629	-0.1863028
92	0xbe7e302b	-0.24823062
93	0x3eadbcc3	0.33933076
94	0x3d92b9a8	0.07164317
95	0xbe860976	-0.26179093
96	0x3e072ad0	0.13199925
97	0xbe06f994	-0.13181144
98	0x3e214e8f	0.15752624
99	0x3d982db8	0.07430595
100	0xbe9bbc24	-0.30416977
101	0xbdb9d535	-0.09073869
102	0x3ea30499	0.31839445
103	0x3e88c2f8	0.2671125
104	0x3e296946	0.16544065
105	0xbd94b4c0	-0.07261038
106	0x3daeb027	0.08529692
107	0x3da7f470	0.0820092
108	0x3c12fb6d	0.008971077
109	0x3c3622c2	0.011116685
110	0x3e86bb60	0.2631483
111	0xbc9492a3	-0.018136328
112	0xbd970e62	-0.0737579
113	0xbeaa208b	-0.33227953
114	0xbda95708	-0.08268553
115	0x3e3634c2	0.17793563
116	0xbeb06055	-0.34448496
117	0x3e53df08	0.20690548
118	0x3e2bc82a	0.16775575
119	0x3ca43b8f	0.020047931
120	0xbe9a7d5f	-0.30173776
121	0x3e003d99	0.12523498
122	0x3dbd9ac0	0.09258032
123	0x3e1a8732	0.15090635
124	0x3e19f698	0.15035474
125	0xbd71ab5b	-0.059001308
126	0x3e9345c1	0.28764156
127	0x3dcb952e	0.09940563
128	0x3db31a9c	0.0874531
129	0x3d9d4929	0.0767997
130	0xb9d05641	-0.00039737116
131	0x3e08f8bc	0.13376135
132	0xbe5c6838	-0.21524131
133	0x3b9fcac7	0.004876468
134	0x3e105450	0.14094663
135	0x3d31cda2	0.043408997
136	0x3d58ff89	0.052978072
137	0xbc1b74ef	-0.009488328
138	0xbcd179fa	-0.025570858
139	0x3e51c3ca	0.20484844
140	0xbe2edfb4	-0.17077523
141	0x3e2c0472	0.16798571
142	0xbbb7efcf	-0.005613304
143	0xbea1bd8f	-0.31589934
144	0xbe85ed0b	-0.26157412
145	0xbe239948	-0.15976441
146	0x3eb9e222	0.36305338
147	0xbeb82e9f	-0.3597307
148	0x3a84c21c	0.001012865
149	0xbc1225df	-0.008920162
150	0x3eb31263	0.34974965
151	0x3e968a0f	0.29402205
152	0x3eb9b5f0	0.3627162
153	0xbca5021e	-0.020142611
154	0xbe20e174	-0.15711004
155	0xbd9f31b1	-0.0777315
156	0xbe077624	-0.13228661
157	0xbe809ef0	-0.2512126
158	0xbdf6511e	-0.120271906
159	0x3d8d387f	0.068955414
160	0xbe0e00c6	-0.13867483
161	0x3d00b455	0.031421978
162	0x3bd0c90c	0.006371623
163	0xbdd5c8d0	-0.104386926
164	0xbca40d43	-0.020025855
165	0x3e24f8de	0.1611056
166	0x3e20a5c6	0.15688238
167	0x3dbcd8d4	0.09221044
168	0x3d65eb0b	0.056132358
169	0x3df9b407	0.121925406
170	0x3d96f39f	0.07370686
171	0x3b3c890b	0.0028768207
172	0xbe7af260	-0.24506521
173	0xbe0d6754	-0.13808948
174	0x3e846c44	0.2586385
175	0xbd142acf	-0.036173638
176	0x3e98dc38	0.29855514
177	0xbda1083c	-0.07862899
178	0x3e83b26c	0.25722063
179	0xbd22b841	-0.0397265
180	0xbde7bff1	-0.11315907
181	0xbde4a976	-0.111651346
182	0x3c9c5c19	0.019086884
183	0xbe2927ee	-0.16519138
184	0xbeb8e635	-0.36113134
185	0x3e317310	0.17329049
186	0xbd517b61	-0.051143054
187	0xbdb5a078	-0.088684976
188	0x3b778f2d	0.0037774548
189	0x3df60c19	0.12014026
190	0x3d17ff79	0.037108872
191	0xbe07071a	-0.13186303
192	0xbd83391d	-0.06407378
193	0xbe5ef206	-0.21772012
194	0x3e1aeef2	0.15130213
195	0xbd825f97	-0.063658886
196	0x3baa2404	0.0051922817
197	0x3d3986d5	0.0452946
198	0x3d97afa6	0.07406549
199	0x3e5fefb1	0.21868779
200	0x3c1e48c8	0.009660907
201	0x3a8844cd	0.0010396481
202	0x3d879d26	0.066217706
203	0xbdc34a07	-0.09535604
204	0xbe8fd870	-0.28094816
205	0xbe9458fe	-0.28974146
206	0x3e7b2c03	0.24528508
207	0xbde8c207	-0.11365133
208	0x3e510d50	0.20415235
209	0xbec72f4f	-0.3890328
210	0x3e35e382	0.17762569
211	0x3d298466	0.04138603
212	0x3e97f71b	0.29680714
213	0x3efc6521	0.49295905
214	0x3d9f7a7b	0.07787033
215	0x3d649a68	0.055811316
216	0xbe0c00fa	-0.13672248
217	0x3f146afa	0.57975733
218	0xbeced3bc	-0.40395916
219	0xbe2944da	-0.16530171
220	0xbdeba33b	-0.11505743
221	0xbe00deab	-0.12584941
222	0xbe8149e8	-0.25251698
223	0xbd890d30	-0.066919684
224	0x3d879b09	0.066213675
225	0xbe3034b4	-0.17207605
226	0x3c0e17de	0.008672683
227	0x3e891eac	0.26781213
228	0x3e3882b6	0.18018612
229	0x3dbb11fb	0.09134289
230	0x3ee6a1ed	0.45045415
231	0xbd6cbfe4	-0.05780019
232	0x3d82fb6f	0.063956134
233	0xbebd5214	-0.36976683
234	0xbea676a1	-0.32512382
235	0x3d643084	0.05571033
236	0xbc652a02	-0.013987066
237	0x3dbdbef1	0.09264935
238	0x3e339586	0.17537507
239	0x3e5d66f2	0.21621302
240	0x3dbf8a8d	0.09352598
241	0xbe489a58	-0.19590127
242	0xbebf4163	-0.37354574
243	0xbe357956	-0.17722067
244	0xbda50193	-0.08056941
245	0x3e8cb25f	0.27479836
246	0x3ebac1dd	0.3647603
247	0xbdf7f8f4	-0.12108031
248	0x3efe8a82	0.49715048
249	0x3cac6b33	0.02104721
250	0x3e22c2a0	0.15894556
251	0x3c77e940	0.015131295
252	0xbd6e1676	-0.05812689
253	0x3e770128	0.24121535
254	0x3e41ff7a	0.18945113
255	0xbe063016	-0.13104281

critic.2.bias f4 [64]
0	0xba79e4e1	-0.0009532702
1	0xbd8ba956	-0.06819408
2	0x3c8f8ef0	0.017524213
3	0xbdd86a97	-0.105672054
4	0xbdaf35a3	-0.08555152
5	0xbd6a8888	-0.057259113
6	0xbcbd6afc	-0.023122303
7	0xbdc75df8	-0.0973472
8	0x3c1f45ba	0.009721214
9	0x3d443035	0.047897536
10	0x3e030a43	0.12796883
11	0x3d07fd13	0.033200335
12	0xbd33fe92	-0.04394395
13	0x3d75b7e6	0.059989832
14	0x3cb8b470	0.022546977
15	0xbd01f042	-0.03172327
16	0xbd9b3f0f	-0.07580387
17	0xbccba76d	-0.024860108
18	0x3ca8f67b	0.020625344
19	0xbc9eb3c6	-0.019372832
20	0x3d1e387c	0.038628086
21	0xbd25d433	-0.040485572
22	0x3d74651f	0.05966675
23	0xbddf0407	-0.1088944
24	0xbcaee753	-0.021350538
25	0xbd46a447	-0.04849651
26	0x3d52731c	0.051379308
27	0x3d96ea0d	0.073688604
28	0xbcd3f618	-0.025874183
29	0xbd9e59f3	-0.07732
30	0xbd505b7b	-0.050868493
31	0x3d167237	0.036730018
32	0x3ceb0b8e	0.028692033
33	0xbd03bc84	-0.032162204
34	0xbd7e5aaf	-0.0620982
35	0xbcd452dc	-0.025918417
36	0xbcaa965a	-0.020823646
37	0xbce8a49a	-0.0283988
38	0x3d400617	0.046880808
39	0xbdedd403	-0.11612704
40	0x3dc867c6	0.09785418
41	0xbd7c7941	-0.061639074
42	0xbd15c3f4	-0.03656383
43	0xbd9b0994	-0.07570186
44	0x3d094097	0.033508863
45	0x3dd9b70a	0.10630615
46	0x3d8421ae	0.064517364
47	0x3cd0cee4	0.025489278
48	0xbdab532f	-0.083654754
49	0xbd39c2b0	-0.045351684
50	0x3db613c6	0.0889049
51	0xbd25a2c2	-0.04043842
52	0x3c89b294	0.016808785
53	0x3d5741a3	0.05255283
54	0xbc401a49	-0.011725017
55	0x3cf2642a	0.029588778
56	0xbd899d1f	-0.067194216
57	0xbd62c448	-0.05536297
58	0xbd78f634	-0.060781673
59	0xbd653dfb	-0.055967312
60	0x3dbbb9cc	0.09166297
61	0xbd967af8	-0.07347673
62	0x3cb6bbad	0.022306288
63	0x3d700851	0.05860168

critic.4.weight f4 [1, 64]
0	0xbe6f4c66	-0.23368987
1	0x3dc1a655	0.094555534
2	0xbb872ac3	-0.0041249706
3	0x3e17a5b5	0.14809306
4	0x3e1cd3b8	0.1531514
5	0x3dbf3cb3	0.09337749
6	0x3c2c9cd3	0.010535437
7	0x3dc09810	0.094040036
8	0x3c061d0e	0.008185638
9	0xbc704514	-0.014664907
10	0xbe51661c	-0.20449108
11	0x3ec5205d	0.38501254
12	0xbce948fa	-0.02847718
13	0xbd56d6be	-0.052450888
14	0xbe100145	-0.14062984
15	0x3d89cfdb	0.067290984
16	0x3e1e34b3	0.1544979
17	0x3b0f6759	0.0021881668
18	0xbbd3bc40	-0.00646165
19	0x3c04f8c3	0.00811595
20	0xbcdf959f	-0.027293025
21	0x3db97b87	0.09056764
22	0x3ca82648	0.020526066
23	0x3e3166fd	0.17324443
24	0xbd8ea37e	-0.069647774
25	0xbd5906ed	-0.05298512
26	0xbd962f5a	-0.0733325
27	0x3ea987b7	0.33111355
28	0xbd9de99e	-0.077105746
29	0x3d551d87	0.052030113
30	0xbe4d9b1b	-0.200787
31	0x3ddce433	0.10785713
32	0xbb76bc1a	-0.0037648738
33	0xbe1ecd4d	-0.15508004
34	0x3e022202	0.12708285
35	0x3da552d2	0.08072437
36	0x3d025a08	0.03182414
37	0x3a56a1f9	0.0008187588
38	0x3e249806	0.16073617
39	0x3e1100bf	0.14160441
40	0xbe691d6c	-0.2276513
41	0x3e05da85	0.1307164
42	0x3b743975	0.0037265692
43	0xbd00784e	-0.03136473
44	0xbe078e1c	-0.13237804
45	0xbd70ced2	-0.05879099
46	0xbdd831c1	-0.10556365
47	0xbbd28ca4	-0.006425457
48	0x3e07fc09	0.13279738
49	0x3c41d081	0.011829496
50	0x3d89a7fa	0.06721492
51	0x3c78d59b	0.015187646
52	0xbc01a881	-0.00791371
53	0x3db22995	0.086993374
54	0xbc3cb537	-0.011517814
55	0x3e10290f	0.14078163
56	0xbdc120b7	-0.09430068
57	0xbe58c592	-0.21169117
58	0xbe3553bd	-0.17707725
59	0xbcdb5742	-0.026775006
60	0x3e24042c	0.16017216
61	0xbdc98c94	-0.09841266
62	0xbbfe327a	-0.007757482
63	0xbe696adf	-0.22794674

actor.0.weight f4 [64, 6]
0	0xbf536871	-0.8258124
1	0x3dc0181e	0.093796
2	0x3f387fb6	0.7206987
3	0xbff42c87	-1.9076089
4	0xbe939a72	-0.2882877
5	0xbca7577e	-0.020427462
6	0xbc5c2d96	-0.013438603
7	0xbe5d733a	-0.21625987
8	0x3da2bf93	0.07946696
9	0xbecb571c	-0.39714897
10	0xbd96a4ee	-0.073556766
11	0x3d0446ee	0.032294206
12	0x3e803f4c	0.25048292
13	0x3e7fe8e1	0.2499118
14	0xbd81388a	-0.06309612
15	0xbe92d4a0	-0.28677845
16	0xbd2cb6b3	-0.042166423
17	0x3d3c6b3c	0.046000704
18	0xbde2fba5	-0.11083154
19	0xbdd6a06b	-0.10479816
20	0xbd4bca54	-0.049753502
21	0x3d060b5e	0.032725684
22	0x3baa1d7a	0.005191502
23	0xbeaf57d8	-0.34246707
24	0x3c13be3a	0.0090175215
25	0xbda66257	-0.081242256
26	0xbf58f18c	-0.8474357
27	0x3e82b607	0.255295
28	0xbe587d1b	-0.21141474
29	0xbda1d53d	-0.07902
30	0x3d978ea1	0.07400251
31	0x3d7dba97	0.061945524
32	0xbe828197	-0.25489494
33	0xbf29e19d	-0.66359884
34	0x3c68390e	0.014173759
35	0xbd731172	-0.05934281
36	0x3f52c686	0.8233417
37	0x3eb2c8f4	0.3491894
38	0x3f0b4ec5	0.5441707
39	0xbeb400d4	-0.35156882
40	0x3e48262b	0.1954581
41	0xbdb64877	-0.0890054
42	0xbdb0067b	-0.08594986
43	0xbd3632c2	-0.044482
44	0xc008cd8a	-2.137545
45	0x3f1f2437	0.62164634
46	0x3d242ee4	0.04008378
47	0x3dcbcbf8	0.09951013
48	0xbcbe1f78	-0.023208365
49	0x3e1b17be	0.15145776
50	0xbf4680b8	-0.7754016
51	0x3d2f6cbe	0.042828314
52	0x3ea4c378	0.3218038
53	0x3c90aa56	0.017659348
54	0x3e8d32b3	0.27577743
55	0x3e3b08ff	0.1826515
56	0xbe892247	-0.26783964
57	0x3f52e21c	0.82376266
58	0x3ca8c85b	0.02060335
59	0xbdc7ac6c	-0.09749684
60	0x3bdeb5fb	0.006796596
61	0xbdfbfd88	-0.123042166
62	0xbe3868c6	-0.18008718
63	0x3e037b7c	0.12840074
64	0xbe7319f4	-0.23740369
65	0xbe9e0932	-0.3086639
66	0xbe35c294	-0.17750007
67	0xbdb7c445	-0.08972982
68	0x3dc7b098	0.097504795
69	0xbe819d13	-0.2531515
70	0x378a8254	1.651157e-05
71	0xbe819ee6	-0.25316542
72	0x3e9a6c90	0.30160952
73	0x3d779152	0.060441323
74	0x3d88b64b	0.066753946
75	0xbdbe0913	-0.092790745
76	0x3c24e859	0.010065162
77	0x3c33fa92	0.010985034
78	0x3e0f675a	0.14004269
79	0x3e44b31f	0.19208954
80	0x3f4026e5	0.7505935
81	0x3d29b8bb	0.04143594
82	0xbb020dea	-0.001984472
83	0x3d76c8e8	0.060250193
84	0x3d416cf9	0.047223065
85	0x3e4ca634	0.19985276
86	0x3e3889f2	0.18021372
87	0xbfccac83	-1.5990146
88	0xbc9609d9	-0.018315243
89	0x3e8ed57f	0.2789726
90	0xbe6c68dc	-0.23086876
91	0xbecbb031	-0.3978286
92	0x3dd03b5e	0.101675734
93	0xbc95d7b7	-0.018291337
94	0xba8dd0e0	-0.0010819696
95	0x3e8b7b3c	0.27242458
96	0xbec97bdf	-0.3935232
97	0xbe8bae99	-0.27281645
98	0x3e73b28a	0.23798576
99	0x3e2eac01	0.17057802
100	0x3e30eebe	0.17278573
101	0xbe41d730	-0.18929744
102	0xbe93a849	-0.2883933
103	0xbe1859aa	-0.14877954
104	0x3dd013b5	0.10160009
105	0x3d321abe	0.043482535
106	0xbeb91523	-0.3614894
107	0xbdb3ddf0	-0.087825656
108	0xbd2be5b5	-0.041967113
109	0x3c30ad52	0.01078351
110	0x3ee427d2	0.4456163
111	0x3f965491	1.1744558
112	0xbd80397d	-0.06260965
113	0xbe4e9e2b	-0.20177524
114	0xbd2b6d5f	-0.04185235
115	0x3e519518	0.20467031
116	0x3f64f559	0.8943687
117	0xbf11d4a8	-0.5696511
118	0xbed8ec0a	-0.42367584
119	0xbe4ba10a	-0.1988565
120	0x3c740adc	0.014895167
121	0xbeb131dd	-0.34608355
122	0x3ef5deb8	0.48021483
123	0x3f6a0ce5	0.91425925
124	0xbe87f44e	-0.26553577
125	0xbe6f6c7f	-0.23381232
126	0xbe47c9e8	-0.19510615
127	0xbde81ebb	-0.11333986
128	0xba9ea619	-0.0012103944
129	0x3dd88b7e	0.10573481
130	0x3c3b8b4c	0.011446785
131	0xbef7b7a1	-0.48382285
132	0x3c033e32	0.008010434
133	0xbe00e40f	-0.12586997
134	0xbd8b8334	-0.068121344
135	0x3dba1792	0.09086527
136	0xbe355bb0	-0.17710757
137	0xbe86e1ed	-0.26344243
138	0xbdcc0a01	-0.099628456
139	0xbe4250e2	-0.18976167
140	0xbd54672f	-0.051856216
141	0xbe11481d	-0.14187665
142	0xbe521ed5	-0.20519574
143	0x3dab569d	0.083661295
144	0x3c306b7a	0.010767812
145	0x3e873f1f	0.26415345
146	0x3e7ab2a3	0.24482207
147	0xbfa1ede7	-1.2650727
148	0x3dad99c3	0.08476593
149	0x3e692b0d	0.22770329
150	0xbbb01324	-0.0053733755
151	0x3e5d3170	0.2160089
152	0x3e48b4b4	0.19600183
153	0xbefcce0d	-0.49375954
154	0x3e2623cc	0.16224593
155	0x3de0222e	0.10944019
156	0x3e95a5ad	0.29227963
157	0xbd812ef0	-0.06307781
158	0xbfb15809	-1.3854991
159	0x401e4303	2.47284
160	0x3d46f0f4	0.048569635
161	0x3e170bd8	0.14750612
162	0xbc929a35	-0.017895797
163	0xbd3cf6da	-0.046133853
164	0x3f4314f7	0.76203865
165	0xbf49d27b	-0.7883679
166	0x3ed7170b	0.42009768
167	0x3ddd4132	0.10803451
168	0x3e00c226	0.12574062
169	0x3e3afde0	0.18260908
170	0xbf185b7b	-0.5951459
171	0x3f52bef0	0.823226
172	0x3d82d9fc	0.063892335
173	0xbe0c881c	-0.13723797
174	0xbd4a3824	-0.049369946
175	0xbeeefda8	-0.466779
176	0xbe2af2db	-0.16694205
177	0x3e5d8cbe	0.2163572
178	0xb9a85fb0	-0.0003211475
179	0x3e9d9d77	0.307842
180	0xbe0c0cba	-0.1367673
181	0x3df1dea7	0.11810046
182	0xbf048d62	-0.51778233
183	0xbe3ac68c	-0.18239802
184	0xbc069522	-0.008214267
185	0xbed1b5c2	-0.40958983
186	0x3c12fa32	0.008970784
187	0x3ea1051a	0.31449205
188	0x3d9d3d8f	0.07677757
189	0xbf7a6be7	-0.97820896
190	0x3e99de03	0.30052194
191	0x3e847e50	0.2587762
192	0x3d487a47	0.048944738
193	0x3e09822e	0.13428566
194	0xbdffe16c	-0.12494168
195	0x3de63f79	0.11242575
196	0x39dcdff4	0.00042128528
197	0x3e562563	0.209127
198	0xbc0967c3	-0.008386555
199	0x3d1d21b1	0.03836221
200	0xbe0a9101	-0.13531877
201	0xbdda1734	-0.10648957
202	0x3e85f661	0.26164535
203	0x3e279f59	0.1636938
204	0x3dc2a090	0.09503281
205	0x3e031203	0.1279984
206	0x3e3db7ba	0.18527117
207	0xbef9bfca	-0.48779136
208	0xbc9ec1f3	-0.019379592
209	0x3eb4a5be	0.352827
210	0x3e3d83fa	0.18507376
211	0x3d52149f	0.051289197
212	0x3c18decc	0.009330463
213	0x3fe35aa9	1.7762042
214	0x3df857ff	0.12126159
215	0xbca1f1b9	-0.019768583
216	0x3c86d2ef	0.016458003
217	0x3ea3c9a9	0.31989792
218	0xbef391e5	-0.47572246
219	0xbf352405	-0.70758086
220	0x3ddf7b84	0.109122306
221	0x3e77dad7	0.24204575
222	0x3ea0868b	0.31352648
223	0x3e9b8775	0.30376783
224	0xbe752acd	-0.23942108
225	0xbe099398	-0.13435209
226	0xbdace8ef	-0.08442866
227	0x3e4fe0cf	0.20300601
228	0x3e139dfa	0.14415732
229	0x3e87d7e8	0.2653191
230	0x3e1726c9	0.14760889
231	0x3d9929b9	0.07478661
232	0x3d52eff1	0.051498357
233	0x3ea09826	0.3136608
234	0xbed4d1e3	-0.4156638
235	0x3d7d3037	0.06181356
236	0x3ec107c0	0.37701225
237	0x3e7896f9	0.24276341
238	0xbc1b412b	-0.0094759865
239	0xbe1c44bd	-0.15260597
240	0xbc20b5e3	-0.00980899
241	0xbe69709c	-0.22796863
242	0x3db114ff	0.08646583
243	0xbd5ba2e8	-0.053622156
244	0xbe03e3b1	-0.12879826
245	0x3e1a5c8b	0.15074365
246	0xbcfbe761	-0.030749978
247	0xbe0cc871	-0.13748337
248	0xbf039740	-0.51402664
249	0x40140883	2.3130195
250	0xbdd6d9d1	-0.10490764
251	0xbe7c89ef	-0.24661992
252	0x3cb6c712	0.022311721
253	0xbea4ba9d	-0.32173625
254	0x3e3d1a3d	0.1846704
255	0xbe5e6adb	-0.2172045

actor.0.bias f4 [64]
0	0xbe92ad7a	-0.28647977
1	0xbdaee54a	-0.08539827
2	0x3cb74b94	0.022374906
3	0x3cb7b7de	0.022426542
4	0x3f12ecc2	0.57392514
5	0x3e4cbbfa	0.19993582
6	0x3f272efd	0.65306073
7	0x3f0c3ef1	0.5478354
8	0x3dd759f9	0.10515208
9	0x3e79dcf1	0.24400689
10	0x00000000	0.0
11	0x3d001d0e	0.03127771
12	0xbb2abf17	-0.002605384
13	0xbdd0a07f	-0.10186862
14	0x3dc01967	0.09379845
15	0xbdcc3ac7	-0.099721484
16	0xbe996d03	-0.29965982
17	0x00000000	0.0
18	0xbec26b8c	-0.37972677
19	0xbe425034	-0.18975908
20	0xbea2b3e9	-0.31777886
21	0x3b62e561	0.0034621584
22	0xbdbc8536	-0.092050955
23	0x00000000	0.0
24	0x3e0e32a1	0.13886501
25	0x3e467a12	0.19382504
26	0x3e7f1918	0.24911916
27	0xbf02b1cf	-0.51052564
28	0x3df704b1	0.12061442
29	0xbd837404	-0.064186126
30	0x3e1a268e	0.1505377
31	0x3d6e8cf6	0.0582399
32	0xb80e9ebe	-3.400328e-05
33	0xb7238ee6	-9.748828e-06
34	0x3d072c94	0.033001497
35	0x3e89d35f	0.26919076
36	0x3e47c711	0.19509532
37	0x3b926595	0.004467676
38	0xb7520549	-1.2518206e-05
39	0xbd153120	-0.036423802
40	0x365406a8	3.1594336e-06
41	0xbbf1737f	-0.0073685045
42	0xbda6dc4a	-0.081474856
43	0xbe525ccf	-0.20543216
44	0xb70d89de	-8.436355e-06
45	0x3ebac471	0.36477998
46	0xbf63e4bd	-0.890209
47	0x3e76d191	0.2410338
48	0xbe51bd21	-0.20482303
49	0x3db329f2	0.08748235
50	0xbd0adfef	-0.033904966
51	0xbe804294	-0.25050795
52	0xbea1e95c	-0.31623352
53	0xbe16b956	-0.14719138
54	0xbbdbe318	-0.0067104213
55	0xbf754c08	-0.9581914
56	0xbe8b9202	-0.27259833
57	0xbe18b352	-0.14912155
58	0xbc3ed4bc	-0.0116473995
59	0x3f1e47e1	0.6182843
60	0x3bd2ff26	0.0064391075
61	0xbf3a3bf0	-0.7274771
62	0xb7564c7d	-1.2773203e-05
63	0xb760d2f3	-1.3400556e-05

actor.2.weight f4 [64, 64]
0	0x3f7d14c3	0.98859805
1	0xbe15f9cd	-0.14646073
2	0xbe07cb75	-0.13261206
3	0xbd9da220	-0.076969385
4	0xbd226637	-0.03964826
5	0x3e93c479	0.28860834
6	0x3e8ce8ca	0.27521354
7	0xbf0a2c05	-0.5397342
8	0x3ccde97c	0.025135748
9	0x3e98d0d9	0.29846838
10	0x3e500cdd	0.20317407
11	0x3e099379	0.13435163
12	0xbd70dc34	-0.058803752
13	0x3e31b922	0.17355779
14	0xbe389574	-0.18025762
15	0xbc9a8be6	-0.018865537
16	0xbd8cbea8	-0.06872302
17	0x3eac0bdf	0.33602807
18	0xbe482297	-0.19544445
19	0xbe93f745	-0.2889959
20	0xbdf59001	-0.11990357
21	0xbda8588a	-0.082200125
22	0x3d83df9b	0.06439134
23	0xbd849b03	-0.06474879
24	0xbe8e0a54	-0.27742255
25	0xbed3ff7c	-0.41405857
26	0xbe8dcd75	-0.27695814
27	0x3d215efd	0.03939723
28	0x3e9873ff	0.29775998
29	0xb9d6b3bf	-0.00040951182
30	0xbda70306	-0.081548735
31	0x3f0a6b48	0.5406995
32	0x3e600f90	0.21880937
33	0x39aa6128	0.00032497314
34	0x3f035434	0.5130036
35	0x3e591d5b	0.21202604
36	0x3e8e5f5c	0.27807128
37	0xbe6ec9a0	-0.23319101
38	0x3cf8d027	0.030372692
39	0x3cdd9e83	0.027053123
40	0x3ed7b893	0.42133006
41	0xbea61dad	-0.32444516
42	0xbd80eb87	-0.06294923
43	0xbf04ed7a	-0.5192486
44	0xbdaef1dc	-0.08542225
45	0x3eaa5dfe	0.33274835
46	0xbddb9c02	-0.107231155
47	0xbde5dea4	-0.11224106
48	0x3ec5cdbd	0.38633528
49	0xbe5f525e	-0.21808764
50	0xbe555246	-0.20832166
51	0x3d837737	0.06419223
52	0x3b195b83	0.0023400493
53	0xbcdc90bd	-0.026924485
54	0x3e30a7c8	0.17251503
55	0xbe55a517	-0.20863758
56	0x3d51ff21	0.0512687
57	0xbeba2c94	-0.36362135
58	0x3d3909b8	0.045175284
59	0x3f555f83	0.83348864
60	0x3baa816e	0.0052034175
61	0x3e52b01b	0.20574991
62	0x3d9b1534	0.075724036
63	0xbe216f4e	-0.15765116
64	0xbde87e75	-0.11352245
65	0xbda9c715	-0.08289925
66	0x3e062213	0.13098936
67	0xbe37fea4	-0.17968231
68	0xbebbf639	-0.3671129
69	0x3d6c45bb	0.057683688
70	0x3f0ef3f4	0.5584099
71	0x3e5785dd	0.21047159
72	0xbcd8fd43	-0.026487952
73	0xbd0cd74e	-0.034385018
74	0xbef7fb1c	-0.4843377
75	0x3e0e342e	0.13887092
76	0x3eae92e0	0.34096432
77	0xbdd86300	-0.10565758
78	0xbe895cd8	-0.26828647
79	0xbe2ce548	-0.16884339
80	0xbe6a61bc	-0.22888845
81	0xbcb8e0a6	-0.022568058
82	0xbf076c3f	-0.52899545
83	0x3e654406	0.2238923
84	0xbe0c978e	-0.13729689
85	0xbe237924	-0.1596418
86	0xbe10a342	-0.14124778
87	0xbe9e67c8	-0.30938554
88	0xbdc40e0a	-0.0957299
89	0x3dfa7dc0	0.12231016
90	0x3e0b5c6a	0.13609472
91	0x3e9b72de	0.30361074
92	0x3d301678	0.042990178
93	0xbef34aa2	-0.47517878
94	0x3d37180c	0.044700667
95	0x3f1ff4fc	0.6248319
96	0xbe95bad4	-0.292441
97	0x3ee82848	0.45343232
98	0x3e8b6486	0.2722513
99	0xbd6c641a	-0.05771265
100	0x3e65f9f4	0.22458631
101	0xbde797f8	-0.113082826
102	0x3de2602a	0.11053498
103	0xbd8dbd8f	-0.06920921
104	0xbeab8636	-0.33500832
105	0xbdc6f4ed	-0.09714685
106	0xbe2d1b0c	-0.16904849
107	0x3e2c921a	0.16852608
108	0x3e6fe2fa	0.23426428
109	0xbe058840	-0.13040257
110	0x3cb8fe9a	0.022582341
111	0xbf09fe26	-0.53903425
112	0x3f2aefc5	0.6677211
113	0x3e8d2c2e	0.2757277
114	0x3d09b8fe	0.033623688
115	0xbbb35e51	-0.00547389
116	0x3e342f0d	0.17596073
117	0x3b4de078	0.0031414311
118	0x3ddbcec6	0.10732798
119	0xbe2a6d0a	-0.16643158
120	0x3d36ba28	0.044611126
121	0xbb60dfb4	-0.0034313025
122	0x3b4ecb8c	0.003155443
123	0x3ebf3bf5	0.3735043
124	0x3c791a35	0.015204002
125	0xbee26c50	-0.4422326
126	0xbe0be6de	-0.13662288
127	0xbcdd3846	-0.027004372
128	0xbd71c112	-0.059022017
129	0x3e4c91f7	0.19977556
130	0x3d3def4a	0.046370782
131	0x3d08b5da	0.033376552
132	0xbe0145c6	-0.12624273
133	0xbdd9454d	-0.10608921
134	0x3e06d6fc	0.13167948
135	0x3f170f3f	0.5900764
136	0xbe9b2502	-0.30301672
137	0xbf37d333	-0.7180664
138	0x3e6da5f6	0.2320784
139	0xbe866055	-0.2624537
140	0xbd3bf089	-0.04588369
141	0x3e01ffd8	0.12695253
142	0x3f14ca5b	0.5812127
143	0xbe5413d8	-0.20710695
144	0x3dde35c9	0.108501025
145	0xbd39a424	-0.045322552
146	0xbf270009	-0.6523443
147	0x3e597020	0.21234179
148	0xbda7ceeb	-0.08193763
149	0xbe770e0f	-0.24126457
150	0x3d053940	0.0325253
151	0xbe8cb84c	-0.27484357
152	0xbd73b2f8	-0.05949685
153	0x3d2a5bfe	0.041591637
154	0x3cc1c9d9	0.023655819
155	0xbeef728d	-0.46767083
156	0xbf5637bf	-0.8367881
157	0xbeb75838	-0.35809493
158	0xbcc69ce5	-0.024244735
159	0x3e910702	0.2832566
160	0xbdcee520	-0.10102296
161	0x3e9d4c00	0.30722046
162	0x3e9c7226	0.30555838
163	0xbe827d4d	-0.25486222
164	0xbd771118	-0.060319036
165	0x3e37dd43	0.17955498
166	0x3d9de492	0.07709612
167	0x3dd0ae77	0.101895265
168	0x3e914cae	0.28378814
169	0x3d542008	0.05178836
170	0x3d581600	0.052755356
171	0x3a83bf9c	0.0010051611
172	0x3d892d10	0.06698048
173	0x3d2e5642	0.04256273
174	0xbdb36024	-0.08758572
175	0xbe2837c1	-0.16427518
176	0x3e4440de	0.1916537
177	0xbcddd125	-0.027077267
178	0x3d1fa8db	0.038979392
179	0xbd2f3d7a	-0.042783238
180	0x3e66bee9	0.22533764
181	0xbe849949	-0.25898197
182	0xbe21a589	-0.15785803
183	0x3f0e508c	0.55591655
184	0x3e05f1d4	0.13080531
185	0x3dd74d70	0.10512817
186	0x3ed77a86	0.42085665
187	0xbf34e2ff	-0.7065887
188	0xbe615a09	-0.22007002
189	0x3eaae206	0.33375567
190	0x3cf18b02	0.02948523
191	0x3e79f11b	0.2440838
192	0xbe69e14f	-0.22839855
193	0x3ea86d53	0.32895908
194	0xbf1629e2	-0.5865766
195	0x3d335add	0.043787826
196	0xbe4fc8a8	-0.20291388
197	0x3ca5fd8d	0.020262504
198	0x3ede6f81	0.43444446
199	0x3e81312b	0.25232825
200	0x3e4d1f0e	0.20031378
201	0x3e4239d4	0.18967372
202	0xbe22b1de	-0.15888163
203	0x3e05a6e2	0.13051942
204	0x3d30cb5f	0.0431627
205	0xbc99066e	-0.018679824
206	0xbeaf3ba8	-0.34225202
207	0x3e5be790	0.21475053
208	0x3c05e7ff	0.008172988
209	0x3e192458	0.1495527
210	0xbdd6502b	-0.104645096
211	0xbed9ac91	-0.4251447
212	0x3c791e54	0.015204985
213	0xbe9130f7	-0.2835767
214	0x3e5ec872	0.21756151
215	0x3df9c623	0.12195995
216	0x3e5d944e	0.21638605
217	0x3ce88f4e	0.028388645
218	0xbf07a4cb	-0.5298583
219	0xbc82eccc	-0.015982054
220	0x3e6906bd	0.22756477
221	0xbc933116	-0.017967742
222	0x3e92bdf3	0.28660545
223	0x3e52aa58	0.20572793
224	0xbcf32229	-0.029679375
225	0xbe68f568	-0.22749865
226	0xbe08307f	-0.1329975
227	0xbf1bceff	-0.60862726
228	0x3d9091dd	0.07059071
229	0xbdc60133	-0.096681975
230	0xbd3a72d1	-0.045519654
231	0x3e859045	0.2608663
232	0x3e04f2fc	0.12983316
233	0xbedccad5	-0.431235
234	0x3eba0cd1	0.36337903
235	0xbea84493	-0.32864818
236	0xbdbe4217	-0.092899494
237	0x3eb972bd	0.3622035
238	0x3f49d2b6	0.78837144
239	0xbecd2d95	-0.4007384
240	0x3f3072af	0.68924993
241	0x3d694469	0.056950007
242	0xbf0c1d7f	-0.5473251
243	0xbe34cc4c	-0.17656058
244	0x3e84d91e	0.25946897
245	0xbd372ad7	-0.04471859
246	0xbde177d5	-0.11009184
247	0x3f2c75e7	0.67367405
248	0xbb131300	-0.0022441745
249	0x3f33c2fd	0.70219404
250	0xbe2f1788	-0.1709882
251	0x3bb31095	0.005464623
252	0xbe8866e7	-0.26641008
253	0xbf64dadf	-0.8939647
254	0xbe198be8	-0.14994776
255	0xbea5c9cd	-0.32380524

actor.2.bias f4 [64]
0	0xbd0e5957	-0.03475317
1	0x3e25b51c	0.16182369
2	0x3cd950f5	0.026527861
3	0xbdaeef61	-0.08541752
4	0xbd31bd03	-0.043393146
5	0x3e254ad9	0.16141833
6	0xbddad96f	-0.106860034
7	0x3d8b4267	0.067997746
8	0x3c59701a	0.013271356
9	0x3d96afcd	0.0735775
10	0xbe2ee3a5	-0.17079027
11	0x3aedaef9	0.0018133811
12	0x3d855e5c	0.06512138
13	0x3c4a8ca2	0.012362631
14	0xbcdfd6d2	-0.027324114
15	0xbd022e3f	-0.031782385
16	0x3c6123c8	0.013741441
17	0x3e2935d0	0.16524434
18	0x3e10fbfb	0.14158623
19	0x3df7252f	0.12067639
20	0xbd10b07d	-0.035324562
21	0xbded0b57	-0.115744285
22	0xbe390e0e	-0.18071768
23	0xbb663c5c	-0.0035131192
24	0xbddcaf23	-0.10775592
25	0x3d3441f6	0.044008218
26	0x3dcf217f	0.10113811
27	0xbaaad170	-0.0013032388
28	0xbd8a0928	-0.06740028
29	0x3e0f80fe	0.1401405
30	0xbd9e62b9	-0.077336736
31	0x3d10da13	0.03536422
32	0x3dc91fd2	0.09820522
33	0xbd8d3a7b	-0.0689592
34	0xbd9e44df	-0.0772798
35	0x3c21bd94	0.009871859
36	0xbdf686de	-0.120374426
37	0x3d43632d	0.047702003
38	0x3d909c23	0.07061031
39	0xbcc5706f	-0.024101464
40	0xbe11b551	-0.14229323
41	0x3dd12c29	0.10213501
42	0x39a22919	0.00030929668
43	0x3d41508f	0.047195967
44	0x3e44e337	0.192273
45	0xbdbcd03f	-0.09219407
46	0xbe3c7c02	-0.1840668
47	0x3d5638d6	0.052300297
48	0x3df52861	0.11970592
49	0x3e199d74	0.1500147
50	0x3d17cd44	0.03706099
51	0x3de682ab	0.11255392
52	0xbd692e3c	-0.05692886
53	0xbcae4ac0	-0.021275878
54	0xbdfc83c8	-0.12329823
55	0x3e07a35d	0.13245912
56	0xbd899868	-0.06718522
57	0xbdc8a4a3	-0.09797027
58	0x3e3d6ae0	0.18497801
59	0xbe2c3424	-0.16816765
60	0x3e3fe315	0.18738969
61	0xbd795681	-0.060873512
62	0x3e0c898a	0.13724342
63	0x3d88bd5a	0.06676741

actor.4.weight f4 [2, 64]
0	0xbe3451d4	-0.1760934
1	0x3dafd9b6	0.08586447
2	0x3e461366	0.19343337
3	0xbcc3dce1	-0.023909034
4	0x3e601177	0.21881662
5	0x3d900229	0.07031662
6	0xbe565eaa	-0.20934549
7	0x3d10479a	0.035224535
8	0xbe0f8d2b	-0.14018695
9	0x3e0a3ab7	0.1349896
10	0xbce70ce3	-0.028204387
11	0xbc9ed8ba	-0.019390453
12	0x3d9d8f05	0.076932944
13	0xbac7cbd6	-0.0015243243
14	0xbb35fa89	-0.0027767739
15	0xbe1e2dad	-0.15447111
16	0xbe83ec34	-0.25766146
17	0x3b56d6a0	0.0032781735
18	0x3ddf6118	0.10907191
19	0x3d3784d4	0.04480441
20	0xbb9efd89	-0.004852001
21	0xbdb18f6f	-0.08669936
22	0xbe283e5e	-0.16430041
23	0x3ab7550e	0.001398714
24	0xbd4ca8ae	-0.049965553
25	0x3dbc24ed	0.091867305
26	0x3d8784cc	0.06617126
27	0xbb38a90f	-0.0028176939
28	0x3de2df8c	0.110777944
29	0x3c617440	0.013760626
30	0xbdafc2cb	-0.08582076
31	0xbd253220	-0.040331006
32	0x3d78e55e	0.060765617
33	0xbcd5dfc6	-0.02610768
34	0x3e2d02ff	0.16895674
35	0xbce83598	-0.028345868
36	0x3c9fe089	0.019516246
37	0x3e439fd0	0.19103932
38	0xbc22d0ed	-0.009937507
39	0x3ca74a00	0.020421028
40	0x3deca28e	0.11554442
41	0x3d30a6ad	0.043127704
42	0x3e4b18f2	0.19833735
43	0x3c8fe20a	0.017563839
44	0xbe2b5f2f	-0.16735528
45	0x3e3c5f3e	0.18395707
46	0x3e944b3c	0.2896365
47	0xbe61f7e1	-0.22067215
48	0x3dd58751	0.104262
49	0xbe78beb2	-0.24291494
50	0xbd386a41	-0.045023207
51	0x3ddfc7e7	0.109268
52	0x3f0618fe	0.52381885
53	0xbd12208c	-0.03567557
54	0x3e0df842	0.13864234
55	0xbbbf931c	-0.005846394
56	0xbe0f3b84	-0.13987547
57	0x3ec59eb3	0.3859764
58	0xbed88101	-0.42285922
59	0xbe025c5e	-0.12730548
60	0xbe001011	-0.12506129
61	0xbcb9ed52	-0.022696171
62	0x3d29e0df	0.04147422
63	0xbe8d2cc9	-0.2757323
64	0x3e330be1	0.17485
65	0xbdb1fcb3	-0.08690777
66	0xbe4887a9	-0.19583
67	0x3cc8b50f	0.024500398
68	0xbe5f5871	-0.21811081
69	0xbd8c10b2	-0.06839122
70	0x3e545c3b	0.20738308
71	0xbd18c28c	-0.03729491
72	0x3e103781	0.14083673
73	0xbe06319c	-0.13104862
74	0x3cd15de8	0.025557473
75	0x3ca1a96c	0.019734107
76	0xbda14d9e	-0.078761324
77	0x3b58173f	0.003297284
78	0x3b667bfe	0.003516912
79	0x3e222919	0.1583599
80	0x3e83febe	0.2578029
81	0xbae244da	-0.0017262951
82	0xbddff188	-0.1093474
83	0xbd3affa8	-0.04565397
84	0x3bca90e0	0.006181821
85	0x3dae50ac	0.08511481
86	0x3e2a805b	0.16650526
87	0xbb79ba36	-0.0038105375
88	0x3d4e4d28	0.05036655
89	0xbdbd45e6	-0.09241848
90	0xbd87af43	-0.066252254
91	0x3ba20846	0.004944834
92	0xbde6d421	-0.11270929
93	0xbc697d0f	-0.014251008
94	0x3db01fd7	0.08599823
95	0x3d2d6bda	0.042339183
96	0xbd790ec0	-0.060805082
97	0x3ccff821	0.025386872
98	0xbe2dd11d	-0.16974302
99	0x3cc73e88	0.02432181
100	0xbc96b485	-0.018396625
101	0xbe430d1d	-0.19047971
102	0x3c0cdc85	0.008597498
103	0xbc9db844	-0.019252904
104	0xbdeb8d0e	-0.115015134
105	0xbd249895	-0.040184576
106	0xbe4a8213	-0.19776182
107	0xbcae728e	-0.021294858
108	0x3e2c7f81	0.16845514
109	0xbe3ee303	-0.18641286
110	0xbe94cbcf	-0.29061744
111	0x3e624525	0.22096689
112	0xbdd37a52	-0.10326065
113	0x3e79c8c6	0.24392995
114	0x3d3a0150	0.045411408
115	0xbde0da02	-0.10979082
116	0xbf068d88	-0.5255971
117	0x3d18df2f	0.03732222
118	0xbe0ddacc	-0.13852996
119	0x3b93cc3c	0.0045104306
120	0x3e0ffe15	0.14061768
121	0xbec47697	-0.38371727
122	0x3ed9a153	0.42505893
123	0x3e0340d4	0.12817699
124	0x3df5b57e	0.119975075
125	0x3cbacff4	0.022804238
126	0xbd2e9c9b	-0.04262982
127	0x3e8d7428	0.27627683

actor.4.bias f4 [2]
0	0x3e1f3773	0.15548496
1	0xbe1f3598	-0.15547788
