python/pong/policies/main.pt (torch, 40919 bytes, 11 tensors)

critic.0.weight f4 [64, 6]
000000 c3 ad 83 be 22 e9 1d 3d b3 34 1c be b4 d3 28 3d
       -0.25718507 0.03855241 -0.15254478 0.04121752
000010 9b 9a ab bd e6 35 41 be 2e a9 e9 bb 86 b9 ae 3a
       -0.08379098 -0.18868217 -0.0071307635 0.0013330437
000020 8c 87 9e be c0 6c 86 3d 66 91 8a 3b 5b e6 01 3b
       -0.3096279 0.06563711 0.0042287586 0.001982114
000030 9f a3 1a be b0 5b 89 be 39 f2 70 be ab cf 1b 3e
       -0.15101479 -0.26827765 -0.235299 0.15215938
000040 c1 be 8b 3c c7 e4 57 be 93 90 07 3c a0 87 de 3a
       0.017058732 -0.21083365 0.008274215 0.0016977675
000050 d2 1e df 3c 43 4e 3f 3e b5 d0 5f be 61 34 46 be
       0.027236376 0.18682198 -0.21856959 -0.19355918
000060 71 cd cf bd 52 de 2b 3e bd be f2 3e b2 b8 10 3f
       -0.10146607 0.16784027 0.47411147 0.5653182
000070 e8 8c 38 be c0 3d 9c 3e 4d 29 88 3d 59 ad 84 be
       -0.18022501 0.30515862 0.066485025 -0.25913504
000080 34 6a ce 3e 65 e0 83 bf 88 a2 55 3e e9 c8 2b be
       0.40315402 -1.0302855 0.20862782 -0.1677586
000090 8a 62 c1 bd 1f 57 ee bd e2 87 88 be 9a e1 08 be
       -0.09442623 -0.11637711 -0.2666617 -0.1336731
0000a0 e3 ab d1 bd d7 01 f5 3c ee 96 ed bd c7 36 25 be
       -0.10237863 0.029908104 -0.11601053 -0.16134177
0000b0 bd 30 20 bd 60 8f c6 3c 78 b4 73 3d fb ee de 3c
       -0.03910898 0.024238288 0.05949828 0.027213564
0000c0 aa 03 19 bd 9d 9e 70 be 4d db ff 3d 49 1e 69 bf
       -0.03735701 -0.23498006 0.12493 -0.91061836
0000d0 04 7a 7e 3c 56 5a 75 be d5 aa cf bd 3a a2 53 3e
       0.0155320205 -0.23960242 -0.101400055 0.20667353
0000e0 e7 db 94 bf ff 55 09 3c 8f 61 53 3e 27 df 07 bd
       -1.1629609 0.0083823195 0.20642684 -0.0331718
0000f0 81 eb 18 3e ef 7e 2b 3e 05 8f dc bd 86 89 f0 3d
       0.14933588 0.1674764 -0.10769466 0.117449805
000100 42 de 5a be 4c 01 35 3e 07 4c e8 bd de 75 0c 3c
       -0.21373847 0.17676276 -0.11342626 0.008573024
000110 14 74 91 3e bb 78 16 3d 84 5c 09 be e0 92 53 be
       0.28408873 0.03673623 -0.13414198 -0.20661497
000120 89 d1 dd 3d 3e 30 76 be 73 71 9a 3f f3 8f c9 3d
       0.10830981 -0.2404184 1.2065872 0.09841909
000130 45 c2 5c be a3 e2 5d bd b3 ad c0 be e8 0f 3a be
       -0.21558483 -0.054171216 -0.37632522 -0.1817013
000140 f9 73 a4 3e 39 fb 27 be 4e 6c a0 3d e3 dd 24 bd
       0.3211973 -0.16404428 0.078331575 -0.04025067
000150 0b 97 a6 b9 f9 5a ea be 88 df 81 be 93 b8 2d be
       -0.00031774523 -0.45772532 -0.25365853 -0.1696494
000160 21 6a 06 bd 50 90 4f 3c 11 19 94 bc f4 bd 3c 3d
       -0.032816056 0.012668684 -0.018078359 0.04607959
000170 e9 bd de be 93 45 26 bf 10 99 48 3e e9 c0 b1 bc
       -0.43504265 -0.6494991 0.19589639 -0.021698432
000180 e6 55 a5 be 5a de 93 bd 6d 21 46 be 83 a9 6b 3e
       -0.32292098 -0.072201446 -0.19348688 0.23013882
000190 7c e9 e4 bd 10 9b 0f be b9 08 78 bc 3f b2 89 3e
       -0.11177346 -0.14023995 -0.015138798 0.26893803
0001a0 94 0e a7 3e 2f 64 58 be aa f0 52 3e e1 bc 37 3e
       0.3262831 -0.21131967 0.20599619 0.17943145
0001b0 05 f5 dc bd cd b9 24 3e 1f b7 2a be cd 85 8b 3f
       -0.10788921 0.16086502 -0.16671418 1.0900208
0001c0 c9 6a 11 be 46 19 17 3f 80 ec 5b 3c 7c 0b 92 bc
       -0.14200892 0.5902294 0.013423085 -0.017827742
0001d0 1d 08 e0 bc e7 1e 8c be 44 7f dd 3c 22 34 30 be
       -0.027347619 -0.27367327 0.027038224 -0.17207387
0001e0 ce 9f 9a bd 57 a3 08 3b 23 89 5a 3e be d4 b3 be
       -0.075500116 0.0020849311 0.21341376 -0.35123247
0001f0 b2 16 53 ba dc 34 7f be be 98 b1 bc a0 8a 56 3d
       -0.0008052393 -0.24922508 -0.021679278 0.052378297
000200 56 a1 01 c0 49 28 a6 bd b5 8f 01 bc b8 b4 2f bd
       -2.0254722 -0.081131525 -0.007907798 -0.042896956
000210 4b 4f aa be a4 ba c4 bd 83 bd ba bc 0f 1b cb 3e
       -0.3326362 -0.096059114 -0.022795444 0.39669082
000220 0d e0 98 bd e8 19 80 be 87 51 70 3c 99 6d 02 3d
       -0.07464609 -0.25019765 0.014667875 0.0318428
000230 62 71 e0 3f 24 15 f4 bf 79 19 a3 3a ac d6 36 bd
       1.7534602 -1.9068952 0.0012443505 -0.04463832
000240 ad 1e 12 3e 64 1b ad 3d c4 c6 b3 3d 21 25 7c bc
       0.14269514 0.0845249 0.08778146 -0.015389712
000250 e3 a1 08 bd e4 03 0b 3e d1 c1 d3 3b 5e c8 8c bd
       -0.033357512 0.13575703 0.0064623137 -0.068741545
000260 f1 ab 53 3e d6 e1 16 c0 2c d0 00 bb 3c c0 5c 3d
       0.20671059 -2.357534 -0.001965533 0.053894266
000270 ea f8 a8 3e 03 db 19 3e 68 8e ad 3e f6 1c c1 3d
       0.33002406 0.15024953 0.3389771 0.09429352
000280 5a 9e d3 bd 41 f4 07 3f a1 c0 14 3e 67 cf ce ba
       -0.103329375 0.53107077 0.14526607 -0.0015778363
000290 92 5d 90 be be 23 54 3f 05 e4 60 be d2 e6 f2 bd
       -0.28196388 0.8286704 -0.21961983 -0.11860432
0002a0 4c a1 1d bb 44 64 9e 3e c6 2d 74 be 02 9a 77 3f
       -0.002405244 0.30935872 -0.23845586 0.9671937
0002b0 05 d6 b8 3d 57 8e e3 3b a3 bf 02 3e 25 12 45 3e
       0.09025196 0.0069444585 0.12768416 0.19245203
0002c0 38 a9 f8 bd cf be db 3d 60 9f d3 bd d1 df 63 bd
       -0.12141651 0.10729753 -0.10333133 -0.05563337
0002d0 2c 15 07 3c 8d 48 2e 3c a1 48 df 3d 2c 9c e2 bd
       0.008244794 0.010637415 0.10902525 -0.11064944
0002e0 4f 03 5c be 3c 0d 4c bd aa a4 1e 3e c4 77 89 3e
       -0.21485637 -0.04981731 0.15492502 0.26849186
0002f0 a8 56 4d bd a2 db 44 3e 48 1a a7 3d fc ed c5 3d
       -0.05013147 0.19224408 0.081593096 0.096645325
000300 d9 8b 76 be df d9 47 bd 29 4c c3 3e d6 71 99 3d
       -0.24076785 -0.048791762 0.38144043 0.074924156
000310 8a 6b 1f 3b 76 38 76 be 89 8b 04 bc d7 ac 91 3e
       0.0024325573 -0.24044976 -0.008089908 0.2845218
000320 12 79 5c 3d 9c da 51 3e ee cf 94 3d e0 a3 eb 3e
       0.0538264 0.20493549 0.07266222 0.46023464
000330 6b 10 0b bc 3c 84 dc bc f3 23 1a be 30 93 bc bd
       -0.008487801 -0.026918523 -0.15052776 -0.09207761
000340 75 96 a4 bd 9e b2 ab bd d6 fe 2e bd a3 93 b9 be
       -0.0803651 -0.08383678 -0.0427235 -0.3624545
000350 64 35 96 3d 2f de 4e 3e e4 9d db bc da 1e c5 bc
       0.07334402 0.20201944 -0.026808687 -0.024062563
000360 5f cd e3 bb 3e c6 8f 3d a5 f3 dd be 8b af 21 3f
       -0.0069519724 0.070202336 -0.4334995 0.6315848
000370 fe 86 1a 3e c5 c3 80 3e 84 5b ab 3a 78 0b 8d be
       0.15090558 0.2514936 0.0013073538 -0.27547812
000380 f5 2e d6 3e 87 46 73 be 4c 7a c0 bc b6 2f 81 be
       0.418327 -0.23757373 -0.023495816 -0.25231713
000390 31 09 e3 3c 35 e8 cd 3d c6 45 9f 3e 0c 18 d5 3e
       0.027714344 0.100540556 0.3110792 0.4161991
0003a0 7b a8 0d bf 4e df ef bd fd c2 ab 3b 2b d5 a3 be
       -0.55335206 -0.11712514 0.0052417503 -0.31998572
0003b0 08 2a a0 3e 19 ef f9 bd 08 44 ec bd 82 ae d6 3d
       0.31282067 -0.122038074 -0.115364134 0.104825035
0003c0 cd 60 ea 3c 1e d6 fe 3d ad ed df 3c c7 b2 d6 3e
       0.028610611 0.12443183 0.027335012 0.4193327
0003d0 30 75 f9 3d 35 57 86 bd ad 47 0f bc 69 98 84 3e
       0.12180555 -0.06559602 -0.008745116 0.2589753
0003e0 86 02 4c bd 36 95 b5 bd eb 7b 88 3e 8c fe 37 be
       -0.049807094 -0.0886635 0.26657042 -0.17968196
0003f0 51 c5 f4 bd 69 0d b6 3e ed 34 4a 3f 05 c6 b6 3f
       -0.119516976 0.35557106 0.7898701 1.4279181

critic.0.bias f4 [64]
000000 4a e8 ab b3 ae 6f ad bf 83 4a 1c 3d fc ea 41 b7
       -8.005061e-08 -1.3549707 0.038156997 -1.1558408e-05
000010 19 95 0d bf 2c 47 71 3e 85 dc 9c b4 63 3e 37 bb
       -0.5530563 0.23562306 -2.9217713e-07 -0.002796077
000020 88 92 44 3e e1 d7 d3 3e 96 5a 6c 3c 72 3a b9 af
       0.19196522 0.4137564 0.014425894 -3.3692832e-10
000030 00 49 2e bf 0d 03 0d bc 66 16 ca 3c 42 26 0d 3f
       -0.6808014 -0.008606684 0.024668884 0.551365
000040 de 2c 64 32 09 5d 67 3a 00 6c 63 be c3 e6 37 3d
       1.3281548e-08 0.0008825814 -0.22209167 0.044897806
000050 98 96 cc 3c 37 d6 3d 3f 81 57 b1 b2 59 b2 4c be
       0.024974152 0.7415499 -2.0645304e-08 -0.19989909
000060 37 e3 48 3d a3 e0 21 3f 7a 9e 1a 3c c2 e0 6c be
       0.049044814 0.63233393 0.009437198 -0.23132613
000070 20 e3 36 3d 39 16 1f 3c 5d a4 12 bc 95 9a b3 33
       0.044650197 0.009709888 -0.00895032 8.363455e-08
000080 39 ff 73 ba 88 9b 61 3c b9 84 91 38 7d 54 80 36
       -0.00093077455 0.013769992 6.93886e-05 3.824533e-06
000090 20 d3 09 3c e1 7c 07 bb bb 28 8f bc 66 14 a5 bc
       0.0084121525 -0.00206738 -0.017475476 -0.020151328
0000a0 0a ce 03 b5 25 2b ed 38 6f 37 1c bf 26 da 72 bb
       -4.910113e-07 0.00011309077 -0.61022085 -0.0037056296
0000b0 40 af bb bd 97 32 a7 b4 e8 e1 82 36 00 00 00 00
       -0.09164286 -3.1142983e-07 3.900601e-06 0.0
0000c0 14 f9 02 b6 63 78 0f 3d 57 b6 03 3f e9 1e 93 bd
       -1.9516492e-06 0.03502692 0.51450104 -0.0718363
0000d0 3e f0 6f bf 00 00 00 00 b1 5f b5 bc af 8d 0f b3
       -0.93725955 0.0 -0.022140356 -3.3423643e-08
0000e0 2e 16 d2 bb 06 ed ab 3c 05 4b 8e b5 92 9c 5e 3b
       -0.0064113354 0.020987045 -1.0601658e-06 0.0033967835
0000f0 0a ff 6f 3c 17 3d f3 be 1a 71 85 3d 6a 03 46 bd
       0.014648208 -0.47507545 0.06515713 -0.0483431

critic.2.weight f4 [64, 64]
000000 0d 38 22 3e 2e c7 a3 3f bc 02 fa bb 96 56 c1 be
       0.15841694 1.279516 -0.0076297205 -0.37761372
000010 62 ea 8d 3e 99 65 9c be e3 24 5d 3e ac 9b 80 3e
       0.27717882 -0.30546263 0.21596102 0.25118768
000020 b5 8d 70 be ec c7 6b 3e c0 df bb be 1b 75 15 3e
       -0.23491557 0.23025483 -0.36694145 0.14595453
000030 21 ca ac bd 88 ba 57 3d af a0 4d be 90 8c 24 bd
       -0.084369905 0.052668124 -0.20080827 -0.040173113
000040 1c 2b 88 3e 4f 00 d9 bb fa 0e b3 3c 5c 08 08 3d
       0.2659539 -0.0066223512 0.021857727 0.033211097
000050 41 bc 53 3e 11 93 bb 3e d4 e2 92 3e be af c7 be
       0.20677282 0.3663564 0.2868868 -0.39001268
000060 0d bd 4a be 21 73 63 be da a2 11 bc de bc 79 be
       -0.1979868 -0.22211887 -0.0088889245 -0.24388453
000070 5d 7c 86 3e 40 70 9b be 9d 42 a5 bd 13 d8 3a 3d
       0.26266757 -0.30359077 -0.08069346 0.04561622
000080 7f 2b b5 bd ab 96 66 be 65 5f 38 3e d0 35 5d 3d
       -0.08846187 -0.22518413 0.1800514 0.054006398
000090 27 19 00 be 7f a3 b5 bd 90 23 25 bd 3e b3 7f 3e
       -0.12509595 -0.08869075 -0.04031712 0.24970719
0000a0 b3 e8 8a be 2d 46 0d 3e 3b ec 7b 3e 2f 2b 4d be
       -0.2713066 0.13796301 0.24601834 -0.20036004
0000b0 af 2d 09 3c e7 45 f1 bd 5f b1 9a 3e 49 86 27 3e
       0.008372708 -0.11780911 0.30213448 0.1635982
0000c0 69 11 80 3c 77 8f 48 bd b4 7d b4 be 7d 28 89 3d
       0.015633302 -0.048964944 -0.35252154 0.06697176
0000d0 e2 90 1e be f6 9f 8f be 6b ee 2c be 85 b4 0f be
       -0.15484956 -0.28051728 -0.16887824 -0.14033706
0000e0 4e 82 28 bd e7 43 40 3d f8 27 70 bc 47 50 55 be
       -0.041139893 0.046939757 -0.014657967 -0.20831405
0000f0 bb ec e3 bb cf cc 56 3e 0e 34 29 3c 69 40 c1 bd
       -0.0069557107 0.20976566 0.010327352 -0.094361134
000100 08 d8 29 bd 21 7f 22 bf a7 cd d8 bb 1a 39 44 bb
       -0.04146579 -0.63475233 -0.0066163125 -0.0029941262
000110 29 f6 01 3e 53 95 7c be 16 3e 16 3b 62 41 10 3f
       0.12691559 -0.24666338 0.002292519 0.56349766
000120 c6 4f f0 bc 48 0a 77 bc 7e c7 43 bd 89 ca 63 3e
       -0.029334914 -0.015078135 -0.047797672 0.2224523
000130 ca d5 1f be e8 99 ac bd 84 00 95 3d 3a e1 0f 3e
       -0.15608898 -0.08427793 0.07275489 0.14050761
000140 24 23 a7 bd 1a ec 3d bd 7a e3 f3 3d 58 9e 81 3d
       -0.081609994 -0.046367742 0.11908622 0.0632903
000150 9b 53 ab be dd 8d 54 3f cf 16 7a 3e 63 2f 98 be
       -0.33462223 0.83028966 0.24422763 -0.29723653
000160 71 46 4c be b5 6c 8e 3e 93 39 a2 3d cd a4 3c be
       -0.19948746 0.27817312 0.07921138 -0.18422242
000170 ec a1 7f be e3 03 ad 3e 27 9d 95 3d 56 c2 86 be
       -0.24964112 0.33792028 0.07305365 -0.26320142
000180 91 9c 08 3e 55 6b 08 be 50 c0 22 3e 37 11 9b 3d
       0.13340975 -0.13322194 0.15893674 0.07571643
000190 04 75 9c be b6 f1 b6 bd 79 bd a3 3e d8 7b 89 3e
       -0.30558026 -0.089328215 0.31980494 0.26852298
0001a0 85 f7 27 3e 3f 98 97 bd 5e f6 a7 3d f1 10 a5 3d
       0.16403015 -0.074020855 0.08201288 0.08059872
0001b0 cb be f7 3b bb 06 1f 3c 80 02 86 3e a0 04 89 bc
       0.007560586 0.0097061945 0.26173782 -0.016725838
0001c0 e1 f1 99 bd 6b d9 aa be 27 e3 a5 bd 01 c3 34 3e
       -0.07516838 -0.33369002 -0.080999665 0.17652513
0001d0 dc a0 af be c9 50 55 3e eb 39 2d 3e 92 c9 af 3c
       -0.34302413 0.20831598 0.16916625 0.02145842
0001e0 7f c4 99 be b1 97 fd 3d 41 b7 ba 3d f3 f8 1b 3e
       -0.30032727 0.123824485 0.09116984 0.15231685
0001f0 d7 84 18 3e 5e e4 6b bd a1 fe 93 3e af b1 c8 3d
       0.14894424 -0.057590835 0.28905204 0.097995155
000200 ff 47 b3 3d dc 86 9e 3d 49 f6 a2 b9 6e 0f 09 3e
       0.087539665 0.07740566 -0.00031082545 0.13384792
000210 6f 2d 5c be c8 f9 99 3b 02 6b 10 3e 5e 28 32 3d
       -0.21501707 0.0046989657 0.1410332 0.04349553
000220 45 5a 59 3d 79 02 11 bc 78 2f d2 bc 7c da 51 3e
       0.053064603 -0.008850687 -0.0256574 0.20493501
000230 25 11 2f be 24 1b 2c 3e d2 19 b5 bb a8 c8 a1 be
       -0.17096384 0.16807228 -0.0055267597 -0.315984
000240 b4 e1 85 be fa af 23 be 15 f0 b9 3e 6c 2b b8 be
       -0.2614876 -0.15985098 0.3631598 -0.35970628
000250 1c 1a 90 3a a0 7a f4 bb ba 1d b3 3e 41 bb 96 3e
       0.0010994109 -0.007460907 0.34983617 0.29439738
000260 99 aa b9 3e b0 1c a0 bc 26 f8 20 be 0b 05 a1 bd
       0.36262968 -0.01954493 -0.15719661 -0.0786229
000270 d6 8c 07 be 47 aa 80 be bb 23 f6 bd 1c 0b 8d 3d
       -0.13237318 -0.2512991 -0.12018534 0.068868846
000280 14 ea 0d be 99 59 00 3d 09 9f d3 3b 6d 9b d5 bd
       -0.13858825 0.031335447 0.0064581675 -0.10430036
000290 c1 c2 a4 bc 90 0f 25 3e 78 bc 20 3e 37 06 bd 3d
       -0.020112397 0.16119218 0.15696895 0.09229701
0002a0 4f 90 65 3d a4 86 f9 3d 89 68 99 3d 0b dd 36 3b
       0.056045827 0.12183884 0.074906416 0.0027902748
0002b0 12 09 7b be 06 7e 0d be ed 60 84 3e 13 d0 13 bd
       -0.24515179 -0.13817605 0.25855199 -0.036087107
0002c0 e1 d0 98 3e 9f 35 a1 bd 22 0c 83 3e fd 12 23 bd
       0.29846862 -0.078715555 0.25595194 -0.03981303
0002d0 7f f9 e7 bd 13 7c e4 bd 97 11 9d 3c 3c 11 29 be
       -0.113268845 -0.11156478 0.019173427 -0.1651048
0002e0 de da b8 be 5e 5c 31 3e 1d d6 51 bd 15 73 b5 bd
       -0.36104482 0.17320392 -0.051229585 -0.08859841
0002f0 31 e3 71 3b 7c 39 f6 3d 35 5a 18 3d cc 1d 07 be
       0.0036909098 0.12022683 0.037195403 -0.1319496
000300 55 87 81 bd 00 61 5e be d1 c7 1b 3e cf ad 80 bd
       -0.06324641 -0.2171669 0.15212943 -0.06283151
000310 d1 d4 8e 3b 7b f0 3c 3d 6e 61 99 3d 90 c8 60 3e
       0.004358866 0.046127778 0.07489286 0.21951509
000320 f1 d6 2b 3c 68 bb 14 39 5e eb 85 3d 3f 98 c1 bd
       0.010488258 0.00014184194 0.06539033 -0.09452867
000330 6e 6b 8f be 8a ec 93 be e2 04 7c 3e d0 73 ea bd
       -0.2801165 -0.28891402 0.24611238 -0.11447871
000340 2f e6 51 3e c3 9b c7 be 1a 0a 35 3e 06 e9 2c 3d
       0.20497964 -0.38986024 0.17679635 0.042214416
000350 8f 63 98 3e 5e ee fb 3e 43 2c a1 3d e3 e0 64 3d
       0.29763457 0.49205297 0.078697704 0.05587853
000360 d9 d9 0c be 57 2e 14 3f 30 40 cf be 29 38 28 be
       -0.13754977 0.5788321 -0.4047866 -0.16427673
000370 03 55 ed bd 8a b7 01 be 74 dd 80 be f8 be 8a bd
       -0.1158848 -0.12667671 -0.25168955 -0.06774706
000380 d1 4c 89 3d 93 0d 31 be 07 a6 1b 3c 20 8b 89 3e
       0.06704105 -0.17290334 0.009500033 0.26863956
000390 d7 a9 37 3e c3 c3 bc 3d 61 0e e7 3e 59 5c 69 bd
       0.17935883 0.09217026 0.45128158 -0.056972835
0003a0 a7 49 81 3d 88 be bd be 4b 35 a6 be f9 cc 60 3d
       0.06312876 -0.37059426 -0.32462534 0.054882977
0003b0 2b b8 72 bc 29 0d bc 3d a7 bc 32 3e d1 3f 5e 3e
       -0.014814417 0.091821976 0.17454778 0.21704032
0003c0 c5 d8 bd 3d 37 73 49 be 3e fd be be 35 52 36 be
       0.09269861 -0.19672857 -0.37302583 -0.17804797
0003d0 be 48 a3 bd d3 1e 8d 3e 51 2e bb 3e 2c 47 f6 bd
       -0.07972859 0.2756258 0.36558774 -0.12025294
0003e0 f6 f6 fe 3e 24 a4 a5 3c c1 e9 21 3e b3 bb 82 3c
       0.4979779 0.02021987 0.15811826 0.015958643
0003f0 01 7a 71 bd 07 da 77 3e 59 d8 42 3e f5 08 07 be
       -0.058954243 0.24204265 0.19027843 -0.1318701

critic.2.bias f4 [64]
000000 9d 90 29 bb d5 8c 8e bd 72 d9 8e 3c 5f 1c da bd
       -0.002587355 -0.06960455 0.01743767 -0.106499426
000010 9f 36 af bd be 59 69 bd 6c 6f bb bc 8d 4d c7 bd
       -0.0855534 -0.05697035 -0.022880279 -0.097315885
000020 ba bb 22 3c c2 ec 48 3d 06 40 02 3e a2 35 e0 3c
       0.009932453 0.049053915 0.12719736 0.027369324
000030 f7 79 2f bd 0b 75 73 3d e9 62 bf 3c d9 e8 01 bd
       -0.042840924 0.059437793 0.023362594 -0.0317162
000040 0a 7e 9a bd a8 e2 c7 bc 35 e6 a6 3c 2b 5f a0 bc
       -0.07543571 -0.02440007 0.020373443 -0.01957663
000050 21 3d 1e 3d 4f 23 24 bd 59 6e 74 3d fb f2 de bd
       0.038632516 -0.040072735 0.05967555 -0.108861886
000060 67 2d af bc 04 56 48 bd 80 de 4e 3d d8 8b 8f 3d
       -0.021383954 -0.048910156 0.05050516 0.07009095
000070 27 bf b2 bc 06 82 9e bd a6 44 3b bd 41 e9 0d 3d
       -0.021819664 -0.07739644 -0.045719765 0.034646276
000080 a5 37 e8 3c 68 35 04 bd ab 68 83 bd 1b 0d cb bc
       0.028346846 -0.032277495 -0.06416448 -0.024786523
000090 06 5d ab bc c2 e6 e7 bc a2 75 2e 3d 9f 3b ed bd
       -0.02091838 -0.028308276 0.042592652 -0.115836374
0000a0 77 4b c8 3d f5 8c 7f bd d2 9a 15 bd fd 0b 9b bd
       0.09780019 -0.062390286 -0.0365246 -0.07570646
0000b0 1e fb ff 3c c1 3d da 3d 1a 4b 85 3d ad b3 cd 3c
       0.031247672 0.1065631 0.06508465 0.02511009
0000c0 40 0b ab bd 5b ad 39 bd d1 1f b6 3d 3a bf 24 bd
       -0.08351755 -0.04533134 0.08892787 -0.04022143
0000d0 d6 63 87 3c 7c 25 4d 3d 91 97 3f bc fb 0e fd 3c
       0.016527098 0.050084576 -0.011693851 0.030890932
0000e0 60 a4 89 bd a4 f3 52 bd 1d c6 6a bd 68 7b 5d bd
       -0.06720805 -0.051501885 -0.05731784 -0.054072767
0000f0 ce 43 bb 3d c4 72 96 bd 86 0b b6 3c 2e 77 80 3d
       0.09143792 -0.073461086 0.022222292 0.06272732

critic.4.weight f4 [1, 64]
000000 73 a0 6f be 06 0a bc 3d f1 33 9d bb 21 fc 17 3e
       -0.2340105 0.09181599 -0.0047974517 0.14842273
000010 ec 1c 1d 3e dd f7 bf 3d ab 8f 9f 3c 35 51 c1 3d
       0.15343064 0.09373448 0.019477686 0.09439317
000020 46 9b 36 3c 50 34 6c bc 1e c4 51 be 3c 21 c5 3e
       0.0111454185 -0.014416769 -0.20484969 0.38501918
000030 86 29 eb bc 6a 56 58 bd 32 23 10 be f3 88 8a 3d
       -0.028706323 -0.052816786 -0.14075926 0.06764402
000040 f0 91 1e 3e 7e 43 4b 3b 37 58 fe bb 7e 32 c9 3b
       0.15485358 0.003101557 -0.007761981 0.0061400523
000050 41 6f e2 bc a8 70 ba 3d b5 45 a5 3c 8c c3 31 3e
       -0.02764094 0.09103519 0.02017484 0.17359751
000060 65 e8 8f bd ee 77 56 bd 51 f8 96 bd 5f 63 a9 3e
       -0.070267476 -0.052360468 -0.07371581 0.33083627
000070 5f d5 9f bd 00 8b 56 3d 62 a8 4d be 53 55 dc 3d
       -0.07804369 0.052378654 -0.20083764 0.10758462
000080 09 98 97 ba b2 70 1e be ef 34 00 3e 35 e9 a5 3d
       -0.0011565696 -0.15472677 0.12520193 0.08101121
000090 20 2e 06 3d 7a ff 79 ba 85 eb 24 3e b2 61 11 3e
       0.032758832 -0.0009536665 0.16105469 0.14197424
0000a0 fd 79 69 be 31 2a 06 3e 32 6e a1 3b 24 0c fe bc
       -0.22800441 0.13102032 0.0049264664 -0.031011648
0000b0 c3 83 08 be 16 33 72 bd 38 df d8 bd fe 6b 14 bc
       -0.13331513 -0.05913075 -0.105894506 -0.0090589505
0000c0 a5 58 08 3e 9a a7 47 3c 29 ef 88 3d 9c cc 7e 3c
       0.13315065 0.012185955 0.06686241 0.015551712
0000d0 99 2e ff bb 19 13 b2 3d 70 af 37 bc 6c 75 10 3e
       -0.0077875373 0.08695049 -0.011211261 0.14107293
0000e0 94 67 c0 bd e6 8e 58 be b7 18 35 be d5 47 de bc
       -0.09394756 -0.21148261 -0.17685209 -0.027133862
0000f0 66 a8 23 3e 3a d4 c8 bd 29 ca 02 bb b1 b0 68 be
       0.15982208 -0.09806104 -0.0019956923 -0.22723652

actor.0.weight f4 [64, 6]
000000 f7 c4 50 bf 12 cc ca 3d d5 37 37 3f 67 92 f4 bf
       -0.81550545 0.099022046 0.7156957 -1.9107178
000010 64 f7 92 be 55 10 79 bc 42 14 5c bc 20 73 5d be
       -0.2870437 -0.015201648 -0.013432564 -0.21625948
000020 93 bf a2 3d 1c 57 cb be 16 a4 96 bd 66 47 04 3d
       0.07946696 -0.39714897 -0.07355516 0.032294653
000030 2f 3f 80 3e 97 e9 7f 3e 8a 38 81 bd a0 d4 92 be
       0.25048205 0.24991451 -0.06309612 -0.28677845
000040 12 b7 2c bd 10 6e 3c 3d a5 fb e2 bd 6b a0 d6 bd
       -0.042166777 0.0460034 -0.11083154 -0.10479816
000050 54 ca 4b bd 5e 0b 06 3d 7a 1d aa 3b d8 57 af be
       -0.049753502 0.032725684 0.005191502 -0.34246707
000060 9b bd 13 3c 57 62 a6 bd 8c f1 58 bf 07 b6 82 3e
       0.009017373 -0.081242256 -0.8474357 0.255295
000070 1b 7d 58 be 3d d5 a1 bd f4 d9 96 3d 7b 5b 84 3d
       -0.21141474 -0.07902 0.0736579 0.06462761
000080 33 a8 82 be bd c8 29 bf 19 08 7f 3c 89 11 68 bd
       -0.2551895 -0.6632193 0.0155658955 -0.056657348
000090 52 ca 52 3f 02 c4 b2 3e c0 4e 0b 3f f7 00 b4 be
       0.82339966 0.34915167 0.5441704 -0.35156986
0000a0 54 31 48 3e ae 5b b6 bd 53 3c 9d bd 07 86 16 bd
       0.19550067 -0.08904205 -0.076775216 -0.036748912
0000b0 42 b5 08 c0 c1 bc 1f 3f 7f dd 57 3d e2 9a db 3d
       -2.136063 0.6239739 0.05270147 0.10722901
0000c0 2c 3c be bc 97 1d 1b 3e b8 80 46 bf 21 6d 2f 3d
       -0.023222052 0.15148006 -0.7754016 0.042828683
0000d0 df c1 a4 3e 79 d8 90 3c db 2d 8d 3e 96 0f 3b 3e
       0.32179162 0.017681347 0.27574047 0.18267664
0000e0 3d 22 89 be 1c e2 52 3f c9 8e a8 3c a6 9f c7 bd
       -0.26783934 0.82376266 0.020575898 -0.097472474
0000f0 fb b5 de 3b 88 fd fb bd c6 68 38 be 7c 7b 03 3e
       0.006796596 -0.123042166 -0.18008718 0.12840074
000100 f4 19 73 be 32 09 9e be 94 c2 35 be 45 c4 b7 bd
       -0.23740369 -0.3086639 -0.17750007 -0.08972982
000110 98 b0 c7 3d 13 9d 81 be 54 82 8a 37 e6 9e 81 be
       0.097504795 -0.2531515 1.651157e-05 -0.25316542
000120 f2 6b 9a 3e 6d 94 77 3d 4b b6 88 3d 13 09 be bd
       0.3016048 0.060444284 0.066753946 -0.092790745
000130 70 d6 24 3c 79 06 34 3c 0e 67 0f 3e 39 b4 44 3e
       0.0100608915 0.010987871 0.14004156 0.19209374
000140 e5 26 40 3f bb b8 29 3d dd 23 02 bb 43 cd 76 3d
       0.7505935 0.04143594 -0.0019857802 0.060254347
000150 a1 6e 41 3d 03 a7 4c 3e f2 89 38 3e 83 ac cc bf
       0.047224645 0.19985585 0.18021372 -1.5990146
000160 22 08 96 bc e7 d5 8e 3e dc 68 6c be 31 b0 cb be
       -0.018314425 0.2789757 -0.23086876 -0.3978286
000170 5e 3b d0 3d b7 d7 95 bc e0 d0 8d ba 3c 7b 8b 3e
       0.101675734 -0.018291337 -0.0010819696 0.27242458
000180 df 7b c9 be 99 ae 8b be 8a b2 73 3e 01 ac 2e 3e
       -0.3935232 -0.27281645 0.23798576 0.17057802
000190 be ee 30 3e 30 d7 41 be 49 a8 93 be aa 59 18 be
       0.17278573 -0.18929744 -0.2883933 -0.14877954
0001a0 b5 13 d0 3d be 1a 32 3d 23 15 b9 be f0 dd b3 bd
       0.10160009 0.043482535 -0.3614894 -0.087825656
0001b0 d1 e5 2b bd 4d ad 30 3c d2 27 e4 3e 91 54 96 3f
       -0.041967217 0.010783506 0.4456163 1.1744558
0001c0 7d 39 80 bd 2b 9e 4e be 5f 6d 2b bd 18 95 51 3e
       -0.06260965 -0.20177524 -0.04185235 0.20467031
0001d0 59 f5 64 3f a8 d4 11 bf 0a ec d8 be 0a a1 4b be
       0.8943687 -0.5696511 -0.42367584 -0.1988565
0001e0 dc 0a 74 3c dd 31 b1 be b8 de f5 3e e5 0c 6a 3f
       0.014895167 -0.34608355 0.48021483 0.91425925
0001f0 4e f4 87 be 7f 6c 6f be e8 c9 47 be bb 1e e8 bd
       -0.26553577 -0.23381232 -0.19510615 -0.11333986
000200 19 a6 9e ba 7e 8b d8 3d 4c 8b 3b 3c a1 b7 f7 be
       -0.0012103944 0.10573481 0.011446785 -0.48382285
000210 32 3e 03 3c 0f e4 00 be 34 83 8b bd 92 17 ba 3d
       0.008010434 -0.12586997 -0.068121344 0.09086527
000220 b0 5b 35 be ed e1 86 be 01 0a cc bd e2 50 42 be
       -0.17710757 -0.26344243 -0.099628456 -0.18976167
000230 2f 67 54 bd 1d 48 11 be d5 1e 52 be 9d 56 ab 3d
       -0.051856216 -0.14187665 -0.20519574 0.083661295
000240 2c a1 30 3c aa 3d 87 3e a1 b2 7a 3e e7 ed a1 bf
       0.010780614 0.26414233 0.24482204 -1.2650727
000250 f0 9e ad 3d 40 28 69 3e 0b 66 af bb d5 30 5d 3e
       0.084775805 0.2276926 -0.0053527406 0.21600659
000260 ac b4 48 3e 0d ce fc be 4e 27 26 3e 2f 21 e0 3d
       0.19600171 -0.49375954 0.16225931 0.10943829
000270 51 a0 95 3e 00 1b 81 bd 09 58 b1 bf 03 43 1e 40
       0.29223874 -0.06303978 -1.3854991 2.47284
000280 3b ce 46 3d 8b 15 17 3e ec 35 92 bc 3f 2a 3d bd
       0.04853652 0.14754312 -0.017847978 -0.046182867
000290 f7 14 43 3f 7b d2 49 bf 74 1b d7 3e 05 28 dd 3d
       0.76203865 -0.7883679 0.42013133 0.10798649
0002a0 49 b4 00 3e d7 08 3b 3e 75 5b 18 bf f2 be 52 3f
       0.12568773 0.18265091 -0.5951455 0.8232261
0002b0 0f c4 82 3d 76 7d 0c be 24 38 4a bd a8 fd ee be
       0.063850515 -0.13719735 -0.049369946 -0.466779
0002c0 db f2 2a be be 8c 5d 3e 84 5f a8 b9 77 9d 9d 3e
       -0.16694205 0.2163572 -0.00032114622 0.307842
0002d0 ba 0c 0c be a7 de f1 3d 62 8d 04 bf 8c c6 3a be
       -0.1367673 0.11810046 -0.51778233 -0.18239802
0002e0 22 95 06 bc c2 b5 d1 be 36 ae 13 3c 4b 00 a1 3e
       -0.008214267 -0.40958983 0.009013703 0.31445536
0002f0 91 3d 9d 3d e7 6b 7a bf 86 e2 99 3e a4 79 84 3e
       0.076777585 -0.97820896 0.30055636 0.25874054
000300 26 86 48 3d 34 81 09 3e 76 e1 ff bd 68 3f e6 3d
       0.04895606 0.13428193 -0.12494175 0.112425625
000310 62 a4 e0 39 75 24 56 3e fe 4e 09 bc c4 22 1d 3d
       0.00042847084 0.20912345 -0.00838065 0.038363233
000320 01 91 0a be 34 17 da bd cd f6 85 3e a3 9f 27 3e
       -0.13531877 -0.10648957 0.26164857 0.1636949
000330 c3 98 c2 3d cf 16 03 3e c6 b7 3d 3e ca bf f9 be
       0.09501793 0.1280167 0.18527135 -0.48779136
000340 e1 df 9e bc 13 a8 b4 3e bc 73 3d 3e 10 44 52 3d
       -0.019393863 0.3528448 0.1850118 0.05133444
000350 92 de 18 3c a9 5a e3 3f 09 3f f8 3d aa 95 a1 bc
       0.009330409 1.7762042 0.12121398 -0.019724686
000360 c8 09 87 3c 84 c6 a3 3e e6 91 f3 be 05 24 35 bf
       0.016484156 0.31987393 -0.4757225 -0.70758086
000370 78 85 df 3d ae d4 77 3e 79 85 a0 3e 58 88 9b 3e
       0.10914129 0.24202225 0.31351832 0.3037746
000380 cd 2a 75 be 98 93 09 be f9 eb ac bd 85 e2 4f 3e
       -0.23942108 -0.13435209 -0.08443446 0.20301254
000390 63 9b 13 3e 01 da 87 3e cb 26 17 3e d7 29 99 3d
       0.14414744 0.2653351 0.14760892 0.074786834
0003a0 9b e6 52 3d 38 9a a0 3e e3 d1 d4 be 37 30 7d 3d
       0.051489454 0.3136766 -0.4156638 0.06181356
0003b0 c0 07 c1 3e f9 96 78 3e 2b 41 1b bc bd 44 1c be
       0.37701225 0.24276341 -0.0094759865 -0.15260597
0003c0 03 b6 20 bc 9c 70 69 be ff 14 b1 3d e8 a2 5b bd
       -0.00980902 -0.22796863 0.08646583 -0.053622156
0003d0 b1 e3 03 be 8b 5c 1a 3e 61 e7 fb bc 71 c8 0c be
       -0.12879826 0.15074365 -0.030749978 -0.13748337
0003e0 40 97 03 bf 83 08 14 40 d1 d9 d6 bd ef 89 7c be
       -0.51402664 2.3130195 -0.10490764 -0.24661992
0003f0 12 c7 b6 3c 9d ba a4 be 3d 1a 3d 3e db 6a 5e be
       0.022311721 -0.32173625 0.1846704 -0.2172045

actor.0.bias f4 [64]
000000 9f 81 90 be 4a e5 ae bd 94 4b b7 3c de b7 b7 3c
       -0.28223893 -0.08539827 0.022374906 0.022426542
000010 c2 ec 12 3f 13 c0 4c 3e fd 2e 27 3f d0 73 0d 3f
       0.57392514 0.19995145 0.65306073 0.5525484
000020 f5 59 d7 3d ec dc 79 3e 00 00 00 00 0e 1d 00 3d
       0.10515205 0.24400681 0.0 0.03127771
000030 9a bf 2a bb 7f a0 d0 bd 67 19 c0 3d c7 3a cc bd
       -0.0026054145 -0.10186862 0.09379845 -0.099721484
000040 03 6d 99 be 00 00 00 00 8c 6b c2 be 34 50 42 be
       -0.29965982 0.0 -0.37972677 -0.18975908
000050 e9 b3 a2 be 61 e5 62 3b 36 85 bc bd 00 00 00 00
       -0.31777886 0.0034621584 -0.092050955 0.0
000060 a1 32 0e 3e 12 7a 46 3e 0b 19 7f 3e cf b1 02 bf
       0.13886501 0.19382504 0.24911897 -0.51052564
000070 88 04 f7 3d 04 74 83 bd 8e 26 1a 3e 3a 8d 6e 3d
       0.12061411 -0.064186126 0.1505377 0.058240153
000080 ed 62 0e b8 c0 06 23 b7 78 2c 07 3d 5d d3 89 3e
       -3.394757e-05 -9.717129e-06 0.033001393 0.2691907
000090 12 c7 47 3e 39 65 92 3b 40 08 53 b7 20 31 15 bd
       0.19509533 0.004467633 -1.2578501e-05 -0.036423802
0000a0 e3 03 54 36 7f 73 f1 bb 4a dc a6 bd cf 5c 52 be
       3.1592724e-06 -0.0073685045 -0.081474856 -0.20543216
0000b0 4e 52 0f b7 71 c4 ba 3e bd e4 63 bf 91 d1 76 3e
       -8.542627e-06 0.36477998 -0.890209 0.2410338
0000c0 21 bd 51 be 09 2a b3 3d e0 df 0a bd 94 42 80 be
       -0.20482303 0.08748252 -0.03390491 -0.25050795
0000d0 97 e8 a1 be 56 b9 16 be f5 e3 db bb 08 4c 75 bf
       -0.31622764 -0.14719138 -0.006710524 -0.9581914
0000e0 02 92 8b be 52 b3 18 be 4f d4 3e bc 04 af 1c 3f
       -0.27259833 -0.14912155 -0.011647298 0.6120455
0000f0 8d fe d2 3b bc 13 3a bf 4a aa 57 b7 00 d1 60 b7
       0.006439036 -0.7268636 -1.2854647e-05 -1.3400102e-05

actor.2.weight f4 [64, 64]
000000 f3 12 80 3f 68 32 0c be db 92 11 be 4d 13 8a bd
       1.0005783 -0.13691103 -0.14216177 -0.067419626
000010 37 91 f6 bc 8f e0 8e 3e 15 05 88 3e 8e 1a 07 bf
       -0.03009854 0.279057 0.26566377 -0.52774894
000020 7f 5c 7f 3c 24 ed 93 3e 43 d4 59 3e de 5a 13 3e
       0.015586018 0.2889186 0.21272378 0.14390132
000030 eb fc 8b bd bc f1 27 3e da 5c 42 be 57 a1 18 bc
       -0.0683535 0.16400808 -0.18980733 -0.00931581
000040 ab 5f 72 bd 94 ef b0 3e 31 5b 3e be 90 13 8f be
       -0.059173267 0.34557784 -0.18589474 -0.27944613
000050 2e 01 e2 bd b7 c9 94 bd 6e 6e 97 3d 68 18 62 bd
       -0.11035381 -0.072650366 0.0739411 -0.055199057
000060 09 ee 92 be 31 e3 d8 be 2a b1 92 be c1 82 f4 3c
       -0.2869723 -0.42360833 -0.2865079 0.029847505
000070 4a 90 93 3e d0 c0 15 3c 33 74 93 bd 6f f9 07 3f
       0.2882102 0.009140208 -0.071998976 0.5311498
000080 2a 48 56 3e 65 23 17 bc 5b e2 00 3f f5 55 4f 3e
       0.20925966 -0.009224747 0.5034539 0.20247634
000090 a7 7b 89 3e 06 91 78 be ea 94 aa 3c de ec 15 3d
       0.26852152 -0.24274072 0.02082296 0.036602847
0000a0 48 9c dc 3e f8 39 a1 be 72 b9 5a bd a1 7b 02 bf
       0.43087983 -0.3148954 -0.05339951 -0.5096989
0000b0 af 80 c2 bd 49 7a a5 3e 2f 0d c8 bd 77 6d f9 bd
       -0.09497201 0.3231986 -0.097681396 -0.12179082
0000c0 72 b1 ca 3e c4 19 69 be ac 19 5f be 0a 06 97 3d
       0.39588505 -0.22763735 -0.21787137 0.07374199
0000d0 19 cd 42 3c 81 55 8e bc 62 e0 26 3e b2 dd 4b be
       0.011889719 -0.017374756 0.16296533 -0.19908789
0000e0 bc 1c 79 3d 49 10 bf be 1d ec 11 3d 9b a9 57 3f
       0.06081842 -0.37317112 0.035625566 0.8424317
0000f0 6e 6b 8e bb 28 60 5f 3e 61 86 87 3d b4 36 2b be
       -0.0043463027 0.21814024 0.066174276 -0.16720086
000100 a4 d2 e8 bd 63 b8 a9 bd b9 1a 06 3e 4a f7 37 be
       -0.113683015 -0.08287122 0.13096131 -0.17965427
000110 8c f2 bb be 78 28 6c 3d 20 f2 0e 3f 38 5b 57 3e
       -0.36708486 0.05765578 0.55838203 0.21030891
000120 08 38 d9 bc b0 f4 0c bd 6f f7 f7 be 88 3b 0e 3e
       -0.026515976 -0.03441304 -0.48430964 0.13889897
000130 33 8f ae 3e b2 71 d8 bd 85 60 89 be ee dd 2c be
       0.34093627 -0.10568561 -0.2683145 -0.16881534
000140 62 5a 6a be e1 a5 b8 bc 6b 6a 07 bf 60 4b 65 3e
       -0.22886041 -0.022540035 -0.52896756 0.22392035
000150 34 90 0c be ca 71 23 be e8 9b 10 be 1b 64 9e be
       -0.13726884 -0.15961376 -0.14121974 -0.3093575
000160 bc 1c c4 bd 0e 6f fa 3d 10 55 0b 3e 31 6f 9b 3e
       -0.09575793 0.12228213 0.13606668 0.3035827
000170 16 f9 2f 3d f5 46 f3 be 6e 35 37 3d 28 f3 1f 3f
       0.042962156 -0.47515073 0.04472869 0.624804
000180 81 be 95 be 9b 24 e8 3e d9 60 8b 3e 7c 81 6c bd
       -0.29246905 0.45340428 0.27222326 -0.057740673
000190 9a f2 65 3e aa a6 e7 bd 78 51 e2 3d dd ae 8d bd
       0.22455826 -0.113110855 0.11050695 -0.06918118
0001a0 89 82 ab be 3b e6 c6 bd b2 13 2d be 74 99 2c 3e
       -0.33498028 -0.09711882 -0.16902044 0.16855413
0001b0 a0 db 6f 3e 9a 8f 05 be 5f 39 b9 3c fa ff 09 bf
       0.23423624 -0.13043061 0.022610364 -0.53906214
0001c0 99 f1 2a 3f 81 28 8d 3e 9c 9b 09 3d 3e 73 b2 bb
       0.667749 0.27569965 0.033595666 -0.005445867
0001d0 67 36 34 3e 9d b6 4f 3b 14 c0 db 3d b0 65 2a be
       0.17598878 0.003169454 0.10729995 -0.16640353
0001e0 8a d7 36 3d d9 b5 62 bb 67 f5 4c 3b c6 3f bf 3e
       0.044639148 -0.0034593253 0.00312742 0.37353343
0001f0 aa a4 78 3c a5 81 e2 be 38 ee 0b be 0b 73 dd bc
       0.015175978 -0.44239536 -0.13665092 -0.027032396
000200 40 17 92 bd 8d cb 40 3e f9 08 6d 3d 51 38 b3 3c
       -0.07133341 0.18827648 0.057869885 0.02187744
000210 30 0c 0d be 2e b8 c1 bd 66 9d 12 3e b2 fd 13 3f
       -0.1377418 -0.094589576 0.14317855 0.57808983
000220 d0 41 95 be 98 e1 34 bf 8c df 61 3e 87 43 8c be
       -0.29151773 -0.7065673 0.22057933 -0.2739527
000230 da d6 0c bd 42 c6 0d 3e f6 bb 17 3f 42 da 5f be
       -0.034384586 0.1384516 0.5927118 -0.21860602
000240 ec a8 c6 3d d4 bd 68 bd a4 f1 29 bf b6 a9 4d 3e
       0.09700188 -0.05682166 -0.6638434 0.20084271
000250 c8 5b bf bd 3c 6a 81 be 1d 3f ac 3c 7e 9b 92 be
       -0.09343678 -0.25276363 0.021026189 -0.28634256
000260 49 99 44 bd ad 75 59 3d a0 fe 0f 3d 5b 8f e9 be
       -0.047997747 0.05309074 0.03515494 -0.45617184
000270 24 46 53 bf 6a 3b bd be 26 68 12 bd 34 ea 96 3e
       -0.825289 -0.36959392 -0.035743855 0.29475558
000280 43 58 b7 bd 32 2f a3 3e 58 55 a2 3e 36 34 79 be
       -0.089523815 0.31871945 0.31705737 -0.24336323
000290 69 f7 47 bd ad a3 43 3e 6f 71 b5 3d 9a 21 b9 3d
       -0.048819933 0.19105406 0.08859526 0.09039612
0002a0 7c 69 8b 3e 58 06 25 3d 50 fc 28 3d d5 ee 2b bc
       0.27228916 0.040289253 0.04125625 -0.010493954
0002b0 ed b9 a0 3d f1 6f 5d 3d 01 ed ca bd 57 71 1c be
       0.078479625 0.054061834 -0.09908486 -0.1527761
0002c0 74 7a 38 3e 80 3b 7f bc 8a c2 4e 3d 2a 57 5e bd
       0.18015462 -0.015578151 0.050478496 -0.054282345
0002d0 82 f8 5a 3e 7b 7c 8a be 1f df 15 be f1 5e 0b 3f
       0.2138386 -0.27048096 -0.14635895 0.54441744
0002e0 d2 56 f4 3d 4d da ee 3d b8 5d dd 3e f2 a0 37 bf
       0.11930622 0.11662731 0.43235564 -0.7172996
0002f0 9f 93 55 be 7a 7e a4 3e 32 df 27 3d c2 db 82 3e
       -0.20857094 0.32127744 0.04098434 0.25558287
000300 dd 98 69 be c1 90 a8 3e 98 3b 16 bf 45 76 34 3d
       -0.22812219 0.32922938 -0.5868468 0.044058103
000310 d1 81 4f be c5 c6 a3 3c 13 4c de 3e 6a 58 81 3e
       -0.20264365 0.019992242 0.43417415 0.25262767
000320 37 d8 4c 3e fd f2 41 3e 07 6b 22 be b9 ed 05 3e
       0.20004354 0.18940349 -0.1586114 0.13078965
000330 f7 af 2f 3d 34 3d 9b bc 16 5f af be 67 2e 5c 3e
       0.042892423 -0.018950082 -0.34252232 0.21502076
000340 8f 55 0a 3c 2f 6b 19 3e 7b c2 d5 bd 23 89 d9 be
       0.00844325 0.14982294 -0.10437485 -0.4248744
000350 e4 8b 7d 3c 89 0d 91 be 49 0f 5f 3e d3 53 fa 3d
       0.015475247 -0.2833064 0.21783175 0.122230195
000360 77 4d 5d 3e 88 58 e6 3c 81 b6 07 bf 92 23 85 bc
       0.21611582 0.028118387 -0.53012854 -0.016252313
000370 e6 bf 68 3e 50 fa 90 bc 61 e1 92 3e 81 63 52 3e
       0.22729453 -0.017697483 0.28687575 0.2054577
000380 ef 58 f5 bc 3f 3c 69 be 56 77 08 be b5 e0 1b bf
       -0.029949633 -0.22776888 -0.13326773 -0.6088975
000390 2d 04 90 3d e3 8e c6 bd 39 8e 3b bd b3 b3 85 3e
       0.070320465 -0.09695222 -0.04578993 0.26113662
0003a0 d3 39 05 3e 67 a7 dc be 3f 30 ba 3e 25 21 a8 be
       0.1301034 -0.43096468 0.36364934 -0.32837787
0003b0 c7 cf be bd 4f 4f b9 3e 6c e4 49 3f 03 51 cd be
       -0.09316974 0.3619332 0.7886417 -0.4010087
0003c0 65 84 30 3f 01 29 68 3d 35 2f 0c bf 75 85 34 be
       0.6895202 0.05667973 -0.5475953 -0.17629035
0003d0 8c fc 84 3e 6f 0f 36 bd 85 05 e2 bd 9d 87 2c 3f
       0.25973928 -0.044448312 -0.11036209 0.6739443
0003e0 bc 5c 01 bb 47 b1 33 3f 5f 5e 2f be 22 a3 bb 3b
       -0.0019739112 0.7019238 -0.17125843 0.005726234
0003f0 55 8a 88 be c1 c8 64 bf bf d2 19 be 3b ed a5 be
       -0.2666804 -0.89368826 -0.150218 -0.32407555

actor.2.bias f4 [64]
000000 f2 76 35 bd c2 ad 25 3e 2b c2 1b 3d 11 7d af bd
       -0.04430289 0.16179565 0.03802697 -0.085687764
000010 e7 d2 08 bd 7c 5b 25 3e 9f c8 da bd 2f 7b 8b 3d
       -0.033404257 0.1614818 -0.10682797 0.06810605
000020 84 03 c4 3a dc cc 96 3d c8 b1 31 be aa 51 c8 bb
       0.0014954661 0.073632926 -0.17352974 -0.0061132507
000030 84 2e 87 3d d8 12 c0 3b 49 a8 d0 bc 40 ea 08 bd
       0.06600669 0.0058616214 -0.02547087 -0.033426523
000040 f3 c1 a0 3c 5c 45 29 3e e6 fd 10 3e fb 4e f7 3d
       0.019623732 0.16530365 0.14159355 0.12075611
000050 ee 1b 1e bd 1c 48 ec bd 71 09 39 be 7f 2c 4a 3a
       -0.038600855 -0.11537191 -0.18070008 0.0007712319
000060 60 f9 dc bd 13 76 35 3d e1 26 cf 3d 01 96 e5 3a
       -0.10789752 0.044302057 0.101148374 0.0017516018
000070 bb a8 71 bd 84 84 0f 3e c7 16 a8 bd d3 1e f6 3c
       -0.058998805 0.14015394 -0.082074694 0.030043995
000080 e7 cc c8 3d b6 ce 91 bd 5f 03 8e bd 5a bf 21 3c
       0.09804707 -0.07119505 -0.06934237 0.009872282
000090 1c b1 f5 bd 57 bb 42 3d 92 0c 86 3d f2 14 a4 bc
       -0.119966716 0.047541942 0.06545366 -0.020029519
0000a0 70 6d 0d be 44 31 d1 3d 3e af 4a 3c 34 18 43 3d
       -0.13811278 0.10214475 0.012370883 0.047630504
0000b0 a6 c5 44 3e a2 bc bc bd ad 6e 3c be a6 39 48 3d
       0.19216022 -0.09215666 -0.18401594 0.048883103
0000c0 af 39 f5 3d c0 a4 0d 3e 42 99 e7 3c 8b 85 e6 3d
       0.11973893 0.13832378 0.028271321 0.1125594
0000d0 42 52 41 bd 89 8c f3 bc 7f eb fb bd 4f 86 07 3e
       -0.047197588 -0.029730098 -0.12300777 0.13234828
0000e0 d7 fe a1 bd 90 d9 c1 bd 67 68 3d 3e 9e 7f 2c be
       -0.07909935 -0.09465325 0.18496858 -0.16845557
0000f0 96 d7 3f 3e df ce 7b bd 8d c4 0e 3e cc af 71 3d
       0.18734583 -0.061476585 0.13942166 0.059005544

actor.4.weight f4 [2, 64]
000000 32 18 3a be b6 dd bd 3d 4a c7 3d 3e 68 e4 fb bc
       -0.18173292 0.09270804 0.18533054 -0.030748561
000010 cf 6e 57 3e b6 05 9e 3d 8f 60 5d be d6 4e 2c 3d
       0.21038364 0.07715933 -0.21618865 0.04206737
000020 5f c3 0a be 8e 3c 11 3e 67 f8 70 bc 0d 17 cf bc
       -0.1355109 0.14183256 -0.014707661 -0.025279546
000030 1d 8f ab 3d cd a0 88 bc 94 f0 96 3b 8f 2e 25 be
       0.08376906 -0.016678238 0.004606316 -0.16131042
000040 d2 5d 8a be 82 a8 25 3c c3 64 ed 3d dd 8b 53 3d
       -0.27024704 0.010110976 0.115914844 0.051647056
000050 50 b0 a4 3a e6 94 bf bd 42 40 2f be ee a9 9b 3b
       0.0012564752 -0.09354572 -0.17114356 0.004750482
000060 05 af 68 bd 3e 2a ca 3d a4 88 95 3d a7 21 19 3c
       -0.056807537 0.09871338 0.07301453 0.009346402
000070 49 fa ff 3d 5b c8 a8 3c 2e b3 bd bd e4 2b 5d bd
       0.1249891 0.02060335 -0.092626914 -0.053996935
000080 73 77 8a 3d 5e d5 06 bd 82 db 2f 3e 94 22 10 bd
       0.067610644 -0.032918327 0.1717358 -0.035189226
000090 1a cb 4f 3c da a1 4a 3e 46 ec a0 bc c7 ed 51 3c
       0.0126827005 0.19788304 -0.019643914 0.012813038
0000a0 72 a8 de 3d 06 ae 4c 3d da 5b 4d 3e 7a e5 c7 3c
       0.10871972 0.04997065 0.2005457 0.024401415
0000b0 63 5d 24 be 68 5d 35 3e 50 ca 90 3e 73 fc 5a be
       -0.16051249 0.17711413 0.28279352 -0.21385364
0000c0 ff 8a e3 3d b0 20 84 be 18 c1 1d bd 94 cb ed 3d
       0.11110496 -0.2580619 -0.038514227 0.11611095
0000d0 9a 27 08 3f e2 11 26 bd 9f f6 06 3e 54 b4 80 3a
       0.5318543 -0.040544398 0.13180016 0.0009819367
0000e0 49 e0 05 be 3a 5e cc 3e 13 00 d5 be 50 5d 09 be
       -0.13073839 0.3991564 -0.4160162 -0.13414502
0000f0 81 1c f2 bd a4 ed f1 bc fb d1 45 3d 74 b0 89 be
       -0.11821843 -0.029532261 0.048295956 -0.26892436
000100 43 d2 38 3e b4 00 c0 bd 91 3b 40 be 4e 5e 00 3d
       0.18048958 -0.09375134 -0.18772723 0.031339936
000110 cc b5 56 be 40 14 9a bd 1f 5e 5b 3e ca c9 34 bd
       -0.20967788 -0.07523394 0.21422623 -0.044137754
000120 b5 6d 0b 3e 72 33 0d be 64 9a 45 3c c0 e7 d1 3c
       0.13616069 -0.13789156 0.012060735 0.025623202
000130 b8 4d af bd fc 26 97 3c 9d 5f 7d bb fc 29 29 3e
       -0.085597456 0.018451206 -0.0038661726 0.16519922
000140 5c 70 8a 3e 7b 3b 0c bc 34 f5 ed bd b4 06 57 bd
       0.27038848 -0.008559103 -0.116190344 -0.052496627
000150 5c cb 99 38 26 56 bc 3d 3d 82 31 3e 5e b1 ea bb
       7.333487e-05 0.09196119 0.17334838 -0.007162257
000160 82 53 6a 3d 37 4b cb bd 1b b3 95 bd ae 8f ec bb
       0.057208546 -0.099264555 -0.07309552 -0.0072192764
000170 6e f7 01 be c6 cc ac bc 3a 10 be 3d a4 65 65 3d
       -0.12692043 -0.021093737 0.09280439 0.056005135
000180 24 8c 8a bd 8e e1 03 3d a5 a9 30 be 1d 4e ff 3c
       -0.06765011 0.032197528 -0.17252214 0.031165177
000190 0e 73 3d bc 27 0f 4a be 20 f2 95 3c 92 c9 3e bc
       -0.011563076 -0.19732343 0.01830393 -0.011644738
0001a0 f0 92 dd bd ed 9f 40 bd fd c4 4c be 00 76 e6 bc
       -0.10819042 -0.047027517 -0.1999702 -0.028132439
0001b0 b5 7d 25 3e 2d e1 37 be e3 4a 91 be b7 49 5b 3e
       0.16161235 -0.17956991 -0.28377447 0.21414839
0001c0 ff 7d e1 bd bd a5 84 3e 24 58 1f 3d af dd ee bd
       -0.1101036 0.25907698 0.038902417 -0.116633765
0001d0 24 9c 08 bf 86 d0 2c 3d 29 d9 06 be 04 e8 17 bb
       -0.5336325 0.04219105 -0.13168778 -0.0023179064
0001e0 db a2 06 3e 1e 36 cb be 65 20 d6 3e c6 41 0a 3e
       0.13148062 -0.39689726 0.4182159 0.13501653
0001f0 dc b1 e7 3d 47 d0 f2 3c ba 8d 4a bd d3 f7 89 3e
       0.11313221 0.02964033 -0.049451567 0.26946887

actor.4.bias f4 [2]
000000 4e 39 26 3e 73 37 26 be
       0.16232798 -0.1623209
