python/pong/policies/new.pt (torch, 40841 bytes, 11 tensors)

critic.0.weight f4 [64, 6]
-0.25718495 0.038553804 -0.15254478 0.041217767 -0.08378521 -0.188681 0.0029288137 0.08069937
1.612146 1.1157645 -0.0019104171 -0.06901079 -0.05551123 -0.13613799 0.3490241 -0.09440118
0.2574309 -0.07959155 0.0026869706 -0.004457799 0.026042288 0.18653493 -0.22586332 -0.19940478
-0.20734133 0.010276162 -0.7062934 0.402933 0.59033275 0.16529512 0.31633213 -0.09688927
0.73517334 -0.12033905 -0.18672803 -0.023156084 -0.09442593 -0.11636872 -0.2666619 -0.13367309
-0.10235017 0.029914161 0.0032653431 -0.15748355 -0.35344416 -0.053513516 0.14494038 0.040612694
0.22617565 -0.063665785 0.34250724 -0.5332571 0.038989358 -0.08879152 -0.31030506 0.19407977
-0.49745056 -0.45237768 -0.17239778 -0.032203015 0.2701156 0.1645979 -0.16975544 0.12724884
-0.0958361 0.18142664 -0.11342626 0.008573024 0.28408873 0.03673623 -0.13414198 -0.20661497
0.0690776 -0.06165717 0.92863655 1.4931464 -0.28015035 0.071253814 -0.37928784 -0.20208256
0.32186314 -0.15608056 0.024308464 -0.069413416 0.118141375 -0.35843876 -0.25873202 -0.74551195
0.08920145 0.13187696 0.15735552 -0.11427105 0.7274368 -0.8391691 0.1322827 -0.1904377
-0.32292098 -0.07220157 -0.19348688 0.23013882 -0.11177399 -0.14023995 -0.008300706 0.2693329
0.29385844 -0.22030121 0.22358488 0.18324554 -0.2580188 -0.15800673 -1.0159695 0.17695962
0.55133516 0.3160079 0.09424968 0.091386005 0.016761413 -0.04919907 0.06808751 -0.052228816
0.11144005 0.1295596 0.17503698 -0.009290318 0.1136035 -0.13100563 0.0070773005 0.16510707
-0.27299836 -0.26891422 0.15290281 -0.05420542 -0.3326362 -0.09605876 -0.022795454 0.39669082
-0.074644506 -0.25019765 -0.0034875441 0.04162693 0.9914596 -0.16129328 -0.42288473 -0.07618272
0.05662508 0.00774072 -0.385225 -1.1625563 0.067771025 0.063848145 0.008367986 -0.10341474
2.5908039 -0.23878954 -0.0011328973 0.10101172 0.16367325 0.11685929 0.15648274 0.16778372
-0.24296443 0.5059206 -0.24148233 0.15514733 -0.46247125 -0.24718687 -0.028134737 0.029874234
-0.10023992 0.28247657 -0.23922257 1.0498359 0.10512251 -0.02284152 0.23724432 0.17238557
0.12867196 0.31411773 -0.11042969 -0.06636182 0.017723612 0.0035736677 0.11308011 -0.10791064
-0.21438433 -0.056944318 0.15163442 0.2690541 -0.050136812 0.1922449 0.08184956 0.097197354
-0.23767331 -0.044334367 0.37992513 0.072672494 0.010777016 -0.23622867 -0.22626735 0.051034566
-0.09852179 0.22569436 -0.29094484 0.23798348 -0.013998214 -0.027877856 -0.15043211 -0.09213643
-0.08363851 -0.08469554 -0.04273777 -0.36249116 0.073346 0.20201127 -0.026998254 -0.024094572
-0.09550599 -0.0021215542 -0.54862136 0.8534303 -0.1208694 0.18073055 0.004238714 -0.283136
0.41674042 -0.25024238 -0.07610857 -0.25685042 -0.101258606 0.13491312 0.051012598 -0.08772073
-0.51777107 -0.082208455 0.0049216645 -0.2144891 1.0421689 -2.483256 -0.008388776 0.20600331
0.052069772 0.14427547 0.02942928 0.4196784 0.14167447 -0.040234618 0.008087262 0.2603357
-0.6069445 0.21299756 0.33766928 -0.17660531 -0.28758126 0.41296336 -0.08410806 0.24765918
00000000: bfad 83be 98ea 1d3d b334 1cbe f6d3 283d
00000010: 9597 abbd 9835 41be 57f1 3f3b b645 a53d
00000020: cd5a ce3f 5fd1 8e3f f666 faba 8755 8dbd
00000030: be5f 63bd c267 0bbe 49b3 b23e 6855 c1bd
00000040: fccd 833e e500 a3bd e317 303b ba12 92bb
00000050: a356 d53c 0303 3f3e b748 67be c430 4cbe
00000060: 4951 54be 595d 283c a5cf 34bf 3c4d ce3e
00000070: 0c20 173f 2043 293e 49f6 a13e e26d c6bd
00000080: 5234 3c3f 5274 f6bd a235 3fbe d4b1 bdbc
00000090: 6262 c1bd b952 eebd e987 88be 99e1 08be
000000a0: f79c d1bd 8b0e f53c 5eff 553b 5e43 21be
000000b0: a2f6 b4be fd30 5bbd 406b 143e 7f59 263d
000000c0: 979a 673e 3563 82bd 1c5d af3e 8a83 08bf
000000d0: 4eb3 1f3d 54d8 b5bd 4ee0 9ebe d9bc 463e
000000e0: d7b1 febe 0c9e e7be 0b89 30be 4fe7 03bd
000000f0: 984c 8a3e 5a8c 283e 5fd4 2dbe 854d 023e
00000100: b845 c4bd e8c7 393e 074c e8bd de75 0c3c
00000110: 1474 913e bb78 163d 845c 09be e092 53be
00000120: 8f78 8d3d 3b8c 7cbd 20bb 6d3f 6c1f bf3f
00000130: de6f 8fbe 85ed 913d 0432 c2be bbee 4ebe
00000140: 3fcb a43e 95d3 1fbe 8b22 c73c 9f28 8ebd
00000150: 1bf4 f13d 4985 b7be 8678 84be dfd9 3ebf
00000160: 40af b63d c10a 073e ce21 213e f106 eabd
00000170: 4c39 3a3f c9d3 56bf 1e75 073e 1a02 43be
00000180: e655 a5be 6bde 93bd 6d21 46be 83a9 6b3e
00000190: c3e9 e4bd 109b 0fbe afff 07bc 00e6 893e
000001a0: 9d74 963e a496 61be 6ff3 643e b8a4 3b3e
000001b0: 0a1b 84be 84cc 21be 4a0b 82bf e734 353e
000001c0: 4d24 0d3f cacb a13e fa05 c13d 9628 bb3d
000001d0: 3b4f 893c f784 49bd 7771 8b3d e2ed 55bd
000001e0: ae3a e43d 46ab 043e e53c 333e 6b36 18bc
000001f0: f4a8 e83d 5726 06be b3e8 e73b d411 293e
00000200: 71c6 8bbe 20af 89be 8e92 1c3e 8106 5ebd
00000210: 4b4f aabe 75ba c4bd 88bd babc 0f1b cb3e
00000220: 38df 98bd e819 80be 488f 64bb 0081 2a3d
00000230: 4cd0 7d3f 112a 25be 5984 d8be b005 9cbd
00000240: b3ef 673d dea5 fd3b 363c c5be a5ce 94bf
00000250: 89cb 8a3d d1c2 823d e119 093c 1bcb d3bd
00000260: bbcf 2540 3f85 74be ba7d 94ba 3cdf ce3d
00000270: f699 273e ec53 ef3d 033d 203e 7fcf 2b3e
00000280: abcb 78be 0384 013f 2547 77be f1de 1e3e
00000290: 08c9 ecbe 8e1e 7dbe d27a e6bc cfba f43c
000002a0: 964a cdbd c5a0 903e c3f6 74be 0661 863f
000002b0: 784a d73d 241e bbbc 2df0 723e d885 303e
000002c0: 95c2 033e 0ad4 a03e f628 e2bd b5e8 87bd
000002d0: 1c31 913c 3234 6a3b 8b96 e73d 4100 ddbd
000002e0: 9187 5bbe 723e 69bd 0e46 1b3e 76c1 893e
000002f0: 425c 4dbd d9db 443e bea0 a73d 680f c73d
00000300: a260 73be f497 35bd 8c85 c23e 51d5 943d
00000310: 1592 303c eee5 71be a1b2 67be 9f09 513d
00000320: cbc5 c9bd 6c1c 673e b9f6 94be f1b1 733e
00000330: c458 65bc 1a60 e4bc e00a 1abe 06b2 bcbd
00000340: ab4a abbd db74 adbd cd0d 2fbd 7198 b9be
00000350: 6d36 963d 0bdc 4e3e 712b ddbc fb61 c5bc
00000360: a598 c3bd c609 0bbb 7372 0cbf 687a 5a3f
00000370: 608a f7bd 6e11 393e e9e4 8a3b 34f7 90be
00000380: 005f d53e c51f 80be cfde 9bbd e681 83be
00000390: ac60 cfbd aa26 0a3e 96f2 503d eda6 b3bd
000003a0: a58c 04bf e85c a8bd ea45 a13b 08a3 5bbe
000003b0: ca65 853f abed 1ec0 1471 09bc 88f2 523e
000003c0: 1d47 553d f3bc 133e ac15 f13c 16e0 d63e
000003d0: 1d13 113e 0ecd 24bd 6f80 043c b94a 853e
000003e0: b760 1bbf 081c 5a3e fde2 ac3e 06d8 34be
000003f0: da3d 93be ef6f d33e d940 acbd 5e9a 7d3e

critic.0.bias f4 [64]
3.9966622e-08 -1.2897317 -0.15235975 -0.0016186861 0.07826917 0.042903487 2.9751146e-07 0.19420503
0.30317563 -0.08238434 0.044850517 0.0 -0.60870486 -0.002872588 0.07261108 0.26803598
2.4275646e-09 0.0051976596 0.41503245 0.002092654 0.0032158885 0.052976467 1.1204009e-08 -0.17590648
0.62007093 0.16858067 0.19813244 -0.42004144 -0.25305733 0.110087246 -0.011082835 9.9259275e-08
-1.7265467e-06 -0.30301777 -7.9788157e-07 -3.3761967e-08 -0.4580638 -0.0019218397 -0.008517842 0.73813355
0.0034120919 0.031258896 -0.055893507 0.0016157678 -0.0006001724 -2.4614582e-07 -2.360275e-07 1.0373484e-06
4.2036362e-07 -0.77035594 0.18998972 -0.16049115 -0.6983339 0.0 -0.284065 -1.4491144e-09
-0.021602506 0.099537775 -4.0027064e-07 -0.21994513 -0.3606556 0.07667634 -0.00884373 0.47082418
00000000: c4a7 2b33 ee15 a5bf 3204 1cbe 182a d4ba
00000010: 964b a03d 91bb 2f3d aab9 9f34 afdd 463e
00000020: d639 9b3e 1fb9 a8bd 2db5 373d 0000 0000
00000030: 15d4 1bbf 0842 3cbb 1eb5 943d 033c 893e
00000040: 2bd2 2631 2151 aa3b 227f d43e e824 093b
00000050: a8c1 523b dafd 583d c17b 4032 d420 34be
00000060: f8bc 1e3f 69a0 2c3e 3be3 4a3e ac0f d7be
00000070: bb90 81be 6c75 e13d c794 35bc 5d28 d533
00000080: b1bb e7b5 2525 9bbe 012e 56b5 ad01 11b3
00000090: 5787 eabe 3de6 fbba 6b8e 0bbc 52f6 3c3f
000000a0: 679d 5f3b 5409 003d 97f0 64bd 2cc8 d33a
000000b0: e354 1dba 0626 84b4 bf6e 7db4 053b 8b35
000000c0: 56ae e134 0c36 45bf aa8c 423e cb57 24be
000000d0: 03c6 32bf 0000 0000 f870 91be 2e2a c7b0
000000e0: bdf7 b0bc 76da cb3d c7e4 d6b4 4c39 61be
000000f0: daa7 b8be 7c08 9d3d 4be5 10bc de0f f13e

critic.2.weight f4 [64, 64]
0.12170736 0.20539586 -0.041443344 -0.4142789 0.07417211 -0.08992518 0.17925152 0.21665177
-0.20902535 0.20489916 -0.2959681 0.10924447 0.1471069 0.0130738765 -0.21586595 -0.13706289
0.2292515 0.029655889 -0.1839119 0.11489422 0.1652187 0.3100174 0.2501822 -0.2877638
-0.055593655 -0.0074035646 -0.08892573 -0.36903837 0.1494965 -0.24848159 -0.11437299 0.08232874
-0.12515493 -0.21587473 0.14334099 0.01729479 -0.06768832 -0.12997514 -0.073959626 0.37922847
-0.2343273 0.17630073 -0.11355872 -0.16353631 -0.119396165 -0.08109473 0.33883926 0.1268887
0.052345607 -0.068000905 -0.22101331 0.008459968 0.1582648 -0.31722173 -0.11838575 -0.17704648
-0.072234474 0.052303553 0.022055183 -0.26636022 0.011267068 0.052110888 -0.039275877 -0.13295914
-0.10902534 -0.44139892 -0.14040706 -0.07052204 0.22832048 -0.26571783 -0.06526725 0.4747809
-0.09620327 -0.14893694 -0.040323127 0.15488954 -0.029053383 -0.15126401 -0.00572716 0.12464428
-0.14916779 0.02154726 0.1982983 -0.05136206 -0.4270227 0.20068078 0.17666467 -0.34187385
-0.040574115 -0.3750379 0.15810297 0.06448282 -0.09298835 0.4551984 0.009499124 -0.19564132
0.066120826 -0.0028136629 0.09137253 0.008155953 -0.21796183 -0.1813713 0.18928298 0.38187107
0.2312992 0.02429968 -0.11027434 0.1531779 0.09324619 0.077266805 0.32929358 -0.084286965
-0.0076079275 -0.22004911 0.084345944 0.066917144 -0.4137147 0.1407528 0.019757973 -0.046102017
-0.37223586 0.31452504 0.15873045 0.007174924 0.31836623 0.0048756013 0.11669039 0.19729829
0.046617623 -0.4950503 0.037563775 0.09288881 -0.30018765 -0.039112017 0.10011091 0.2118405
0.26019338 -0.098751225 0.0071529318 0.16401587 -0.07755181 0.1245627 0.091263324 -0.22577174
-0.30240703 -0.11900571 0.19907287 -0.33040857 0.11376014 -0.10321127 0.30891478 0.33599356
0.5187407 0.86029005 -0.08970122 -0.19411203 -0.0004150799 -0.18135773 -0.15916686 0.109791934
-0.1796859 -0.0038910073 -0.0344627 -0.14522286 -0.040042102 0.1222591 0.049118638 0.6801502
0.09722097 0.10298642 -0.01870497 0.04515525 -0.29353845 -0.097253636 0.29947165 -0.077011175
0.33938983 -0.19797301 0.23017244 0.04989783 0.04348268 -0.15248396 0.0054777055 -0.20602395
-0.3761569 0.18176083 -0.010305685 -0.102215275 -0.18156663 0.10808422 0.14456122 -0.06469351
-0.21058592 -0.32181147 0.07390791 -0.21021557 -0.0155617045 0.17351207 -0.07244399 0.12906396
0.10205594 0.122775644 0.1689853 -0.24186787 -0.46971262 -0.4245126 0.19973142 -0.06269657
0.057643246 -0.24344108 -0.023732355 -0.01998126 0.24452893 0.06440401 -0.068640105 -0.07301205
-0.06400704 0.83928645 -0.2705205 -0.011413645 -0.059170924 -0.010921964 -0.39828482 0.07958995
-0.0798928 -0.08004258 -0.13783878 0.121294945 0.14810584 -0.050790608 0.24871443 0.30859894
0.21108404 -0.20238638 -0.055971164 0.2006819 -0.015510323 0.23916185 0.32188407 0.06970359
0.24003863 -0.03760229 -0.26960194 -0.059241965 0.17311954 0.12828091 0.21319905 -0.26758763
0.3502297 0.1326881 0.30545428 -0.110210136 0.036922283 0.053476434 0.04947074 -0.06826743
00000000: b541 f93d 4b53 523e 7fc0 29bd 5d1c d4be
00000010: 8ce7 973d b12a b8bd b68d 373e f6d9 5d3e
00000020: be0a 56be 16d1 513e 2189 97be 91bb df3d
00000030: 31a3 163e d033 563c f70b 5dbe 375a 0cbe
00000040: e8c0 6a3e e8f0 f23c 6753 3cbe a94d eb3d
00000050: 172f 293e 9aba 9e3e e217 803e c755 93be
00000060: 2cb6 63bd 9a99 f2bb b11e b6bd 99f2 bcbe
00000070: 9c15 193e f571 7ebe 633c eabd f89b a83d
00000080: 9d28 00be 440e 5dbe fbc7 123e cead 8d3c
00000090: 2da0 8abd 3418 05be 2578 97bd 3c2a c23e
000000a0: 7ff3 6fbe 2e88 343e 7991 e8bd 1076 27be
000000b0: fa85 f4bd fe14 a6bd 577c ad3e 1def 013e
000000c0: 5968 563d 0f44 8bbd 5051 62be ad9b 0a3c
000000d0: 2b10 223e e36a a2be 3a74 f2bd ac4b 35be
000000e0: abef 93bd 403c 563d 12ad b43c 5e60 88be
000000f0: 8299 383c 3a72 553d bedf 20bd 7126 08be
00000100: ad48 dfbd 0aff e1be dec6 0fbe dc6d 90bd
00000110: d8cc 693e 2b0c 88be d6aa 85bd 7b16 f33e
00000120: 3806 c5bd ed82 18be dd29 25bd 5d9b 1e3e
00000130: 5c01 eebc f4e4 1abe e6aa bbbb 8045 ff3d
00000140: 71bf 18be e183 b03c b60e 4b3e 0661 52bd
00000150: b8a2 dabe 437f 4d3e 95e7 343e 170a afbe
00000160: 0b31 26bd f804 c0be bfe5 213e 920f 843d
00000170: ad70 bebd c40f e93e 37a2 1b3c 3356 48be
00000180: 5b6a 873d 6e65 38bb 8521 bb3d 8ca0 053c
00000190: 6331 5fbe 66b9 39be 66d3 413e 9b84 c33e
000001a0: b3d9 6c3e 1f10 c73c 83d7 e1bd abda 1c3e
000001b0: dcf7 be3d 0f3e 9e3d 2b99 a83e a59e acbd
000001c0: ec4b f9bb 8e54 61be 91bd ac3d db0b 893d
000001d0: 6ad2 d3be 8121 103e 79db a13c 78d5 3cbd
000001e0: b395 bebe 6d09 a13e 3c8a 223e a01b eb3b
000001f0: e600 a33e 82c3 9f3b 5ffb ee3d 9008 4a3e
00000200: 1ff2 3e3d 3c77 fdbe 79dc 193d 7d3c be3d
00000210: 32b2 99be ec33 20bd f306 cd3d b7ec 583e
00000220: 1138 853e 153e cabd 2463 ea3b c7f3 273e
00000230: 7cd3 9ebd bb1a ff3d 44e8 ba3d b530 67be
00000240: 18d5 9abe 44b9 f3bd c2d9 4b3e 502b a9be
00000250: 14fb e83d 6e60 d3bd 142a 9e3e 5907 ac3e
00000260: 31cc 043f f83b 5c3f 46b5 b7bd 4ec5 46be
00000270: 159f d9b9 d7b5 39be a3fc 22be 98da e03d
00000280: 95ff 37be 4500 7fbb c328 0dbd 4db5 14be
00000290: 3003 24bd fb62 fa3d a030 493d 531e 2e3f
000002a0: ca1b c73d 8bea d23d 2a3b 99bc b6f4 383d
000002b0: ac4a 96be ea2c c7bd 5954 993e 09b8 9dbd
000002c0: 81c4 ad3e 70b9 4abe 53b2 6b3e ab61 4c3d
000002d0: e51a 323d c124 1cbe 537e b33b f1f7 52be
000002e0: a397 c0be 831f 3a3e 2dd9 28bc 3e56 d1bd
000002f0: 9aec 39be 425b dd3d db07 143e 087e 84bd
00000300: d6a3 57be 79c4 a4be 085d 973d c042 57be
00000310: 85f6 7ebc 26ad 313e 845d 94bd 5829 043e
00000320: b402 d13d cc71 fb3d 7c0a 2d3e 36ac 77be
00000330: 2c7e f0be b759 d9be 6586 4c3e 0f67 80bd
00000340: 531b 6c3d 9e48 79be 5b6a c2bc bdaf a3bc
00000350: cb65 7a3e 40e6 833d 2f93 8cbd 5787 95bd
00000360: 1f16 83bd 7adb 563f aa81 8abe 4c00 3bbc
00000370: 365d 72bd 0af2 32bc fdeb cbbe 0e00 a33d
00000380: d69e a3bd 5ded a3bd 9c25 0dbe 7c69 f83d
00000390: 0fa9 173e d009 50bd ffae 7e3e ae00 9e3e
000003a0: 6a26 583e 603e 4fbe 0542 65bd 8e7f 4d3e
000003b0: 031f 7ebc d8e6 743e fdcd a43e c1c0 8e3d
000003c0: b0cc 753e dc04 1abd 4409 8abe b4a7 72bd
000003d0: 4046 313e 125c 033e da50 5a3e 3f01 89be
000003e0: 4f51 b33e 64df 073e 8164 9c3e dab5 e1bd
000003f0: d23b 173d 1b0a 5b3d d5a1 4a3d cbcf 8bbd

critic.2.bias f4 [64]
0.0341251 -0.0020442838 0.058360986 0.04083902 -0.011790792 -0.009292907 -0.049496338 -0.078037016
0.057160445 0.00904724 0.11533838 0.06754635 0.066480726 -0.0006690161 0.066053726 -0.069065034
-0.0902458 -0.03727265 -0.02629038 -0.014004615 0.04668479 -0.017429316 -0.020688284 -0.01892444
0.014543965 -0.038113795 0.020294381 0.079530306 0.049913943 0.012232495 0.010113107 0.011103198
-0.10558613 -0.026844816 -0.07655761 -0.024693675 -0.019721666 -0.081268266 -0.0758188 -0.033201747
0.034169134 -0.049930084 0.060170505 0.10124611 0.093235925 -0.0015268107 -0.035040703 -0.016293745
-0.054920517 0.012248755 0.06615156 0.06095265 -0.018454487 -0.07084615 0.080538906 0.03707544
-0.08270684 0.05131744 -0.010032376 0.04675521 0.04277951 -0.07023582 -0.089176476 0.037972376
00000000: c3c6 0b3d 64f9 05bb ee0b 6f3d d146 273d
00000010: 2b2e 41bc 4741 18bc acbc 4abd dfd1 9fbd
00000020: 1221 6a3d e03a 143c 8736 ec3d be55 8a3d
00000030: 0c27 883d e960 2fba 2d47 873d f871 8dbd
00000040: cad2 b8bd 35ab 18bd ec5e d7bc 9d73 65bc
00000050: 8d38 3f3d edc7 8ebc 7a7a a9bc 6d07 9bbc
00000060: d049 6e3c 361d 1cbd 6740 a63c c9e0 a23d
00000070: 9072 4c3d cd6a 483c 72b1 253c 30ea 353c
00000080: 8a3d d8bd a9e9 dbbc 3cca 9cbd 644a cabc
00000090: 558f a1bc fa6f a6bd e346 9bbd 8efe 07bd
000000a0: eff4 0b3d 7d83 4cbd 5975 763d 1f5a cf3d
000000b0: 7af2 be3d 441f c8ba d786 0fbd 767a 85bc
000000c0: 56f4 60bd 01af 483c 787a 873d 7ca9 793d
000000d0: dd2d 97bc c917 91bd 95f1 a43d 6bdc 173d
000000e0: 3462 a9bd 3c32 523d d65e 24bc 6482 3f3d
000000f0: 9139 2f3d ccd7 8fbd 28a2 b6bd ec88 1b3d

critic.4.weight f4 [1, 64]
-0.012782402 -0.016230274 0.09819569 0.07863364 0.06584846 0.017730054 0.023544079 0.10666679
-0.06448947 -0.08727426 -0.21597236 0.23025276 -0.15838628 -0.051777232 -0.13555287 0.07837489
0.17824368 0.03918465 -0.024880718 0.00885845 -0.032839447 0.07405606 0.019314855 -0.014963997
0.15299295 0.0019255648 -0.05535378 0.1333199 -0.07688095 -0.034899596 -0.10571811 0.03063651
0.12828852 -0.17392495 0.17400075 0.08127816 0.036197867 0.021652326 0.07638483 0.02347347
-0.13100006 0.11035072 -0.045089614 -0.07615884 -0.24758339 0.015295281 0.023583276 -0.17936674
0.025392957 -0.017821394 -0.03347569 -0.019995863 0.004256732 0.09244231 -0.026110087 0.09177374
-0.1072332 -0.089325555 -0.062428903 -0.15613116 -0.022912342 -0.124109104 0.07051863 -0.10866721
00000000: 486d 51bc 5af5 84bc d21a c93d ad0a a13d
00000010: 8fdb 863d 9e3e 913c 83df c03c 1e74 da3d
00000020: 0e13 84bd d9bc b2bd dc27 5dbe 61c7 6b3e
00000030: 0330 22be 5d14 54bd 5fce 0abe 0483 a03d
00000040: 8385 363e 1580 203d a6d2 cbbc 0823 113c
00000050: a882 06bd b4aa 973d 303a 9e3c 8d2b 75bc
00000060: 2faa 1c3e 3c63 fc3a a5ba 62bd 0385 083e
00000070: c273 9dbd e1f2 0ebd bd82 d8bd 6bf9 fa3c
00000080: 115e 033e 6219 32be 412d 323e 2a75 a63d
00000090: 3744 143d 3860 b13c a66f 9c3d 6f4b c03c
000000a0: e124 06be 8fff e13d e3af 38bd 2af9 9bbd
000000b0: 8086 7dbe 0f99 7a3c b731 c13c eaab 37be
000000c0: e404 d03c 2cfe 91bc ce1d 09bd 5dce a3bc
000000d0: 0e7c 8b3b 6552 bd3d d2e4 d5bc dff3 bb3d
000000e0: 149d dbbd 51f0 b6bd 73b5 7fbd d9e0 1fbe
000000f0: aab2 bbbc ea2c febd 126c 903d ea8c debd

actor.0.weight f4 [64, 6]
-0.33644563 0.090613395 0.2099487 -0.27805582 -0.57635236 -0.05247699 -0.033550233 -0.17811774
0.08153209 -0.36412132 -0.048506577 0.078967504 0.20020753 0.21649551 0.043509696 -0.32928222
-0.08697942 0.00072210183 0.09845955 0.07059203 -0.1723339 0.025398498 0.19271019 -0.1627409
0.2522782 0.100381754 -0.11901093 -0.06759441 -0.0019339295 0.069971 -0.015992127 0.061847486
-1.1880835 0.4244558 -0.27325118 -0.06610211 0.12699015 0.18460105 -0.23229142 0.18848273
0.35872972 -0.25686526 -0.071022175 -0.13475704 -0.10115612 0.291948 -0.010326564 0.07949576
0.0029275715 0.10952745 -0.6846451 0.30915442 0.3687745 -0.029747766 -0.017545652 0.0859885
1.2074125 -0.3649791 -0.43794665 -0.21058072 0.009859703 -0.12350271 -0.18187325 0.12746267
-0.23609868 -0.30967885 -0.116785474 -1.0740318e-05 0.03358573 -0.098625444 0.04274295 -0.18262309
0.29959324 0.083857335 0.0685086 -0.09039595 0.009244729 0.032505617 0.0012376932 0.2749441
0.21359476 -0.09248557 0.02621933 0.14358003 0.0022836565 0.0261447 -1.2684972 -0.061412208
0.5440059 0.0757727 -0.26522985 -0.41390198 -0.21608566 -0.31608492 0.0317898 0.25695625
-0.3823857 -0.086921796 -1.5511427 0.4549796 0.25856107 -0.012565275 -0.2883933 -0.14877954
0.10160009 0.043482535 -0.3614894 -0.087825656 0.109766714 0.105958894 -0.526812 0.87328625
0.104759715 -0.10743353 -0.15894052 0.27011907 -0.3812 0.14709789 -0.43718287 -0.17828858
0.055493303 -0.2560683 -1.502638 0.1479801 -0.18612331 -0.11069376 -0.19978027 -0.11800775
0.0025824315 0.10432985 0.012535818 -0.4886325 0.3577194 0.072779454 -0.556948 0.9889597
0.123160794 -0.07683998 -0.06816658 -0.16144167 -0.045821514 -0.14623904 -0.1755072 0.116354235
-0.17845298 0.027276346 0.7425579 -0.5992828 -0.39919764 -0.016433287 -0.12943272 0.07426844
0.20593174 -0.15274365 -0.2210253 -0.066175275 0.52132493 -0.090734325 -0.65150106 0.30333683
-0.0018661744 0.13674553 0.115011066 -0.097132914 -1.657265 1.4077249 0.42020783 0.073052526
-0.04810924 0.04445811 -0.13047288 -0.005234445 0.015311715 -0.2548782 -0.030880712 -0.38162416
-2.4516065 0.12718715 -0.019563375 0.36288565 0.063188955 0.25994882 -0.27894872 -0.24685386
0.19731688 -0.2649349 -0.0005576597 0.07198244 -0.6512084 0.6525006 0.55544114 0.023890896
0.06313888 0.14488629 -0.12472046 0.114493296 -0.0008533097 0.21965861 0.01047682 0.06541891
-0.1351977 -0.10660934 0.27447432 0.19032188 0.10265998 0.17926951 0.25641155 -0.526312
-0.050447978 0.40939128 0.2773082 0.10556279 -0.05433641 0.4986624 -0.07749741 0.029394656
-0.22372386 0.008962524 0.01492934 -0.028390067 0.08331779 -0.07108551 0.31454164 0.29460117
-0.2319795 -0.15808938 -0.120830014 0.19414215 0.17428866 0.3093062 0.1478634 0.074546665
0.07394641 0.35724235 -0.40831718 0.09354984 0.48391786 0.31965196 -0.005382486 -0.12173949
-0.002383468 -0.19649735 0.15602846 -0.078707024 -0.15691453 0.18354616 0.17904592 0.044644695
-0.17520867 0.47672546 0.382675 -0.04845428 0.0016792113 -0.13195883 1.0304037 -0.7038412
00000000: 9a42 acbe 8493 b93d cbfc 563e 555d 8ebe
00000010: d48b 13bf 1df2 56bd f86b 09bd 7f64 36be
00000020: 4cfa a63d 1c6e babe d5ae 46bd b7b9 a13d
00000030: 3403 4d3e 00b1 5d3e 3937 323d ae97 a8be
00000040: 4422 b2bd 6f4b 3d3a 29a5 c93d 8e92 903d
00000050: 4c78 30be 8310 d03c d255 453e 8da5 26be
00000060: 9c2a 813e f394 cd3d 01bc f3bd f06e 8abd
00000070: e87b fdba f54c 8f3d ec01 83bc ca53 7d3d
00000080: 1f13 98bf 4552 d93e 94e7 8bbe 8b60 87bd
00000090: b509 023e 0f08 3d3e cddd 6dbe 9e01 413e
000000a0: 6cab b73e d883 83be 1374 91bd c0fd 09be
000000b0: f12a cfbd 357a 953e c030 29bc acce a23d
000000c0: 80dc 3f3b ed4f e03d e744 2fbf 7d49 9e3e
000000d0: 03d0 bc3e 96b1 f3bc e6bb 8fbc bd1a b03d
000000e0: 7e8c 9a3f 8ade babe 8b3a e0be 79a2 57be
000000f0: 978a 213c fdee fcbd fb3c 3abe 9385 023e
00000100: dac3 71be 3a8e 9ebe 392d efbd 5131 34b7
00000110: 3191 093d 23fc c9bd 3b13 2f3d 8c01 3bbe
00000120: 4964 993e 65bd ab3d 3d4e 8c3d 8321 b9bd
00000130: 3477 173c 9c24 053d 183a a23a 79c5 8c3e
00000140: 96b8 5a3e 1369 bdbd ecc9 d63c a506 133e
00000150: 66a9 153b 692d d63c 1e5e a2bf 5e8b 7bbd
00000160: f843 0b3f b82e 9b3d 35cc 87be f6ea d3be
00000170: 8f45 5dbe e2d5 a1be 0536 023d c58f 833e
00000180: 0fc8 c3be 0e04 b2bd d88b c6bf 16f3 e83e
00000190: 1e62 843e 95de 4dbc 49a8 93be aa59 18be
000001a0: b513 d03d be1a 323d 2315 b9be f0dd b3bd
000001b0: 5fcd e03d fa00 d93d 27dd 06bf b08f 5f3f
000001c0: 438c d63d 1c06 dcbd 4ec1 22be 0c4d 8a3e
000001d0: a52c c3be d4a0 163e 6fd6 dfbe 4891 36be
000001e0: f24c 633d 621b 83be 7156 c0bf 1888 173e
000001f0: 1c97 3ebe 69b3 e2bd 3393 4cbe 0cae f1bd
00000200: 033e 293b e3aa d53d 0863 4d3c 0a2e fabe
00000210: ff26 b73e 650d 953d 2594 0ebf 772c 7d3f
00000220: ba3b fc3d 485e 9dbd eb9a 8bbd f750 25be
00000230: 57af 3bbd b0bf 15be 29b8 33be 214b ee3d
00000240: 61bc 36be a572 df3c 4618 3e3f 996a 19bf
00000250: a263 ccbe 1a9f 86bc 038a 04be 0d1a 983d
00000260: c5df 523e d568 1cbe 7554 62be e786 87bd
00000270: 8d75 053f ebd2 b9bd c6c8 26bf f74e 9b3e
00000280: 6c9a f4ba 0507 0c3e ec8a eb3d 9fed c6bd
00000290: 4221 d4bf 5430 b43f 7b25 d73e 909c 953d
000002a0: 320e 45bd b519 363d af9a 05be b585 abbb
000002b0: fddd 7a3c 657f 82be 8cf9 fcbc 3e64 c3be
000002c0: 1fe7 1cc0 593d 023e 5f43 a0bc 26cc b93e
000002d0: 3669 813d 0318 853e 5ed2 8ebe 42c7 7cbe
000002e0: 700d 4a3e 8ca5 87be e92f 12ba 886b 933d
000002f0: 98b5 26bf 480a 273f 6431 0e3f d7b6 c33c
00000300: f54e 813d 125d 143e 716d ffbd 767b ea3d
00000310: a5b0 5fba 30ee 603e f8a6 2b3c 59fa 853d
00000320: 4471 0abe ff55 dabd e687 8c3e bde3 423e
00000330: 653f d23d 6d92 373e 6048 833e 62bc 06bf
00000340: 8aa2 4ebd bc9b d13e 57fb 8d3e 4e31 d83d
00000350: db8f 5ebd ae50 ff3e f6b6 9ebd 10cd f03c
00000360: de17 65be 8dd7 123c 319a 743c 4992 e8bc
00000370: 84a2 aa3d 4895 91bd 9a0b a13e f7d5 963e
00000380: 098c 6dbe 2fe2 21be ba75 f7bd 33cd 463e
00000390: ba78 323e 625d 9e3e 8169 173e ecab 983d
000003a0: 3771 973d 78e8 b63e f30e d1be 0f97 bf3d
000003b0: 15c4 f73e 6ca9 a33e 915f b0bb 8e52 f9bd
000003c0: f533 1cbb 9a36 49be edc5 1f3e 2631 a1bd
000003d0: 34ae 20be 86f3 3b3e d057 373e 5bdd 363d
000003e0: e769 33be 5c15 f43e faed c33e ff77 46bd
000003f0: fb18 dc3a 3720 07be 45e4 833f f02e 34bf

actor.0.bias f4 [64]
-0.06424881 -0.022601243 0.0264903 0.104685366 -3.1532916e-06 -0.33577535 -0.05595823 -0.03983599
0.07110039 -0.3317002 -3.1018837e-05 0.03938879 -3.4000532e-06 -0.044115517 0.31558242 0.4522154
0.6462914 0.0 -0.4283846 -0.2769826 0.3900901 1.6490362e-09 1.1154246 0.008145254
0.017470125 -0.011443092 0.3140305 0.0006629127 -0.000398335 2.9755852 0.12537874 0.26814216
-3.1994878e-06 -2.556901e-06 -0.10891246 -0.05901561 -0.17045048 0.0003047935 -3.724546e-06 -0.14365685
-0.024822392 0.24420479 -0.31917933 0.18508668 -4.89218e-06 1.3686395 -0.05127696 -0.1636829
0.2676169 -0.0012120925 -0.82749003 -0.16194946 0.7265264 -0.06347888 0.059656553 -0.3654479
-0.070587024 -0.47277883 1.4232502e-05 0.01255938 -4.091295e-06 -1.325838 -2.6944124e-06 -2.8752654e-06
00000000: e194 83bd 3e26 b9bc 3002 d93c 4865 d63d
00000010: 239d 53b6 bfea abbe 7534 65bd 102b 23bd
00000020: 159d 913d 9cd4 a9be 391a 02b8 2456 213d
00000030: 782c 64b6 79b2 34bd 0594 a13e c788 e73e
00000040: 5a73 253f 0000 0000 3a55 dbbe aad0 8dbe
00000050: e4b9 c73e 4ea4 e230 3cc6 8e3f ac73 053c
00000060: 821d 8f3c ce7b 3bbc 9bc8 a03e 51c7 2d3a
00000070: 9ed7 d0b9 fd6f 3e40 4963 003e ee49 893e
00000080: c8b6 56b6 3a97 2bb6 7f0d dfbd 5aba 71bd
00000090: 928a 2ebe b1cc 9f39 37f3 79b6 c81a 13be
000000a0: 5458 cbbc d210 7a3e 796b a3be 5d87 3d3e
000000b0: 8227 a4b6 942f af3f ca07 52bd 7d9c 27be
000000c0: 1505 893e 13df 9eba 63d6 53bf 14d6 25be
000000d0: a2fd 393f 3701 82bd 6e5a 743d fd1b bbbe
000000e0: ee8f 90bd 1110 f2be 21c8 6e37 dcc5 4d3c
000000f0: f547 89b6 0fb5 a9bf a7d1 34b6 aff4 40b6

actor.2.weight f4 [64, 64]
0.012154411 -0.066002406 -0.13443677 -0.04197392 -0.07714167 0.13082083 0.16848592 -0.1665008
-0.05201712 0.02776454 0.22118631 0.10179469 -0.076662615 0.069090225 -0.2197331 -0.023090737
-0.079549395 0.3538563 -0.1077701 -0.10943764 -0.26020852 -0.06250759 0.09119745 -0.046334106
-0.23668908 -0.45075133 -0.21516302 0.22624461 0.15740098 -0.30324504 -0.14252765 0.2998849
0.1974693 -0.017507646 0.52199453 0.23807448 0.250172 -0.24424559 0.0125416005 0.1180857
0.46598044 -0.038989715 -0.06706902 -0.016876433 -0.1032535 0.08817277 -0.056411132 0.12158255
-0.06378793 -0.11156677 -0.05880613 0.105473004 -0.21465787 0.22024111 0.20643778 0.13784614
0.09658052 0.22026473 -0.0071460553 0.4356423 -0.01260004 0.22060555 0.057891145 -0.17547774
0.1813623 0.097342834 0.02242033 -0.008125409 -0.06640911 0.11136859 0.22217801 0.053701162
-0.056038298 -0.27913973 -0.32731885 0.18742064 0.18546207 -0.15488745 0.116673365 -0.08465926
-0.17558813 0.13448855 -0.1720065 0.2074431 0.036355875 -0.001954159 -0.020979092 -0.15226874
-0.2285438 -0.004318081 -0.0040217494 0.38338774 0.09123307 -0.869091 0.03242632 0.59172285
-0.45025992 0.2963813 0.085233934 0.065757684 0.09405067 -0.25689504 -0.046522465 0.11024822
-0.13565613 0.13638896 -0.21925628 0.09867157 0.07721053 -0.5904111 -0.048403535 -0.08246622
0.11959531 0.06373644 0.24122211 0.34208935 0.10951034 0.19078723 0.031694446 -0.44161475
0.17854525 -0.37331018 -0.20770591 0.20876612 -0.14204352 -0.07134258 -0.29367584 -0.18406121
0.20160757 0.318044 0.002978663 0.00022190287 0.1593236 -0.27508873 -0.21232225 0.23804145
-0.37403637 -0.13787685 0.26899302 -0.1985477 -0.08318236 -0.005480739 0.31254122 -0.10958452
0.07465385 -0.008444788 -0.19928972 -0.27350938 -0.35296163 -0.2108353 0.13981873 -0.23881909
0.19715928 0.07970996 0.10312073 -0.5065812 -0.3348271 -0.1283057 -0.061452374 0.17893264
-0.12928948 0.2703456 0.311604 -0.23791027 -0.17533997 0.14727287 0.04022021 0.11142469
0.33641753 0.1855981 0.1506025 -0.0009793313 0.030103656 -0.015967282 -0.18858957 -0.07780455
0.06748647 -0.19804792 0.008456283 -0.104081824 0.45411384 -0.22450103 -0.038933538 0.0060303044
-0.021218505 0.07548751 0.34055874 -0.063087545 -0.25699207 0.10286333 -0.0073926765 0.20721
0.15498987 0.16520354 -0.24844122 -0.18003094 0.1713001 0.14236227 0.02494403 -0.12448394
0.36140373 0.013913513 -0.39858392 -0.40475157 0.28249267 0.22237983 -0.13282944 -0.03138464
-0.23090604 -0.090135604 0.2898509 -0.21312729 -0.1588858 -0.52361196 0.08298183 -0.117808655
0.17195295 0.01898845 0.123039044 -0.3663542 -0.14928226 -0.053853624 0.010326945 0.064313345
0.21096091 0.012187136 0.2157889 0.100281246 -0.23373957 0.14726101 0.19416852 -0.01627168
-0.110004775 0.07125161 0.14009358 -0.17679615 0.14678721 0.26782113 -0.047700744 -0.048369262
-0.029363919 -0.36177123 -0.1774038 -0.21652022 0.108523265 -0.15073948 0.26730874 0.040619772
-0.30988628 0.11121456 -0.029109187 0.17862137 -0.02701635 -0.503932 0.08974059 -0.08412416
00000000: 4b23 473c 452c 87bd cba9 09be d8ec 2bbd
00000010: 74fc 9dbd e5f5 053e 9387 2c3e 307f 2abe
00000020: e70f 55bd 7672 e33c aa7e 623e bc79 d03d
00000030: 4a01 9dbd 2d7f 8d3d b701 61be c928 bdbc
00000040: cbea a2bd a72c b53e 92b6 dcbd d720 e0bd
00000050: 0d3a 85be fb03 80bd bbc5 ba3d d5c8 3dbd
00000060: 9f5e 72be e1c8 e6be b253 5cbe abac 673e
00000070: b92d 213e ef42 9bbe c5f2 11be 838a 993e
00000080: 6435 4a3e 326c 8fbc 6fa1 053f ccc9 733e
00000090: 8b16 803e 841b 7abe 497b 4d3c ead6 f13d
000000a0: fd94 ee3e aeb3 1fbd 7b5b 89bd 7240 8abc
000000b0: 9276 d3bd ed93 b43d 5c0f 67bd 4600 f93d
000000c0: 3fa3 82bd 1e7d e4bd b2de 70bd 3b02 d83d
000000d0: 46cf 5bbe e386 613e 6d64 533e 8a27 0d3e
000000e0: 02cc c53d 148d 613e 7529 eabb 820c df3e
000000f0: 6670 4ebc 6ce6 613e 441f 6d3d 70b0 33be
00000100: 0ab7 393e ae5b c73d d7aa b73c 6f20 05bc
00000110: 8001 88bd 3715 e43d a282 633e c0f5 5b3d
00000120: 6a88 65bd 67eb 8ebe 5696 a7be 32eb 3f3e
00000130: c5e9 3d3e d19a 1ebe 72f2 ee3d d661 adbd
00000140: 60cd 33be 5eb7 093e 7922 30be f76b 543e
00000150: e6e9 143d 5911 00bb 58dc abbc 56ec 1bbe
00000160: 6307 6abe b07e 8dbb e1c8 83bb 664b c43e
00000170: 67d8 ba3d bf7c 5ebf 76d1 043d 267b 173f
00000180: 7888 e6be 4abf 973e 218f ae3d f7ab 863d
00000190: a39d c03d bf87 83be 578e 3ebd d2c9 e13d
000001a0: 71e9 0abe 8ca9 0b3e b884 60be 5214 ca3d
000001b0: 8e20 9e3d 2f25 17bf c942 46bd 0de4 a8bd
000001c0: 63ee f43d 4088 823d ee02 773e 5626 af3e
000001d0: f546 e03d ba5d 433e 09d2 013d 541b e2be
000001e0: 91d4 363e 8322 bfbe dcb0 54be c9c6 553e
000001f0: db73 11be 0f1c 92bd ae5c 96be 8b7a 3cbe
00000200: 3772 4e3e aad6 a23e ac35 433b 99ae 6839
00000210: ba25 233e 6ed8 8cbe 016b 59be 23c1 733e
00000220: b281 bfbe 972f 0dbe 74b9 893e 1750 4bbe
00000230: 835b aabd c597 b3bb 6705 a03e d96d e0bd
00000240: 1ee4 983d 025c 0abc 9b12 4cbe 6c09 8cbe
00000250: 63b7 b4be 35e5 57be a42c 0f3e fe8c 74be
00000260: 1fe4 493e fa3e a33d f630 d33d 4eaf 01bf
00000270: 756e abbe 9262 03be 7cb5 7bbd 1e3a 373e
00000280: 7664 04be bd6a 8a3e 8f8a 9f3e c09e 73be
00000290: 528c 33be b3ce 163e f2bd 243d a132 e43d
000002a0: eb3e ac3e 6e0d 3e3e 8b37 1a3e e85c 80ba
000002b0: f19b f63c d1cd 82bc a01d 41be fe57 9fbd
000002c0: 5936 8a3d 13cd 4abe 398c 0a3c da28 d5bd
000002d0: 9c81 e83e 99e3 65be c678 1fbd dc99 c53b
000002e0: 6ed2 adbc 3299 9a3d b75d ae3e 0b34 81bd
000002f0: 7794 83be 02aa d23d 443e f2bb dc2e 543e
00000300: aab5 1e3e 1e2b 293e 6067 7ebe 085a 38be
00000310: 4b69 2f3e 6ac7 113e 6c57 cc3c 70f1 febd
00000320: e909 b93e 81f5 633c 3113 ccbe 993b cfbe
00000330: e1a2 903e 8ab7 633e 7104 08be 2e8d 00bd
00000340: a272 6cbe 0499 b8bd 5667 943e 0a3e 5abe
00000350: f6b2 22be 6f0b 06bf 61f2 a93d aa45 f1bd
00000360: 6f14 303e aa8d 9b3c e5fb fb3d c792 bbbe
00000370: 73dd 18be 9e95 5cbd 5932 293c b7b6 833d
00000380: 2306 583e 8eac 473c c4f7 5c3e 4160 cd3d
00000390: 6d59 6fbe 97cb 163e 1dd4 463e 304c 85bc
000003a0: 2f4a e1bd 5dec 913d b174 0f3e 0d0a 35be
000003b0: 634f 163e da1f 893e db61 43bd d91e 46bd
000003c0: 9a8c f0bc 143a b9be 57a9 35be 7ab7 5dbe
000003d0: 7241 de3d 735b 1abe b1dc 883e eb60 263d
000003e0: 6aa9 9ebe 76c4 e33d 6476 eebc 85e8 363e
000003f0: 6451 ddbc b001 01bf eac9 b73d 4a49 acbd

actor.2.bias f4 [64]
-0.05258639 0.004767879 -0.010349763 0.15426932 -0.055426918 0.008845378 0.045561623 -0.06840575
0.016836647 0.01651101 0.05194039 0.11139548 0.018238857 0.010162361 0.09419846 -0.046569206
0.016642261 -0.005465756 -0.024169834 0.022109358 -0.04628737 -0.019804616 -0.058430005 -0.03961307
-0.069752485 0.14974234 0.009293736 0.051236283 0.00045098612 -0.08757886 0.026497794 -0.034321636
-0.14609495 -0.055266496 0.026503362 0.08572078 0.092043914 -0.046773937 0.073281094 -0.0068760514
-0.015489392 -0.07251615 0.02278293 -0.03200601 -0.066443734 -0.08548158 -0.012525159 -0.05178119
0.11276945 0.07587585 0.032770425 -0.010526069 -0.007131542 0.11630207 -0.0835018 -0.03258094
0.06740704 -0.0068632835 0.033282675 -0.016970674 -0.02000506 0.0136782285 -0.055547602 -0.080294
00000000: d464 57bd de3b 9c3b 0d92 29bc c7f8 1d3e
00000010: 5607 63bd 34ec 103c d39e 3a3d 5018 8cbd
00000020: 02ed 893c 1942 873c 72bf 543d 5023 e43d
00000030: a869 953c 0880 263c 1feb c03d 5abf 3ebd
00000040: 5a55 883c 161a b3bb d1ff c5bc af1e b53c
00000050: d397 3dbd 4a3d a2bc 4d54 6fbd 5141 22bd
00000060: 64da 8ebd 0e56 193e c144 183c 23dd 513d
00000070: 5572 ec39 8c5c b3bd e711 d93c d894 0cbd
00000080: ea99 15be 1f5f 62bd 941d d93c 608e af3d
00000090: 8581 bc3d 0796 3fbd 6614 963d 8050 e1bb
000000a0: 38c7 7dbc 5983 94bd 44a3 ba3c bc18 03bd
000000b0: a713 88bd f710 afbd 5336 4dbc 8318 54bd
000000c0: abf3 e63d cc64 9b3d 483a 063d 8975 2cbc
000000d0: b6af e9bb c82f ee3d fe02 abbd 9773 05bd
000000e0: b40c 8a3d 65e5 e0bb 6a53 083d 1506 8bbc
000000f0: a7e1 a3bc a61a 603c e285 63bd 2e71 a4bd

actor.4.weight f4 [2, 64]
-0.048601553 -0.0013773201 -0.032568503 0.12097112 -0.19023144 -0.014686812 0.023861246 0.012860566
0.20279846 -0.10947843 0.14631458 0.096475735 -0.06413586 -0.12364629 0.11560742 -0.11581784
0.03092295 -0.12922312 -0.12094564 -0.14226466 0.04030708 0.15604676 -0.123326086 0.005144164
0.090483785 0.096718825 -0.0008323561 0.0018275171 -0.0065822275 0.003170895 0.2643501 -0.021416446
-0.12684943 -0.2817637 -0.052274372 -0.0033555643 0.1242048 0.17337483 0.06005952 -0.0032173349
-0.08004582 -0.06272118 -0.007901354 0.34610027 -0.0944518 -0.098462634 0.0070012873 0.0043792785
0.06711319 0.044107143 -0.24023798 -0.015675245 -0.0244078 0.23677422 -0.08640019 -0.16650787
0.18768021 -0.0017543675 -0.042700883 -0.0018229248 0.009208406 -0.07654811 -0.11451247 -0.12393203
0.047352195 0.00032698712 0.03016522 -0.12038202 0.19092807 0.016614087 -0.025817476 -0.014929183
-0.20215231 0.11341249 -0.14896137 -0.09612458 0.06230982 0.12542132 -0.11486193 0.11971328
-0.030777713 0.13077882 0.120661356 0.14141673 -0.0389819 -0.15762372 0.12553757 -0.0075488645
-0.09008328 -0.09726309 0.00074526557 0.00029345334 0.0046475204 -0.003659787 -0.2641705 0.023429452
0.12680334 0.28104737 0.05148105 -0.00066581863 -0.123078294 -0.17282118 -0.061403573 0.004378831
0.080572076 0.06566601 0.008468716 -0.34982866 0.09555143 0.09600062 -0.007985031 -0.004079667
-0.06611817 -0.04308737 0.24062757 0.015150605 0.022625549 -0.23512445 0.08650671 0.16517527
-0.18692876 0.0040048202 0.044906247 0.0026951805 -0.0142961815 0.07665427 0.11335398 0.12447658
00000000: 6c12 47bd 3287 b4ba 8d66 05bd b5bf f73d
00000010: 08cc 42be f4a0 70bc a978 c33c 20b5 523c
00000020: 66aa 4f3e 3a36 e0bd 7dd3 153e 1295 c53d
00000030: a959 83bd 443a fdbd 95c3 ec3d e731 edbd
00000040: 2052 fd3c 1153 04be 59b2 f7bd d4ad 11be
00000050: 0919 253d b9ca 1f3e 6392 fcbd 6090 a83b
00000060: 904f b93d 8514 c63d 7932 5aba 4c89 ef3a
00000070: baaf d7bb cace 4f3b e558 873e 8b71 afbc
00000080: d1e4 01be 5543 90be a71d 56bd 07e9 5bbb
00000090: 165f fe3d 2c89 313e f900 763d ecd9 52bb
000000a0: 10ef a3bd f673 80bd ae74 01bc 0e34 b13e
000000b0: f26f c1bd c7a6 c9bd 0e6b e53b 0d80 8f3b
000000c0: a472 893d b1a9 343d f200 76be 5f69 80bc
000000d0: def2 c7bc f174 723e 95f2 b0bd 0a81 2abe
000000e0: 3e2f 403e cef2 e5ba 1fe7 2ebd 35ef eeba
000000f0: dbde 163c 41c5 9cbd 8485 eabd 13d0 fdbd
00000100: 60f4 413d 786f ab39 0d1d f73c d98a f6bd
00000110: a682 433e 441a 883c 2c7f d3bc 8899 74bc
00000120: 0401 4fbe cf44 e83d 5489 18be f7dc c4bd
00000130: 9538 7f3d 726e 003e bb3c ebbd 3c2c f53d
00000140: 8b21 fcbc e2ea 053e 4d1d f73d 8ccf 103e
00000150: 7cab 1fbd 1d68 21be ec8c 003e 775c f7bb
00000160: 957d b8bd df31 c7bd ed5d 433a a4da 9939
00000170: 3a4a 983b 09d9 6fbb 5b41 87be 1fef bf3c
00000180: bcd8 013e 71e5 8f3e cbdd 523d 558a 2eba
00000190: 7910 fcbd 09f8 30be 5082 7bbd 4c7c 8f3b
000001a0: f902 a53d e77b 863d 5fc0 0a3c be1c b3be
000001b0: 78b0 c33d f99b c43d a6d3 02bc baae 85bb
000001c0: f768 87bd 627c 30bd 1367 763e 3e3a 783c
000001d0: 3759 b93c 77c4 70be 6e2a b13d b523 293e
000001e0: 416a 3fbe de3a 833b 9def 373d a0a1 303b
000001f0: 883a 6abc eafc 9c3d 2226 e83d 94ed fe3d

actor.4.bias f4 [2]
0.13097784 -0.13097721
00000000: 0e1f 063e e41e 06be
