python/pong/policies/new2.pt (torch, 40841 bytes, 11 tensors)

critic.0.weight f4 [64, 6]
-0.25718495 0.038553357 -0.15254478 0.041217696 -0.08378711 -0.18868138 -0.02139718 0.15803708
0.49356008 0.23882441 -0.040007483 -0.00821222 0.000512569 -0.1546746 -0.32414287 0.045245104
0.18732682 -0.09884103 0.010618203 0.0018019371 0.027243309 0.18683949 -0.21817322 -0.1934835
-0.19068894 0.039949697 0.0727689 -0.08227635 0.48753256 0.20116661 0.2532901 -0.20469292
0.38743514 0.057109922 -0.09449138 -0.11891776 -0.09442592 -0.11637227 -0.2666617 -0.13367346
-0.10236453 0.029914055 -0.10169368 -0.2002164 -0.04342677 0.028255656 0.05198816 -0.017861366
0.17780319 -0.04388248 0.13437101 -0.19778194 -0.103679515 -0.07225597 -0.21574087 0.28951183
-0.2592977 -0.29575154 0.16467838 0.055522453 0.13194078 0.118096426 -0.1799178 0.09852446
-0.1968736 0.13758372 -0.11342626 0.008573024 0.28408873 0.03673623 -0.13414198 -0.20661497
0.08066892 0.01948991 0.19782916 0.16092697 -0.23672864 0.171408 -0.36210307 -0.1683353
0.31394833 -0.16098288 0.0882835 -0.032795 0.087630354 -0.39418906 -0.2621999 -0.15564094
0.032846153 0.07842483 0.13899249 -0.11924013 0.18752365 -0.18711679 0.13512006 -0.2022911
-0.32292098 -0.07220157 -0.19348688 0.23013882 -0.111774094 -0.14023995 -0.013344396 0.27574968
0.3171773 -0.20960575 0.20563284 0.18556462 -0.3618795 -0.0681648 -0.31173775 0.05340636
0.27206564 0.3960887 0.045544017 0.041884482 0.082541265 -0.2837849 0.00891998 -0.111639366
0.08221085 0.083697274 0.29517123 -0.09261396 0.06294989 -0.1744348 -0.01049107 0.100805774
-0.6705522 -0.37823865 0.012847699 -0.11247337 -0.3326362 -0.096058875 -0.022795444 0.39669082
-0.07464503 -0.25019765 0.13394569 -0.00728043 0.17789415 -0.17093086 -0.16061571 -0.12032936
0.017628226 0.023725992 0.28781524 -0.021408482 -0.15673035 0.06705343 0.012356475 -0.17957744
0.054353025 -0.60605353 0.03451173 0.07854886 0.147241 0.059955187 0.40182856 0.12993015
-0.2944702 0.44533265 -0.15965734 0.12879357 -0.4732867 -0.33428738 0.15043457 0.00018940364
-0.19762214 0.20174988 0.11339059 0.13336024 0.0627542 -0.09250815 0.13399574 0.2192638
-0.12003557 0.056290142 -0.10092447 -0.020555995 0.008259795 0.0028339191 0.10552632 -0.11198608
-0.21281551 -0.0568235 0.15141204 0.26943472 -0.050135665 0.1922441 0.08166046 0.097594984
-0.24423204 -0.051338136 0.38441396 0.07459607 0.0040372163 -0.24295877 -0.17960131 0.13655454
0.17658383 0.113275304 -0.20601365 0.32389572 -0.012985093 -0.027709512 -0.15045667 -0.092128746
-0.083308525 -0.084519796 -0.042737216 -0.36249116 0.073346 0.20201127 -0.026997952 -0.024094475
-0.12890615 -0.004067792 -0.33260542 0.09678287 -0.03698168 0.18741547 0.003483805 -0.27597967
0.40754545 -0.23277928 -0.023526195 -0.25312042 -0.030164987 0.21721636 0.12199523 0.42478698
-0.4203345 -0.0057606013 0.091302335 -0.2873392 0.32426912 -0.20224454 -0.015847642 0.1411256
0.040559612 0.13561368 0.02502661 0.41229782 0.134027 -0.050642416 -0.015398316 0.25083563
-0.056831636 -0.08472475 0.27461123 -0.1841141 -0.19037333 0.48643476 0.10085632 0.15462573
00000000: bfad 83be 20ea 1d3d b334 1cbe e3d3 283d
00000010: 9498 abbd b135 41be 2449 afbc 79d4 213e
00000020: e8b3 fc3e 638e 743e e3de 23bd 8c8c 06bc
00000030: ec5d 063a 0563 1ebe 0ef6 a5be ee52 393d
00000040: 9ad2 3f3e 2a6d cabd f9f7 2d3c fa2e ec3a
00000050: 5c2d df3c da52 3f3e cd68 5fbe 8a20 46be
00000060: f643 43be 4ba2 233d dc07 953d 8180 a8bd
00000070: de9d f93e 9ffe 4d3e 3daf 813e 059b 51be
00000080: e65d c63e 18ec 693d b284 c1bd 288b f3bd
00000090: 6062 c1bd 9654 eebd e287 88be b2e1 08be
000000a0: 7fa4 d1bd 520e f53c c744 d0bd 8705 4dbe
000000b0: 45e0 31bd 6878 e73c 89f1 543d 0052 92bc
000000c0: 0a12 363e 1ebe 33bd 8e98 093e 5987 4abe
000000d0: ed55 d4bd f0fa 93bd 2deb 5cbe e53a 943e
000000e0: abc2 84be bf6c 97be 73a1 283e 836b 633d
000000f0: 7c1b 073e 8adc f13d 5f3c 38be 31c7 c93d
00000100: 3c99 49be bfe2 0c3e 074c e8bd de75 0c3c
00000110: 1474 913e bb78 163d 845c 09be e092 53be
00000120: bf35 a53d 4ea9 9f3c ba93 4a3e 0aca 243e
00000130: fe68 72be 9485 2f3e 9365 b9be 1760 2cbe
00000140: d6bd a03e b2d8 24be fbcd b43d 0d54 06bd
00000150: 8b77 b33d 26d3 c9be 113f 86be 5760 1fbe
00000160: b089 063d 339d a03d 0c54 0e3e 2b34 f4bd
00000170: 3306 403e 8b9b 3fbe ea5c 0a3e 6625 4fbe
00000180: e655 a5be 6bde 93bd 6d21 46be 83a9 6b3e
00000190: d1e9 e4bd 109b 0fbe 74a2 5abc 102f 8d3e
000001a0: 1065 a23e e4a2 56be 6a91 523e a704 3e3e
000001b0: 4548 b9be fd99 8bbd 179c 9fbe a1c0 5a3d
000001c0: 304c 8b3e 23cc ca3e 5d8c 3a3d 108f 2b3d
000001d0: 650b a93d 414c 91be 1c25 123c 2ea3 e4bd
000001e0: 2a5e a83d 7a69 ab3d af20 973e 63ac bdbd
000001f0: dfeb 803d 099f 32be bde2 2bbc 4273 ce3d
00000200: 4fa9 2bbf 7fa8 c1be 287f 523c 7058 e6bd
00000210: 4b4f aabe 84ba c4bd 83bd babc 0f1b cb3e
00000220: 7edf 98bd e819 80be 0f29 093e ac90 eebb
00000230: e229 363e 8008 2fbe 7278 24be 3d6f f6bd
00000240: 1269 903c 035d c23c 855c 933e d760 afbc
00000250: ec7d 20be 4f53 893d d072 4a3c 26e3 37be
00000260: 47a1 5e3d 5326 1bbf 2c5c 0d3d 3ade a03d
00000270: 58c6 163e 9293 753d 79bc cd3e 690c 053e
00000280: ccc4 96be a402 e43e 377d 23be 76e2 033e
00000290: a252 f2be b727 abbe 850b 1a3e a79a 4639
000002a0: 755d 4abe 8597 4e3e 5339 e83d 968f 083e
000002b0: 4685 803d ea74 bdbd 2e36 093e b186 603e
000002c0: 35d5 f5bd 7e90 663d 7db1 cebd 0c65 a8bc
000002d0: 1754 073c 46b9 393b 2f1e d83d f558 e5bd
000002e0: 4fec 59be c2bf 68bd c20b 1b3e 59f3 893e
000002f0: 0e5b 4dbd a3db 443e 993d a73d e1df c73d
00000300: f717 7abe f047 52bd e8d1 c43e d3c5 983d
00000310: a04a 843b 2fca 78be 68e9 37be f4d4 0b3e
00000320: 64d2 343e e2fc e73d 3ef5 52be a9d5 a53e
00000330: 6dbf 54bc 0fff e2bc 5011 1abe ffad bcbd
00000340: a99d aabd b718 adbd 380d 2fbd 7198 b9be
00000350: 6d36 963d 0bdc 4e3e cf2a ddbc c761 c5bc
00000360: f9ff 03be 1d4b 85bb 424b aabe 1936 c63d
00000370: 1a7a 17bd d7e9 3f3e 8d50 643b 354d 8dbe
00000380: cca9 d03e b15d 6ebe 02ba c0bc 0099 81be
00000390: 901c f7bc f76d 5e3e a3d8 f93d ae7d d93e
000003a0: 1536 d7be 6dc3 bcbb b8fc ba3d 201e 93be
000003b0: 9a06 a63e 3119 4fbe ead2 81bc 3b83 103e
000003c0: d621 263d 50de 0a3e 9b04 cd3c b318 d33e
000003d0: 603e 093e 6c6e 4fbd 3849 7cbc 876d 803e
000003e0: 4ac8 68bd 2b84 adbd d899 8c3e 6888 3cbe
000003f0: 3af1 42be fa0d f93e c28d ce3d 3556 1e3e

critic.0.bias f4 [64]
0.0 -0.09414044 0.07483778 -2.8869852e-06 0.004216819 -0.046893235 -2.2731348e-09 0.0047049494
0.0075803543 0.035109755 0.047890536 0.0 -0.083566114 -0.0025618642 0.004101783 -0.031562142
0.0 0.004980831 0.07171113 0.015530622 0.008263819 0.37364647 0.0 -0.08163182
-0.0535788 0.10179173 -0.049473196 0.16842623 0.031245936 -0.0019938068 -0.0034517357 4.2236945e-07
-0.0029138054 -0.03659357 1.061922e-05 -2.107962e-08 0.063850455 -0.0038410083 -0.10352857 -0.05422261
0.00063261803 0.00079997466 0.039413806 0.0033932326 -1.600513e-06 -1.932994e-08 -2.9332733e-07 0.0
-5.4891593e-08 0.045162044 0.0022908433 -0.04823401 0.05840766 0.0 0.0007813519 0.0
-0.01748269 0.018259391 -1.5567593e-07 -0.0007910352 -0.017695455 -0.016125629 -0.048601232 -0.019787671
00000000: 0000 0000 b4cc c0bd 8d44 993d 07be 41b6
00000010: 3e2d 8a3b 1f13 40bd 6935 1cb1 fa2b 9a3b
00000020: 9f64 f83b 3fcf 0f3d de28 443d 0000 0000
00000030: b624 abbd f3e4 27bb 4068 863b 4e47 01bd
00000040: 0000 0000 3d36 a33b 49dd 923d 2674 7e3c
00000050: f864 073c 974e bf3e 0000 0000 952e a7bd
00000060: 7275 5bbd 2f78 d03d 68a4 4abd ed77 2c3e
00000070: 7af7 ff3c 87aa 02bb 8436 62bb 04c2 e234
00000080: 8bf5 3ebb 24e3 15bd 3429 3237 9312 b5b2
00000090: 07c4 823d 6db9 7bbb c906 d4bd 8718 5ebd
000000a0: 47d6 253a 64b5 513a 5f70 213d ff60 5e3b
000000b0: 35d1 d6b5 fd0a a6b2 9a7a 9db4 0000 0000
000000c0: f2c1 6bb3 d6fb 383d f921 163b 0691 45bd
000000d0: df3c 6f3d 0000 0000 a3d3 4c3a 0000 0000
000000e0: dc37 8fbc b894 953c e027 27b4 795d 4fba
000000f0: 0ff6 90bc e519 84bc 1612 47bd c119 a2bc

critic.2.weight f4 [64, 64]
0.1557669 0.15657179 -0.01481019 -0.3802589 0.057665925 -0.17111261 0.21331108 0.24242583
-0.23085311 0.26987654 -0.34750333 0.14330444 -0.041907784 0.047144163 -0.20215547 -0.13877928
0.2633098 -0.0038984192 -0.19397202 0.13142526 0.19956003 0.4267308 0.2842417 -0.26340252
-0.21804696 -0.055349898 -0.0044425526 -0.2911729 0.14465202 -0.29168874 -0.08266063 0.048268054
-0.0911112 -0.22061288 0.1774016 0.051355015 -0.13276443 -0.091318764 -0.11514311 0.23433349
-0.26861805 0.1415663 -0.036100473 -0.19794723 -0.085331805 -0.11515468 0.30477977 0.16094828
0.018285086 -0.041283514 -0.23690394 0.075084485 0.05812213 -0.28316244 -0.1721316 -0.14298648
-0.042623144 0.03883969 -0.012005278 -0.21243569 0.017244788 0.03384383 -0.07956125 -0.09768733
-0.15430078 -0.21513607 -0.1593584 -0.115830585 0.14381027 -0.2975854 -0.110543326 0.45232394
0.10677522 -0.07090637 0.016486725 0.1096122 -0.057419825 -0.18811207 -0.06202542 0.16199252
-0.1944443 0.06410774 0.014153854 -0.0041869306 -0.37534115 0.14615934 0.1313883 -0.14040925
-0.07845946 0.10650456 0.21563476 0.061594665 -0.06739984 0.4437243 -0.048892107 -0.15036488
0.021184314 -0.017377699 0.04609757 -0.03711939 -0.15013827 -0.20267558 0.1474433 0.2120341
0.27652875 0.030447183 -0.10254912 0.1945833 0.04797151 0.12254263 0.37456942 -0.12956212
0.03766752 -0.21992046 0.024779912 0.15985882 -0.1297814 0.09547639 0.055829912 -0.09137797
-0.41332057 0.25823212 0.20400664 0.04413501 0.20340325 -0.025017792 0.18340488 0.18942192
0.06453937 0.01054504 -0.05211992 0.110845596 -0.3071666 0.08740543 0.11803092 0.027364733
0.15698993 -0.06299266 0.005025098 0.18193547 -0.055060416 0.14515863 -0.028551456 -0.27209753
-0.28448316 -0.13691606 0.27209014 -0.45158756 0.0242765 -0.24782684 0.32683954 0.25789678
0.40334767 0.23554909 -0.121334635 -0.10759734 -0.0939323 -0.22718756 -0.14467303 0.091870055
-0.16174953 0.042311113 -0.016542092 -0.12730078 -0.047746073 0.13777049 0.07489992 0.06415745
0.07907799 0.14387505 -0.077407196 0.026247313 -0.27564424 -0.11517356 0.28154847 -0.059088796
0.32146528 -0.024283709 0.4072211 0.0077688415 -0.011020315 -0.134562 -0.008629458 -0.18810435
-0.38366947 0.21358189 -0.02822788 -0.10580781 0.026585046 0.09277442 0.002745443 -0.07807061
-0.16347077 0.000684827 0.06670975 -0.163056 -0.017096043 0.091861874 -0.025329107 0.14039323
0.048052736 -0.07324046 0.12806782 -0.19475272 -0.22793107 -0.37979874 0.14733282 -0.18968232
0.104757845 -0.28881714 0.17685056 -0.05523058 0.19883075 0.13788517 -0.021525072 -0.0077819163
-0.08139188 0.27019015 -0.31881475 -0.048416764 -0.054088194 -0.038976308 -0.34472042 0.03247505
-0.0327856 -0.13554524 -0.09072371 0.16841006 0.21655655 -0.0076312516 0.25036046 -0.16396677
0.1639226 -0.26516074 -0.06305466 0.15325399 0.03159715 0.19204669 0.27476957 0.11681786
0.19292347 -0.0704254 -0.33159882 -0.14893752 0.0891358 0.17539605 0.26846898 -0.22047529
0.39813858 0.088936985 0.25833863 -0.08659548 0.05861941 0.16716097 0.025665095 -0.11343
00000000: 5c81 1f3e 5b54 203e 70a6 72bc 4bb1 c2be
00000010: 1b33 6c3d 2538 2fbe 386e 5a3e 7a3e 783e
00000020: c264 6cbe 422d 8a3e f5eb b1be 66be 123e
00000030: 7fa7 2bbd 3d1a 413d d801 4fbe 281c 0ebe
00000040: 8bd0 863e 9f7c 7fbb 9aa0 46be 5894 063e
00000050: 7759 4c3e 767c da3e 2188 913e b2dc 86be
00000060: b447 5fbe 93b6 62bd d592 91bb 9d14 95be
00000070: a91f 143e 3a58 95be fa49 a9bd b9b4 453d
00000080: 8298 babd 58e8 61be c4a8 353e a359 523d
00000090: 66f3 07be 5505 bbbd 27d0 ebbd 1ef5 6f3e
000000a0: 4e88 89be c2f6 103e 17de 13bd aeb2 4abe
000000b0: 71c2 aebd 38d6 ebbd 180c 9c3e a0cf 243e
000000c0: 9bca 953c e718 29bd f296 72be e5c5 993d
000000d0: 7811 6e3d abfa 90be 4443 30be 0c6b 12be
000000e0: 9b95 2ebd 5e16 1f3d c9b1 44bc be88 59be
000000f0: f144 8d3c d49f 0a3d 02f1 a2bd 4b10 c8bd
00000100: 0601 1ebe a14c 5cbe d92e 23be 9638 edbd
00000110: 0043 133e 1d5d 98be 8a64 e2bd 0197 e73e
00000120: f7ac da3d 5c37 91bd 2b0f 873c 5c7c e03d
00000130: 0d31 6bbd 73a0 40be 5e0e 7ebd 5ee1 253e
00000140: 681c 47be eb4a 833d 91e5 673c 8532 89bb
00000150: b72c c0be cbaa 153e a88a 063e 71c7 0fbe
00000160: 5aaf a0bd 101f da3d 5ccf 5c3e b04a 7c3d
00000170: ed08 8abd d52f e33e 1743 48bd 40f9 19be
00000180: ba8a ad3c ad5b 8ebc ced0 3c3d 800a 18bd
00000190: d9bd 19be 308a 4fbe 60fb 163e 781f 593e
000001a0: 2d95 8d3e 5f6c f93c 4605 d2bd d840 473e
000001b0: c67d 443d a1f7 fa3d 90c7 bf3e efab 04be
000001c0: 4249 1a3d d432 61be 3eff ca3c 08b2 233e
000001d0: 6ae5 04be 2089 c33d e8ad 643d 6024 bbbd
000001e0: c19e d3be 0037 843e 1ee7 503e eac6 343d
000001f0: f148 503e 1df2 ccbc 7dce 3b3e d2f7 413e
00000200: 382d 843d 1ac5 2c3c b27b 55bd 0403 e33d
00000210: f144 9dbe 9e01 b33d 32ba f13d 012c e03c
00000220: f8c1 203e 4c02 81bd 94a9 a43b 4b4d 3a3e
00000230: 0887 61bd 77a4 143e bee4 e9bc 5e50 8bbe
00000240: c7a7 91be b933 0cbe 664f 8b3e 7c36 e7be
00000250: 83df c63c 52c6 7dbe 8357 a73e 0c0b 843e
00000260: 9683 ce3e c833 713e 4b7e f8bd ff5b dcbd
00000270: 945f c0bd dba3 68be 2b25 14be 5e26 bc3d
00000280: aba1 25be 6b4e 2d3d 4883 87bc 235b 02be
00000290: 6391 43bd b513 0d3e 2165 993d fb64 833d
000002a0: a4f3 a13d fb53 133e aa87 9ebd 9b04 d73c
000002b0: 3e21 8dbe 1ee0 ebbd 1f27 903e 1807 72bd
000002c0: 1997 a43e a1ee c6bc 497f d03e c491 fe3b
000002d0: 8d8e 34bc 9fca 09be 9262 0dbc 6d9e 40be
000002e0: 5370 c4be 36b5 5a3e 283e e7bc c4b1 d8bd
000002f0: e2c8 d93c 8400 be3d e4ec 333b 7ce3 9fbd
00000300: e264 27be f685 333a 1f9f 883d 27f8 26be
00000310: 000d 8cbc 1422 bc3d fd7e cfbc 3ec3 0f3e
00000320: f2d2 443d 18ff 95bd 3624 033e 426d 47be
00000330: c366 69be fb74 c2be 6ade 163e 153c 42be
00000340: 488b d63d d7df 93be 5018 353e 7639 62bd
00000350: 4a9a 4b3e c531 0d3e 5955 b0bc 72ff febb
00000360: c9b0 a6bd 5d56 8a3e b03b a3be a850 46bd
00000370: 958b 5dbd 9fa5 1fbd 327f b0be 8f04 053d
00000380: 314a 06bd 5fcc 0abe 5acd b9bd b073 2c3e
00000390: 00c1 5d3e 940f fabb 3f2f 803e e8e6 27be
000003a0: 53db 273e 26c3 87be cd22 81bd 9dee 1c3e
000003b0: 036c 013d e3a7 443e 99ae 8c3e 343e ef3d
000003c0: bb8d 453e 313b 90bd 52c7 a9be 1483 18be
000003d0: d58c b63d 069b 333e c474 893e 46c4 61be
000003e0: d2d8 cb3e 9824 b63d f644 843e f958 b1bd
000003f0: e81a 703d 3f2c 2b3e 9b3f d23c fd4d e8bd

critic.2.bias f4 [64]
6.46583e-05 0.043231256 0.040439136 -0.006275682 -0.016722178 -0.015502211 -0.020934246 -0.027134078
-0.013423405 -0.011888994 0.073679276 0.024598442 -0.031315878 -0.016786564 0.04471147 -0.01742694
-0.04961184 0.025800476 -0.008118098 -0.031724453 0.027825838 0.009061718 0.038372587 -0.0397758
0.0093662385 -0.013393136 0.031465627 0.033112682 0.030526903 -0.030776171 -0.018914731 0.034255892
0.0129793 0.0041642874 -0.016190898 -0.004899924 0.010223219 -0.0048149712 -0.018893315 -0.017595606
0.006598507 -0.017246425 0.06867929 -0.013331834 0.034296274 0.007050708 -0.009038102 0.0070539922
-0.0026273455 0.016120167 0.030443044 0.016049903 0.0066777165 -0.040175732 -0.008969866 0.02205505
-0.01963035 0.04419884 -0.010264266 0.042566355 -0.00016962751 -0.0319543 -0.016792156 0.003646619
00000000: 2999 8738 4213 313d 82a3 253d 3ca4 cdbb
00000010: f3fc 88bc fcfc 7dbc 4c7e abbc 4948 debc
00000020: d7ed 5bbc 0eca 42bc 29e5 963d ac82 c93c
00000030: 1445 00bd fa83 89bc 6023 373d f1c2 8ebc
00000040: c935 4bbd 855b d33c c501 05bc 80f1 01bd
00000050: 03f3 e33c 9a77 143c 932c 1d3d f3eb 22bd
00000060: da74 193c e26e 5bbc 1ae2 003d 2aa1 073d
00000070: 8e13 fa3c 4f1e fcbc 11f3 9abc e84f 0c3d
00000080: 21a7 543c 9374 883b c6a2 84bc 8b8f a0bb
00000090: 4a7f 273c e8c6 9dbb 27c6 9abc a924 90bc
000000a0: 4a38 d83b 6048 8dbc baa7 8c3d c46d 5abc
000000b0: 407a 0c3d a009 e73b 8c14 14bc 2d25 e73b
000000c0: 8b2f 2cbb 710e 843c b163 f93c 167b 833c
000000d0: bfd0 da3b 4f8f 24bd 58f6 12bc cbac b43c
000000e0: d4cf a0bc d809 353d 742b 28bc 0f5a 2e3d
000000f0: 0ade 31b9 83e2 02bd b48f 89bc 1dfc 6e3b

critic.4.weight f4 [1, 64]
0.062342808 -0.053800117 -0.047275186 0.097203724 0.06944229 0.014452294 0.0032307 0.07562205
-0.108525865 -0.09178716 -0.17832395 0.3041854 -0.08836058 0.038834874 -0.116623096 0.038302667
0.15834561 -0.023873927 -0.008127009 0.0032451125 0.03951665 0.0287072 0.05818236 0.13311836
0.0705943 -0.06785568 -0.03948235 0.12900715 -0.13898344 0.02031634 -0.118237145 0.1910212
0.03213381 -0.18425612 0.13086145 -0.02924137 -0.0047616623 0.02434673 0.043952685 0.087474056
-0.07295147 0.078724794 -0.045766324 -0.07275923 -0.22086306 -0.053019907 -0.02678478 -0.06934613
0.08013301 -0.050221786 0.07803875 -0.06383172 0.020178182 0.056973606 -0.07586705 0.018751903
-0.14262289 -0.07758484 -0.0906598 -0.114210114 -0.06816242 -0.15457207 0.0028265233 -0.08358189
00000000: 2c5b 7f3d 835d 5cbd a0a3 41bd bf12 c73d
00000010: c237 8e3d 51c9 6c3c 27ba 533b bcdf 9a3d
00000020: cf42 debd e8fa bbbd 8e9a 36be 30be 9b3e
00000030: 64f6 b4bd 5111 1f3d 17d8 eebd 42e3 1c3d
00000040: 5a25 223e 4193 c3bc 2527 05bc f4ab 543b
00000050: 36dc 213d 5d2b eb3c a050 6e3d 2e50 083e
00000060: bf93 903d ebf7 8abd 3fb8 21bd 731a 043e
00000070: ad51 0ebe 746e a63c 5126 f2bd 109b 433e
00000080: be9e 033d a3ad 3cbe 8b00 063e 998b efbc
00000090: b807 9cbb cb72 c73c bb07 343d 9925 b33d
000000a0: 9567 95bd 773a a13d 7875 3bbd cb02 95bd
000000b0: ed29 62be 672b 59bd c16b dbbc 5805 8ebd
000000c0: c71c a43d 5cb5 4dbd c8d2 9f3d 34ba 82bd
000000d0: b74c a53c 285d 693d 2f60 9bbd 979d 993c
000000e0: bc0b 12be cde4 9ebd d8ab b9bd fee6 e9bd
000000f0: bd98 8bbd 2448 1ebe 313d 393b fb2c abbd

actor.0.weight f4 [64, 6]
-0.23611681 0.23905791 -0.0056251613 -0.04399602 -0.4074538 0.09538549 0.058511447 -0.11043105
-0.08537903 -0.43965605 0.0006935622 0.14619839 0.01433481 0.07226198 -0.015385662 -0.25754917
-0.24521345 -0.13493365 0.054743133 0.01677277 -0.6392004 -0.015833884 0.14640379 -0.20876008
0.24393722 0.09716621 -0.1191929 -0.067554824 -0.00084618176 0.06688741 -0.0020967792 0.111868955
-0.051568173 -0.8520363 -0.12095143 -0.013590022 0.46117145 0.1815464 -0.04596862 -0.35862923
0.1370508 -0.25755593 0.0076352037 -0.07733044 -0.19710833 0.31591758 0.07341553 0.116383046
-0.11602022 -0.05561726 -0.381621 -0.6248545 0.22076517 -0.18134846 0.09049699 -0.022949204
0.40115774 0.35284385 -0.102778174 -0.32153198 0.006796596 -0.123042166 -0.18008718 0.12840074
-0.23740369 -0.3086639 -0.08417489 -0.0019000478 0.24920914 0.0012482108 0.07656428 -0.18292852
0.29761058 0.08367135 0.068496384 -0.09038931 0.008085835 0.032359947 0.039996915 0.24218106
0.27158588 0.011324593 -0.025139261 0.10888365 -0.120199546 0.26665047 -0.6026339 -0.35033587
0.11191131 0.31187108 -0.32862115 -0.32396188 0.05316653 0.026649453 0.04189993 0.34597656
-0.33161044 -0.0925151 -0.02219241 -0.5043768 0.22361556 -0.0073541123 -0.2883933 -0.14877954
0.10160009 0.043482535 -0.3614894 -0.087825656 0.09548537 0.04244999 -0.31454718 0.4209558
0.09984378 -0.16433449 -0.051944237 0.45174578 0.36807477 -0.048364338 -0.12695417 0.0016591415
0.21357894 -0.16725813 0.18929228 0.48869777 -0.14243561 -0.05558626 -0.19979507 -0.11809947
0.0025983914 0.10433362 0.009721183 -0.48871535 0.27959186 0.07017102 -0.0527587 0.034567438
0.072317086 -0.07440048 -0.099628456 -0.18976167 -0.051856216 -0.14187665 -0.20519574 0.083661295
-0.17202882 0.13808173 0.18356086 -0.6835179 -0.24259748 0.09872362 -0.1803965 0.10089227
0.005292194 0.007555324 -0.11430201 -0.03852693 0.41555813 -0.13680325 -0.6370484 0.13759932
-0.036341526 0.08925234 0.1981736 -0.21712974 -0.24494042 0.35948256 0.24689418 -0.04512591
-0.025989486 0.034839593 -0.15592134 0.028780904 0.01647463 -0.2670856 -0.03187804 -0.44945845
-0.21306714 0.18121476 -0.034577843 0.32921353 -0.13975476 0.14278781 -0.2933091 -0.27195022
0.028876018 -0.37944674 -0.20544592 0.11775572 0.051414568 -0.35046616 0.1184109 0.07963476
0.048391607 0.13527472 -0.12497775 0.114543885 -0.0032886032 0.21009505 0.0068706996 0.06518113
-0.13521609 -0.10660197 0.27224943 0.1901349 0.038926605 0.09258891 0.050559558 -0.0043492196
-0.1509521 0.30885512 0.22530071 0.093618535 -0.27754253 0.22409081 -0.15578544 0.02217119
-0.1933458 0.059737124 -0.29028776 -0.1601382 -0.0039071436 -0.02065305 0.26743728 0.26416242
-0.22523296 -0.15978163 -0.1574819 0.1637823 0.16454017 0.30441836 0.14775777 0.07462288
0.068248905 0.35247087 -0.40640998 0.10835108 0.42585203 0.4402354 -0.067643955 -0.10751547
-0.016337851 -0.22501378 0.07251161 -0.07058507 -0.13489623 0.14693956 0.25629157 -0.015505773
-0.039131243 0.27671012 0.12102394 -0.1100545 0.24262181 -0.079900034 0.25264692 0.119201295
00000000: 9bc8 71be 99cb 743e 4653 b8bb 2c35 34bd
00000010: c99d d0be 7859 c33d b3a9 6f3d ad29 e2bd
00000020: 33db aebd 991a e1be 2cd0 353a 08b5 153e
00000030: 8ddc 6a3c 17fe 933d 2514 7cbc 7cdd 83be
00000040: 3c19 7bbe 0c2c 0abe 563a 603d 0c67 893c
00000050: a3a2 23bf 10b6 81bc e0ea 153e 34c5 55be
00000060: aeca 793e 14ff c63d 681b f4bd 2f5a 8abd
00000070: 4cd2 5dba 44fc 883d 1e6a 09bb 8d1b e53d
00000080: 2639 53bd 0d1f 5abf 62b5 f7bd afa8 5ebc
00000090: aa1e ec3e 4de7 393e 9749 3cbd 409e b7be
000000a0: 0b57 0c3e 5fde 83be bb30 fa3b 6c5f 9ebd
000000b0: c4d6 49be f3bf a13e e25a 963d 3c5a ee3d
000000c0: 029c edbd edce 63bd d463 c3be 77f6 1fbf
000000d0: 4410 623e 69b3 39be 7c56 b93d f8ff bbbc
000000e0: 8c64 cd3e f3a7 b43e 5d7d d2bd d79f a4be
000000f0: fbb5 de3b 88fd fbbd c668 38be 7c7b 033e
00000100: f419 73be 3209 9ebe e263 acbd 060b f9ba
00000110: ae30 7f3e 019b a33a bccd 9c3d 9d51 3bbe
00000120: 6a60 983e e25b ab3d d547 8c3d 081e b9bd
00000130: 737a 043c dd8b 043d ced3 233d 50fe 773e
00000140: 4e0d 8b3e c98a 393c daf0 cdbc 64fe de3d
00000150: 2e2b f6bd 6986 883e 3746 1abf 395f b3be
00000160: c231 e53d 91ad 9f3e 0841 a8be 55de a5be
00000170: 26c5 593d f44f da3c 439f 2b3d d723 b13e
00000180: d8c8 a9be 8f78 bdbd dbcc b5bc d71e 01bf
00000190: 7afb 643e c4fa f0bb 49a8 93be aa59 18be
000001a0: b513 d03d be1a 323d 2315 b9be f0dd b3bd
000001b0: d58d c33d 0ae0 2d3d 540c a1be 8587 d73e
000001c0: e57a cc3d 4d47 28be 7bc3 54bd 394b e73e
000001d0: 4c74 bc3e af19 46bd 4600 02be 8d77 d93a
000001e0: 70b4 5a3e b745 2bbe d6d5 413e 9836 fa3e
000001f0: a4da 11be 6bae 63bd 1497 4cbe 23de f1bd
00000200: c649 2a3b ddac d53d 9945 1f3c e638 fabe
00000210: aa26 8f3e d3b5 8f3d 8219 58bd 9696 0d3d
00000220: fb1a 943d 475f 98bd 010a ccbd e250 42be
00000230: 2f67 54bd 1d48 11be d51e 52be 9d56 ab3d
00000240: 5328 30be 4c65 0d3e 61f7 3b3e 07fb 2ebf
00000250: 796b 78be 9c2f ca3d dcb9 38be 9ba0 ce3d
00000260: 246a ad3b a792 f73b 2c17 eabd 6ace 1dbd
00000270: 09c4 d43e 2716 0cbe 9b15 23bf d6e6 0c3e
00000280: dada 14bd eec9 b63d 05ee 4a3e 4257 5ebe
00000290: a9d1 7abe 190e b83e d4d1 7c3e f2d5 38bd
000002a0: e7e7 d4bc f6b3 0e3d d8a9 1fbe eec5 eb3c
000002b0: cef5 863c 72bf 88be 8c92 02bd 6b1f e6be
000002c0: 462e 5abe 5d90 393e 7fa1 0dbd ad8e a83e
000002d0: df1b 0fbe f836 123e 9c2c 96be 0f3d 8bbe
000002e0: 668d ec3c d846 c2be 6a60 52be e929 f13d
000002f0: 1598 523d 4d70 b3be 6a81 f23d 8d17 a33d
00000300: 4736 463d 7585 0a3e 56f4 ffbd fc95 ea3d
00000310: 9b85 57bb 2823 573e 9b23 e13b af7d 853d
00000320: 1676 0abe 2252 dabd 4764 8b3e b9b2 423e
00000330: 8171 1f3d 419f bd3d 8a17 4f3d e683 8ebb
00000340: 3093 1abe 4222 9e3e 3bb5 663e 13bb bf3d
00000350: 0e1a 8ebe 1078 653e 3886 1fbe 5ba0 b53c
00000360: 71fc 45be eaae 743d 99a0 94be 45fb 23be
00000370: 7f07 80bb 9630 a9bc 8aed 883e 4c40 873e
00000380: 78a3 66be cc9d 23be ef42 21be 8cb6 273e
00000390: 387d 283e b9dc 9b3e d04d 173e e1d3 983d
000003a0: 15c6 8b3d 1077 b43e f814 d0be 2ce7 dd3d
000003b0: 4709 da3e 8966 e13e ea88 8abd 1231 dcbd
000003c0: f5d6 85bc 036a 66be f880 943d e88e 90bd
000003d0: 3d22 0abe 5377 163e a638 833e ed0b 7ebc
000003e0: 1548 20bd f3ac 8d3e 66db f73d 4164 e1bd
000003f0: da71 783e a1a2 a3bd f05a 813e cf1f f43d

actor.0.bias f4 [64]
-0.003194705 0.13492471 -0.070733055 0.4330284 2.3857981e-05 0.1479416 0.21554781 0.01376335
-0.051877167 -0.17317855 0.0 -0.04998079 -9.568256e-07 -0.039286744 0.15809551 -0.072184846
0.07413561 0.0 -0.027872276 -0.16684906 -0.04077864 -6.9407683e-06 0.18021068 0.0
0.024617856 -0.076327376 0.04318708 0.039621606 -0.00058368756 0.00027856836 -0.018107232 -0.050887365
3.0446952e-05 -9.5209094e-07 -0.012140035 0.22515136 0.10926908 -0.0037029628 -1.6326561e-06 -0.16958684
0.00072622974 -0.014719393 -0.030378692 -0.1214617 -4.4329687e-07 0.24794832 0.030726817 -0.16524063
-0.049110673 -0.004285173 0.0035017808 -0.11840405 0.22763494 -0.06513334 -0.070673116 0.20632072
-0.048879206 -0.14530998 5.7144366e-06 0.08658856 -1.0908716e-06 -0.08129496 -9.926192e-07 -1.5197721e-06
00000000: 415e 51bb b429 0a3e 7edc 90bd e6b5 dd3e
00000010: a022 c837 017e 173e 91b8 5c3e ad7f 613c
00000020: 277d 54bd b855 31be 0000 0000 a8b8 4cbd
00000030: 476c 80b5 23eb 20bd cae3 213e a6d5 93bd
00000040: 69d4 973d 0000 0000 6654 e4bc 7bda 2abe
00000050: 8107 27bd bfe4 e8b6 2689 383e 0000 0000
00000060: 63ab c93c 8751 9cbd f0e4 303d 444a 223d
00000070: 9c02 19ba d00c 9239 9e55 94bc 456f 50bd
00000080: 5568 ff37 3193 7fb5 ffe6 46bc 148e 663e
00000090: 78c8 df3d 68ad 72bb a321 dbb5 2ca8 2dbe
000000a0: 7460 3e3a 9c29 71bc bcdc f8bc e9c0 f8bd
000000b0: 42fe edb4 2ae6 7d3e ceb6 fb3c d734 29be
000000c0: 4628 49bd a36a 8cbb 227e 653b d37d f2bd
000000d0: 2219 693e a164 85bd 11bd 90bd bd45 533e
000000e0: 9035 48bd 24cc 14be a3be bf36 5855 b13d
000000f0: 106a 92b5 f97d a6bd 233a 85b5 f9fa cbb5

actor.2.weight f4 [64, 64]
-0.022366242 -0.061436243 -0.076686315 0.011723768 -0.0180539 0.3127195 0.3074955 -0.25922626
0.05469899 0.07871532 0.16191807 0.03030621 -0.01757465 0.066441834 -0.09329415 -0.054988276
-0.05246654 0.2947704 -0.08826905 -0.27167284 -0.15990514 -0.121594384 0.22499397 -0.106003344
-0.21472791 -0.63490045 -0.01022926 0.19851117 0.10663276 -0.0049330606 -0.151958 0.30885354
0.25655317 0.041578557 0.5877279 0.28113684 0.19720799 -0.1905026 0.07162771 -0.062460206
0.3802282 -0.03313586 -0.22843477 -0.21959965 -0.044167336 0.33485746 0.04062598 0.09087085
-0.05548353 -0.17072934 -0.13048571 0.029757971 0.118275955 0.1374306 0.17022778 0.08044619
-0.0077714096 0.09968984 0.051939145 0.4952605 0.046486106 0.03155311 0.116977066 -0.116394185
0.16442093 0.076894134 -0.044634987 -0.17433003 -0.05847168 -0.3114193 0.003284992 0.061117746
-0.19832435 0.0568149 -0.33522588 0.18592763 0.19339764 -0.14737017 -0.21407825 0.049161337
-0.1644795 0.12655237 0.007093527 0.2744807 0.10100541 -0.009892116 0.03622182 -0.16027081
-0.2007131 0.10435848 0.13036282 0.2766397 0.07055489 -0.30325142 0.14324066 0.30138782
-0.44232047 0.3043208 0.12876582 -0.0065921065 -0.04113996 -0.2488581 -0.0385844 0.17424074
-0.18449485 0.17214353 0.06911737 0.13135901 0.08514746 -0.5945085 -0.20378678 -0.13127203
0.1363819 0.055666316 -0.021439198 0.15511543 0.16612482 0.19834378 0.11173734 -0.36681464
0.18904929 -0.046731576 -0.19977015 0.18712881 -0.1341081 -0.13256034 -0.2857359 -0.17612565
0.12526016 0.25531453 0.035163466 0.21383096 0.10413886 0.038704123 -0.026643272 0.1920289
-0.30552527 -0.2430484 0.32413295 -0.15294434 -0.13836503 -0.081367955 0.27040717 -0.13294192
0.29402062 0.046738178 -0.3804553 -0.101308346 -0.21935888 -0.1556526 -0.0071914336 -0.18278505
0.11166837 -0.041930433 -0.14624882 -0.3300289 -0.27799973 -0.21155913 0.084163345 0.25655213
-0.18447323 0.2151642 0.24481617 -0.23872134 -0.055192787 0.088531926 -0.014963069 0.15049939
0.37584808 -0.033236235 -0.08057103 -0.009859124 -0.02507951 -0.08344621 0.021881728 -0.28061908
0.03669791 -0.1432126 -0.033720404 -0.16627279 0.21441135 -0.20309821 -0.23628329 0.047171485
0.09532772 0.06258332 0.2853766 -0.2347243 -0.3121767 0.22787249 -0.06257568 0.15202744
0.18729298 0.18756384 -0.33406058 0.020301709 0.061790302 0.2496419 -0.007401174 -0.009840767
0.52413714 0.0015119797 -0.28906184 -0.21121472 0.1729909 0.144536 -0.09717747 0.1204793
0.083197616 0.019371668 0.022785148 -0.16814737 -0.129055 -0.41410357 -0.03693221 -0.008220645
0.36331168 0.12848693 -0.15233131 -0.53534454 -0.032307893 -0.115195684 0.037032623 0.11920242
0.101450965 -0.097320005 0.099850364 -0.094039634 -0.017992377 0.029507583 0.08466002 0.087526545
-0.00039956835 -0.034354664 0.1388439 -0.17103323 0.03727868 0.19427133 0.15782605 -0.29814696
0.10582469 -0.25185746 -0.2954378 -0.38036293 0.08566193 -0.016239824 0.105752155 0.17617926
-0.37328064 0.12659723 -0.13861452 -0.05281406 -0.13652293 -0.39865866 -0.019766774 -0.19363038
00000000: 6939 b7bc 92a4 7bbd b70d 9dbd 0c15 403c
00000010: c6e5 93bc c51c a03e 0d70 9d3e 4eb9 84be
00000020: 0c0c 603d 7f35 a13d dacd 253e bb44 f83c
00000030: b6f8 8fbc a812 883d 0111 bfbd 633b 61bd
00000040: 28e7 56bd 25ec 963e 67c6 b4bd b418 8bbe
00000050: 2cbe 23be 7a06 f9bd d264 663e 4818 d9bd
00000060: a2e1 5bbe d688 22bf a098 27bc 8346 4b3e
00000070: 4762 da3d 83a5 a1bb e19a 1bbe 0d22 9e3e
00000080: f05a 833e 474e 2a3d 5675 163f 2bf1 8f3e
00000090: e4f0 493e 1d13 43be 8cb1 923d 46d6 7fbd
000000a0: 45ad c23e 78b9 07bd ceea 69be bbde 60be
000000b0: cfe8 34bd 7072 ab3e 6d67 263d 7f1a ba3d
000000c0: b342 63bd acd3 2ebe 0c9e 05be fdc6 f33c
000000d0: aa3a f23d 9bba 0c3e 3150 2e3e f9c0 a43d
000000e0: 4fa7 febb 302a cc3d 24be 543d c992 fd3e
000000f0: 3768 3e3d d53d 013d ac91 ef3d 1360 eebd
00000100: f65d 283e ac7a 9d3d 2dd3 36bd 9283 32be
00000110: 0080 6fbd 5a72 9fbe 0549 573b 9a56 7a3d
00000120: 8a15 4bbe beb6 683d baa2 abbe d063 3e3e
00000130: 080a 463e 35e8 16be 5437 5bbe 665d 493d
00000140: 506d 28be f296 013e d170 e83b bc88 8c3e
00000150: eddb ce3d 8b12 22bc 555d 143d 081e 24be
00000160: bc87 4dbe e6b9 d53d d57d 053e b8a3 8d3e
00000170: 157f 903d c543 9bbe aead 123e 814f 9a3e
00000180: d477 e2be f0cf 9b3e 30db 033e 9902 d8bb
00000190: 6082 28bd a8d4 7ebe ad0a 1ebd 2a6c 323e
000001a0: 38ec 3cbe 6546 303e 688d 8d3d fa82 063e
000001b0: cb61 ae3d b631 18bf 7bad 50be 2d6c 06be
000001c0: b2a7 0b3e 5d02 643d 42a1 afbc 94d6 1e3e
000001d0: a01c 2a3e a21a 4b3e 8cd6 e43d 21cf bbbe
000001e0: 2396 413e 9c69 3fbd 8c90 4cbe b29e 3f3e
000001f0: a253 09be e6bd 07be fa4b 92be 485a 34be
00000200: 3344 003e 96b8 823e 9107 103d 81f6 5a3e
00000210: c146 d53d 3788 1e3d fe42 dabc 39a3 443e
00000220: cf6d 9cbe aee1 78be c1f4 a53e 719d 1cbe
00000230: 90af 0dbe 3ea4 a6bd cf72 8a3e ed21 08be
00000240: df89 963e 8870 3f3d 09cb c2be c07a cfbd
00000250: 9d9f 60be 6563 1fbe 1ea6 ebbb 012c 3bbe
00000260: 63b2 e43d 3fbf 2bbd 40c2 15be 8cf9 a8be
00000270: fb55 8ebe f5a2 58be d55d ac3d cd5a 833e
00000280: 8de6 3cbe 0154 5c3e 17b1 7a3e 5e73 74be
00000290: d511 62bd 3a50 b53d a927 75bc 831c 1a3e
000002a0: 296f c03e b822 08bd 6d02 a5bd 2a88 21bc
000002b0: 8b73 cdbc d9e5 aabd 4f41 b33c 4ead 8fbe
000002c0: 8c50 163d 53a6 12be 681e 0abd 6a43 2abe
000002d0: a68e 5b3e faf8 4fbe 3ff4 71be e336 413d
000002e0: 2e3b c33d af2b 803d e21c 923e 915b 70be
000002f0: a0d5 9fbe 6857 693e ae27 80bd 15ad 1b3e
00000300: bbc9 3f3e bc10 403e fd09 abbe c54f a63c
00000310: d417 7d3d 20a2 7f3e 8c85 f2bb 2b3b 21bc
00000320: da2d 063f 9f2d c63a eaff 93be ac48 58be
00000330: 8724 313e 3f01 143e fb04 c7bd dabd f63d
00000340: 8363 aa3d 55b1 9e3c eba7 ba3c d32e 2cbe
00000350: fe26 04be 6205 d4be 3b46 17bd e2af 06bc
00000360: fd03 ba3e 1492 033e bdfc 1bbe 570c 09bf
00000370: 4855 04bd b7eb ebbd 85af 173d 6620 f43d
00000380: 86c5 cf3d b64f c7bd 597e cc3d da97 c0bd
00000390: c064 93bc e3b9 f13c 3c62 ad3d 1e41 b33d
000003a0: 287d d1b9 7ab7 0cbd 182d 0e3e 5623 2fbe
000003b0: 87b1 183d 10ef 463e 279d 213e b8a6 98be
000003c0: 9dba d83d 76f3 80be a043 97be eebe c2be
000003d0: 866f af3d 6109 85bc 9694 d83d 5668 343e
000003e0: a41e bfbe b4a2 013e f7f0 0dbe 8e53 58bd
000003f0: abcc 0bbe fd1c ccbe eeed a1bc 0b47 46be

actor.2.bias f4 [64]
0.0065010185 0.012705888 -0.06553281 0.044760488 0.007780241 0.03764923 0.008500749 -0.017917419
0.03017764 -0.0037327586 -0.006445266 -0.037518393 -0.014513183 -0.006710532 -0.023159394 0.032216895
-0.042139996 0.026741726 0.046763398 0.007037734 -0.05977685 -0.032361083 -0.053796016 -0.017939553
-0.011446702 0.0006099637 -0.041312862 0.040144887 -0.033217058 -0.027041355 -0.005673084 0.09806817
0.04174777 0.011824089 -0.014179871 -0.054186054 -0.014330389 -0.013905379 0.0010122713 0.0059839846
0.003586615 -0.010918049 -0.0015097568 0.013601538 0.026505431 0.007790277 -0.04924769 0.027846124
0.024854548 0.024769964 -0.014790837 0.011438247 0.0046391725 0.010404576 0.0066924496 -0.05453038
-0.041618917 -0.010459855 0.061547924 -0.07129511 -0.050380398 -0.052554607 -0.01360873 0.06833717
00000000: 7f06 d53b 5b2c 503c 1136 86bd c656 373d
00000010: 64f1 fe3b 1436 1a3d ba46 0b3c 8dc7 92bc
00000020: 1937 f73c 4ca1 74bb cf32 d3bb e3ac 19bd
00000030: b4c8 6dbc 06e4 dbbb c5b8 bdbc ddf5 033d
00000040: fd9a 2cbd 7711 db3c fa8a 3f3d cb9c e63b
00000050: 92d8 74bd 0e8d 04bd 3659 5cbd f8f5 92bc
00000060: f38a 3bbc f9e5 1f3a ad37 29bd f76e 243d
00000070: 9c0e 08bd d585 ddbc 47e5 b9bb f7d7 c83d
00000080: b6ff 2a3d d3b9 413c b152 68bc 32f2 5dbd
00000090: 02ca 6abc 63d3 63bc 30ae 843a 4d15 c43b
000000a0: 6a0d 6b3b 9ee1 32bc 08e3 c5ba fcd8 5e3c
000000b0: eb21 d93c 9445 ff3b f2b7 49bd 8e1d e43c
000000c0: c49b cb3c 61ea ca3c 4455 72bc 7c67 3b3c
000000d0: 3304 983b f477 2a3c 564c db3b 3f5b 5fbd
000000e0: 9978 2abd d05f 2bbc ad19 7c3d 2c03 92bd
000000f0: ad5b 4ebd 8043 57bd 27f7 5ebc 5cf4 8b3d

actor.4.weight f4 [2, 64]
0.099630244 -0.03356786 0.014525049 0.03991385 0.029563712 -0.14032005 -0.10248264 -0.07302017
-0.12296953 0.02882498 0.09368401 -0.0018411113 -0.16251896 0.0026211466 0.001495567 -0.029192695
0.06686244 -0.14725573 -0.0016575659 -0.024362361 0.057608142 -0.022298142 -0.01766289 -0.13681549
0.089253835 -0.12903328 0.0061720703 -0.042356767 -0.06927544 -0.038284104 -0.0032160867 0.042583708
0.0075143506 -0.13202554 0.12989631 -0.07454686 0.07290423 0.079568714 -0.004911951 0.2471617
0.13855192 0.052107643 0.10178664 -0.07284304 0.0069652786 0.060524795 0.010323309 0.06809019
0.03411363 -0.12094403 -0.084988415 -0.025325056 0.0025953224 -0.021777507 0.010222372 -0.12043907
0.0076152026 0.0031347815 -0.24356158 0.12388251 -0.060211107 0.022493184 -0.051723603 0.042724784
-0.10087808 0.032517787 -0.016927356 -0.039324425 -0.028865796 0.14224693 0.1005264 0.07095097
0.12361454 -0.024889423 -0.09633123 0.0021905557 0.16069241 -0.0008451016 -0.00075134414 0.03308826
-0.06671714 0.14881131 0.0013749239 0.023514535 -0.05628309 0.0207198 0.01987403 0.13441011
-0.08885334 0.12848711 -0.0062603243 0.044476807 0.067339994 0.037796315 0.0033967365 -0.04056964
-0.0075588557 0.13130952 -0.13068889 0.07052447 -0.07177837 -0.079014905 0.0035673275 -0.24599826
-0.1380243 -0.049161077 -0.10121816 0.069114126 -0.0058657182 -0.06298487 -0.011307262 -0.067790866
-0.033118665 0.1219631 0.08537845 0.024800694 -0.004377344 0.02342549 -0.010114651 0.11910569
-0.006865302 -0.00088261365 0.24576695 -0.123010404 0.05512383 -0.022387015 0.050565373 -0.042178318
00000000: f10a cc3d 747e 09bd 79fa 6d3c b57c 233d
00000010: 992f f23c 0fb0 0fbe 6be2 d1bd 998b 95bd
00000020: 73d7 fbbd 5d22 ec3c 67dd bf3d 7251 f1ba
00000030: 5f6b 26be 8bc7 2b3b e706 c43a 8525 efbc
00000040: 2def 883d 35ca 16be af42 d9ba 9393 c7bc
00000050: 84f6 6b3d 98aa b6bc c4b1 90bc 5c19 0cbe
00000060: b7ca b63d 4d21 04be 143f ca3b 4a7e 2dbd
00000070: 48e0 8dbd cbcf 1cbd fbc4 52bb 416c 2e3d
00000080: f13a f63b b431 07be 8a03 053e 06ac 98bd
00000090: d04e 953d ecf4 a23d 6ef4 a0bb f517 7d3e
000000a0: 8ee0 0d3e d36e 553d 8475 d03d bb2e 95bd
000000b0: fe3c e43b d9e8 773d 1923 293c df72 8b3d
000000c0: bcba 0b3d 81b1 f7bd 680e aebd 7e76 cfbc
000000d0: 4916 2a3b be66 b2bc bc7b 273c c2a8 f6bd
000000e0: f388 f93b e870 4d3b 3568 79be 1db6 fd3d
000000f0: ec9f 76bd a043 b83c 21dc 53bd 2f00 2f3d
00000100: 2b99 cebd 5f31 053d 3dab 8abc a612 21bd
00000110: f677 ecbc 2ea9 113e c9e0 cd3d be4e 913d
00000120: 9f29 fd3d e7e4 cbbc 4f49 c5bd 6d8f 0f3b
00000130: 8d8c 243e cf89 5dba daf5 44ba 8e87 073d
00000140: ffa2 88bd fe61 183e ca36 b43a 8ea1 c03c
00000150: 1989 66bd 92bc a93c ddce a23c cea2 093e
00000160: bdf8 b5bd 2092 033e 6823 cdbb 502d 363d
00000170: 8de9 893d 4fd0 1a3d c89b 5e3b 5a2c 26bd
00000180: 47b0 f7bb 0176 063e 4fd3 05be 226f 903d
00000190: 8a00 93bd 91d2 a1bd d3c9 693b f8e6 7bbe
000001a0: 3e56 0dbe 205d 49bd 774b cfbd b58b 8d3d
000001b0: 3635 c0bb 36fe 80bd 1842 39bc f0d5 8abd
000001c0: 70a7 07bd cac7 f93d e6da ae3d d32a cb3c
000001d0: d36f 8fbb d0e6 bf3c ecb7 25bc afed f33d
000001e0: 54f6 e0bb 335f 67ba 55aa 7b3e e1ec fbbd
000001f0: 86c9 613d f964 b7bc a31d 4f3d 2cc3 2cbd

actor.4.bias f4 [2]
0.061233442 -0.061232813
00000000: ebcf 7a3d 42cf 7abd
