python/pong/policies/stablebase.pt (torch, 41643 bytes, 11 tensors)

critic.0.weight f4 [64, 6]
-0.26905125 0.017797118 -0.13259247 0.050289128 -0.10301652 -0.20688196 -0.14141329 0.0980721
0.267887 0.124267384 -0.1074779 -0.023305425 0.0007911118 -0.14087394 -0.23275457 0.14664757
0.22550905 -0.041955333 0.0014773621 -0.008093974 0.035446852 0.17769155 -0.22777812 -0.20250274
-0.18163562 0.045251712 0.088741936 -0.13245586 0.50087374 0.18993665 0.389917 -0.105065234
0.24345887 0.09751897 -0.019043928 -0.047047835 -0.062274545 -0.08497822 -0.30429378 -0.22274132
-0.0685728 0.054400884 -0.111847885 -0.19975787 -0.045873813 0.019468427 0.041967113 -0.02754652
0.22069296 -0.025751079 0.12968159 0.07405322 -0.1176433 -0.046495035 -0.23151468 0.28965482
-0.22996485 -0.43271303 0.105826244 0.05544636 0.15057018 0.16115573 -0.14807992 0.03719847
-0.16479264 0.15058193 -0.0752358 0.031628203 0.25802422 0.033314694 -0.10967716 -0.16975537
0.10076308 -0.049165707 0.020882014 -0.046044037 -0.29635957 0.11135145 -0.3535635 -0.11684165
0.29164588 -0.18682522 0.12737893 0.029761331 0.07127016 -0.41106272 -0.21591288 -0.11800197
0.029951561 0.05549737 0.23495114 -0.026374154 0.1335861 -0.007966164 0.25231668 -0.100012824
-0.32292098 -0.07220156 -0.19348688 0.2301388 -0.11177408 -0.14023997 -0.024280721 0.2743905
0.3178013 -0.22401448 0.20222475 0.18342985 -0.39063773 -0.1454769 -0.11414264 0.0675782
0.29419637 0.33553383 0.09450254 0.08807721 0.011011693 -0.042158153 0.0795131 -0.059703503
0.055831317 0.10024457 0.21345054 0.008733476 0.06425566 -0.16799597 -0.02868133 0.07989947
-0.17554463 -0.17626978 0.01899124 -0.15308233 -0.3326362 -0.09605885 -0.022795437 0.39669082
-0.07464502 -0.25019765 0.2060694 0.08562972 -0.11302062 -0.059089493 -0.15074334 -0.03489309
0.023150876 0.02153781 0.10612265 -0.07629361 -0.15115014 0.075386606 0.15346019 -0.15486906
0.06374407 -0.21324638 -0.018310169 0.09289396 0.17240815 0.06008389 0.30115193 0.101022385
-0.31845996 0.420397 -0.16766472 0.06515782 -0.13871372 -0.41774377 0.19974145 -0.07140353
-0.13687648 0.24474971 0.31130508 0.060626637 0.08690766 -0.06806954 0.13405834 0.16256167
-0.123504244 0.097174294 -0.1538511 -0.009917793 0.009327971 -0.0018965381 0.09772612 -0.06101723
-0.19823644 -0.07769713 0.15101787 0.269444 -0.050135877 0.19224416 0.081620984 0.09760016
-0.2377135 -0.044480965 0.3799256 0.07267766 0.010891208 -0.23626195 -0.20386867 0.09446062
0.06253948 0.12058907 -0.24510734 0.28542754 0.0014357589 -0.019190462 -0.15105598 -0.0925905
-0.07707292 -0.08088795 -0.042735882 -0.36249113 0.07334602 0.20201127 -0.026996963 -0.024094295
-0.21697462 -0.058112662 -0.12547302 0.0896264 -0.10238278 0.1322818 0.008282421 -0.27286118
0.41990224 -0.23875222 -0.013874724 -0.24864349 -0.12609172 0.13315712 0.056628484 -0.104791656
-0.5006617 -0.08560211 0.11007888 -0.23843321 0.16545293 -0.07236297 0.04297051 0.19347964
0.0750147 0.12797031 0.042650845 0.47194362 0.11128776 -0.04262112 -0.014281562 0.25045288
-0.04443242 -0.06498524 0.24349324 -0.19433533 -0.23493381 0.4567194 0.17921154 0.09603846
00000000: 16c1 89be 43cb 913c 52c6 07be f9fb 4d3d
00000010: 53fa d2bd ddd8 53be a5ce 10be 06da c83d
00000020: 7c28 893e e67f fe3d 601d dcbd 05eb bebc
00000030: 9d62 4f3a 4241 10be 3757 6ebe c82a 163e
00000040: d8eb 663e 5bd9 2bbd 0ca4 c13a 969c 04bc
00000050: b830 113d c6f4 353e ab3e 69be e15c 4fbe
00000060: b0fe 39be dc59 393d 55be b53d 82a2 07be
00000070: 4339 003f c17e 423e 33a3 c73e 712c d7bd
00000080: 484d 793e 07b8 c73d 0302 9cbc 3bb5 40bd
00000090: 9813 7fbd 1009 aebd 65cc 9bbe 4d16 64be
000000a0: e56f 8cbd 76d3 5e3d 8110 e5bd 548d 4cbe
000000b0: 2ee6 3bbd 407c 9f3c b5e5 2b3d 3da9 e1bc
000000c0: 56fd 613e edf3 d2bc 40cb 043e 37a9 973d
000000d0: f8ee f0bd 9471 3ebd 2f12 6dbe a34d 943e
000000e0: e87b 6bbe 908c ddbe 6ebb d83d b91b 633d
000000f0: 122f 1a3e 0206 253e 43a2 17be 6c5d 183d
00000100: 67bf 28be 2632 1a3e 3a15 9abd 938c 013d
00000110: c01b 843e fd74 083d 6b9e e0bd 5ad4 2dbe
00000120: e05c ce3d fb61 49bd c210 ab3c ac98 3cbd
00000130: 71bc 97be 3b0c e43d 4606 b5be ad4a efbd
00000140: 9c52 953e 1c4f 3fbe 9f6f 023e 09ce f33c
00000150: 17f6 913d d076 d2be 4418 5dbe 04ab f1bd
00000160: fa5c f53c 3651 633d 0897 703e 9c0e d8bc
00000170: cbca 083e 8384 02bc a72f 813e 86d3 ccbd
00000180: e655 a5be 69de 93bd 6d21 46be 81a9 6b3e
00000190: cfe9 e4bd 119b 0fbe 5de8 c6bc e97c 8c3e
000001a0: dab6 a23e 0d64 65be 0114 4f3e 09d5 3b3e
000001b0: ab01 c8be e5f7 14be 9ec3 e9bd 7066 8a3d
000001c0: e8a0 963e 17cb ab3e 8c8a c13d d361 b43d
000001d0: 636a 343c 07ae 2cbd c4d7 a23d a98b 74bd
000001e0: 61af 643d 064d cd3d c792 5a3e da16 0f3c
000001f0: 7998 833d 2307 2cbe 1cf5 eabc 55a2 a33d
00000200: f9c1 33be 1180 34be 8493 9b3c 9dc1 1cbe
00000210: 4b4f aabe 81ba c4bd 7fbd babc 0f1b cb3e
00000220: 7ddf 98bd e819 80be db03 533e a25e af3d
00000230: 5b77 e7bd d307 72bd 765c 1abe 0fec 0ebd
00000240: e8a6 bd3c 1070 b03c d556 d93d d33f 9cbd
00000250: 1ac7 1abe 4b64 9a3d ab24 1d3e ff95 1ebe
00000260: 408c 823d 425d 5abe 35ff 95bc 303f be3d
00000270: c38b 303e 861a 763d 9630 9a3e d3e4 ce3d
00000280: 2f0d a3be 473e d73e 4db0 2bbe 7771 853d
00000290: f80a 0ebe 83e2 d5be 0689 4c3e 043c 92bd
000002a0: 5929 0cbe ab9f 7a3e 6163 9f3e a353 783d
000002b0: a5fc b13d 0b68 8bbd 9746 093e 9176 263e
000002c0: cbef fcbd 5103 c73d 258b 1dbe 3d7e 22bc
000002d0: 59d4 183c 4295 f8ba a224 c83d 34ed 79bd
000002e0: 7efe 4abe ac1f 9fbd 6ea4 1a3e 90f4 893e
000002f0: 475b 4dbd a7db 443e e728 a73d 98e2 c73d
00000300: 2b6b 73be ac31 36bd 9c85 c23e 06d8 943d
00000310: 0a71 323c a7ee 71be f3c2 50be 9274 c13d
00000320: b314 803d 67f7 f63d 6bfd 7abe 8f23 923e
00000330: 1330 bc3a 5135 9dbc 6bae 1abe 17a0 bdbd
00000340: 68d8 9dbd 95a8 a5bd d20b 2fbd 7098 b9be
00000350: 7036 963d 0bdc 4e3e bc28 ddbc 6661 c5bc
00000360: 982e 5ebe 8b07 6ebd 007c 00be 0c8e b73d
00000370: 10ae d1bd e174 073e feb2 073c 76b4 8bbe
00000380: 6dfd d63e 767b 74be cf52 63bc 669c 7ebe
00000390: 301e 01be 575a 083e 45f3 673d 029d d6bd
000003a0: 5d2b 00bf 2950 afbd 0971 e13d d627 74be
000003b0: 7e6c 293e 0933 94bd d801 303d 871f 463e
000003c0: 4fa1 993d a60a 033e a7b2 2e3d 98a2 f13e
000003d0: d6ea e33d 7c93 2ebd 36fd 69bc 5c3b 803e
000003e0: c5fe 35bd fb16 85bd 4b56 793e d7ff 46be
000003f0: 7d92 70be 20d7 e93e 3b83 373e d0af c43d

critic.0.bias f4 [64]
-0.018294023 -0.0142604085 0.03837537 -0.006676133 0.01326739 -0.0052672336 0.041521735 0.007463363
-0.039571412 0.033050008 0.04246203 0.018548138 0.0125843305 0.01033466 0.003410125 0.030908521
0.0 0.005678116 -0.00066245673 0.0029216064 -0.022255862 0.008154382 0.0 0.021177974
0.027358238 0.025443733 -0.0019359471 0.041667063 -0.03375213 0.0050720735 -0.013852607 0.0
-5.3291224e-06 0.008391415 0.00030290254 -2.1155357e-10 -0.026689796 -7.196552e-05 -0.011092391 0.01077743
-0.01910557 -0.008277083 0.011777695 -0.01854008 -0.0063105174 0.0 0.0 -0.009308357
0.0028541628 -0.00085005857 0.022185434 -0.0054672845 -0.0004027524 -0.005199517 -0.0024250706 0.0046928334
-0.017011514 0.015070512 0.0 -0.0020722284 0.006125187 -0.013863927 -0.043529972 -0.011171802
00000000: 59dd 95bc 7da4 69bc 7e2f 1d3d 76c3 dabb
00000010: 785f 593c c298 acbb b212 2a3d 3a8f f43b
00000020: a215 22bd 725f 073d aaec 2d3d 44f2 973c
00000030: 822e 4e3c b552 293c 677c 5f3b de33 fd3c
00000040: 0000 0000 7d0f ba3b b8a8 2dba 6c78 3f3b
00000050: ed51 b6bc f599 053c 0000 0000 6e7d ad3c
00000060: 621e e03c 606f d03c 9bbf fdba 15ab 2a3d
00000070: ac3f 0abd a333 a63b 0cf6 62bc 0000 0000
00000080: d0d0 b2b6 257c 093c e4ce 9e39 099b 68af
00000090: 8fa4 dabc 32ec 96b8 dcbc 35bc d193 303c
000000a0: 4983 9cbc 9a9c 07bc 3cf7 403c 5ee1 97bc
000000b0: 75c8 cebb 0000 0000 0000 0000 1482 18bc
000000c0: e80c 3b3b 77d6 5eba 3abe b53c e826 b3bb
000000d0: 8328 d3b9 b660 aabb efed 1ebb 57c6 993b
000000e0: bb5b 8bbc 4fea 763c 0000 0000 39ce 07bb
000000f0: cbb5 c83b 8625 63bc 7c4c 32bd ef09 37bc

critic.2.weight f4 [64, 64]
0.152787 0.1419261 -0.010372058 -0.3772684 0.06283748 -0.23406446 0.21167736 0.24411018
-0.24685259 0.26946452 -0.29866922 0.14415973 0.021929404 0.030406969 -0.18494153 -0.09697414
0.26631388 -0.006947064 -0.16241017 0.08364795 0.13574009 0.24474315 0.28724572 -0.27321348
-0.20815648 -0.03160517 -0.013055846 -0.3159464 0.18113288 -0.29437166 -0.07960487 0.045264382
-0.088090904 -0.22529937 0.18040857 0.054358754 -0.13608027 -0.08833938 -0.079952724 0.24726711
-0.28153244 0.1331467 -0.041746512 -0.20670684 -0.0980245 -0.1181579 0.30177566 0.16167197
0.01561734 -0.0027782149 -0.2739639 0.11351097 0.0332465 -0.28982803 -0.17330024 -0.1760059
-0.047327828 0.0373504 -0.015009014 -0.20988692 -0.016779453 0.093997285 -0.092308894 -0.09953246
-0.14329708 -0.2320724 -0.13970934 -0.10563218 0.124505356 -0.30858678 -0.09829832 0.464167
0.107244596 -0.1239557 -0.019561175 0.1197693 -0.06961588 -0.16728519 -0.04670541 0.15511686
-0.18460709 0.055228606 0.005015677 -0.015348884 -0.38643128 0.22462226 0.1412255 -0.13549308
-0.15131891 0.061716594 0.1991327 0.06992364 -0.064862214 0.44698644 -0.050854743 -0.16020201
0.030682107 0.006500109 0.05593214 -0.02728206 -0.14108652 -0.19228178 0.15635595 0.17836073
0.27049896 0.02705308 -0.09652927 0.19420703 0.05969435 0.11270509 0.36473128 -0.11920949
0.027733997 -0.19962734 -0.0008842269 0.19535136 -0.14581147 0.10278167 0.07516285 -0.083653726
-0.38774005 0.25905156 0.19416967 0.050459262 0.24466303 0.006757357 0.200324 0.22719613
0.10018649 -0.02535411 -0.012167864 0.14636607 -0.34342936 0.09421971 0.15981758 0.06746353
0.14856067 -0.08999757 -0.05156 0.21732724 -0.08688238 0.18665724 -0.0009589253 -0.29025927
-0.2490911 -0.17225474 0.27262953 -0.39480308 0.05202808 -0.14755946 0.36223182 0.28187776
0.3330669 0.23844188 -0.15252863 -0.12528268 -0.13143459 -0.270589 -0.11642609 0.056479253
-0.12637526 0.04103565 0.018845618 -0.09190983 -0.058876805 0.1735806 0.104868434 0.13216983
0.043178376 0.091563724 -0.11426861 -0.012918981 -0.23586167 -0.15056464 0.24615595 -0.023595564
0.28606564 -0.043555025 0.39177856 -0.014388938 -0.0018955343 -0.10091109 0.0350317 -0.1577111
-0.3469668 0.1795916 -0.063618615 -0.0698714 -0.018253451 0.07020805 0.035398796 -0.11219952
-0.17266539 0.014717625 0.025378175 -0.16828474 -0.0035241137 0.10845293 -0.03936473 0.13233194
0.040274017 -0.052083056 0.15756084 -0.20127942 -0.21352816 -0.41207418 0.12767597 -0.19010955
0.099810936 -0.28474647 0.16666749 -0.03990378 0.21184067 0.033661343 -0.026471961 -0.06028296
-0.03239391 0.24936624 -0.30593964 -0.0504143 -0.022673078 -0.019796025 -0.3501031 0.037422344
-0.037725247 -0.16701268 -0.09566641 0.1634635 0.22347334 -0.013035571 0.28897515 -0.19204848
0.17167652 -0.24999958 -0.03233197 0.16693163 0.013360791 0.19699314 0.2797168 0.11020089
0.19812013 -0.08844834 -0.31413716 -0.15169485 0.10018073 0.17000055 0.2627666 -0.23375088
0.3906731 0.09455566 0.26328632 -0.09197699 0.062067278 0.19626807 0.0050852015 -0.08729804
00000000: 3274 1c3e 1355 113e 90ef 29bc 5329 c1be
00000010: f0b0 803d 98ae 6fbe f3c1 583e 05f8 793e
00000020: edc6 7cbe 41f7 893e 2ceb 98be 9c9e 133e
00000030: 4ba5 b33c 0918 f93c 5061 3dbe 619a c6bd
00000040: 4b5a 883e 32a4 e3bb da4e 26be 9e4f ab3d
00000050: 73ff 0a3e f39d 7a3e df11 933e a3e2 8bbe
00000060: f926 55be 6c74 01bd 30e8 55bc bac3 a1be
00000070: e67a 393e e2b7 96be e107 a3bd 2567 393d
00000080: 0169 b4bd e1b4 66be 06bd 383e 49a7 5e3d
00000090: a058 0bbe 47eb b4bd 41be a3bd 9733 7d3e
000000a0: 0525 90be 9c57 083e 64fe 2abd f5aa 53be
000000b0: 12c1 c8bd c5fc f1bd 5782 9a3e 568d 253e
000000c0: dfdf 7f3c b612 36bb ff44 8cbe 7078 e83d
000000d0: 7b2d 083d 5764 94be 9e75 31be e43a 34be
000000e0: d3da 41bd bcfc 183d 5ee8 75bc 99ec 56be
000000f0: 1075 89bc a681 c03d 720c bdbd add7 cbbd
00000100: 78bc 12be 63a4 6dbe f70f 0fbe af55 d8bd
00000110: aafc fe3d 16ff 9dbe a150 c9bd 4ca7 ed3e
00000120: 0ea3 db3d 7cdc fdbd c23e a0bc 9b49 f53d
00000130: c592 8ebd cf4c 2bbe 2c4e 3fbd f4d6 1e3e
00000140: a409 3dbe 6437 623d 8c5a a43b e379 7bbc
00000150: 52da c5be 6103 663e 6b9d 103e b3be 0abe
00000160: 58f3 1abe 8aca 7c3d 71e9 4b3e 2034 8f3d
00000170: 7bd6 84bd 68db e43e 104d 50bd ff0b 24be
00000180: 0b59 fb3c defe d43b 1a19 653d a07e dfbc
00000190: fc78 10be 84e5 44be c61b 203e 32a4 363e
000001a0: d77e 8a3e 6c9e dd3c 23b1 c5bd 35de 463e
000001b0: 1082 743d edd1 e63d 0fbe ba3e 1b24 f4bd
000001c0: 6832 e33c 1c6b 4cbe 76cb 67ba 300a 483e
000001d0: 9a4f 15be 327f d23d fbee 993d a552 abbd
000001e0: dd85 c6be 68a2 843e 6ad4 463e 5fae 4e3d
000001f0: f288 7a3e d26c dd3b bc21 4d3e 1aa6 683e
00000200: 932e cd3d 6cb3 cfbc b85b 47bc fde0 153e
00000210: f9d5 afbe 43f6 c03d 38a7 233e 522a 8a3d
00000220: 4a20 183e a550 b8bd 9430 53bd 088b 5e3e
00000230: 64ef b1bd 1323 3f3e 6360 7bba dd9c 94be
00000240: bd11 7fbe 8c63 30be 1996 8b3e a123 cabe
00000250: 651b 553d d419 17be 7376 b93e 4852 903e
00000260: bf87 aa3e 1c2a 743e 7730 1cbe 1a4a 00be
00000270: ca96 06be a48a 8abe cd70 eebd ca56 673d
00000280: 8468 01be ff14 283d 2062 9a3c 393b bcbd
00000290: ce28 71bd 1dbf 313e 43c5 d63d 8757 073e
000002a0: cfdb 303d c385 bb3d a905 eabd 22aa 53bc
000002b0: b985 71be 9e2d 1abe 4e10 7c3e 7c4b c1bc
000002c0: 3277 923e c166 32bd 3397 c83e 95bf 6bbc
000002d0: 9473 f8ba 79aa cebd 667d 0f3d 057f 21be
000002e0: a2a5 b1be dce6 373e 7a4a 82bd bd18 8fbd
000002f0: 4388 95bc 3dc9 8f3d 54fe 103d ddc8 e5bd
00000300: 32cf 30be 3222 713c e4e5 cf3c d652 2cbe
00000310: d1f4 66bb 921c de3d e93c 21bd 0682 073e
00000320: 5ef6 243d 0b55 55bd a157 213e 311c 4ebe
00000330: 20a7 5abe 63fb d2be 7dbd 023e 14ac 42be
00000340: ad69 cc3d 4aca 91be e2aa 2a3e 2572 23bd
00000350: c3ec 583e 7ae0 093d badb d8bc 44eb 76bd
00000360: 7aaf 04bd dd59 7f3e 1fa4 9cbe 3a7f 4ebd
00000370: e4bc b9bc 462b a2bc b740 b3be 2c48 193d
00000380: ca85 1abd 5f05 2bbe c0ec c3bd fa62 273e
00000390: 32d6 643e 2693 55bc 8df4 933e 5ba8 44be
000003a0: f8cb 2f3e e4ff 7fbe 876e 04bd 20f0 2a3e
000003b0: 38e7 5a3c 92b8 493e 0a37 8f3e 01b1 e13d
000003c0: 01e0 4a3e 6724 b5bd 96d6 a0be e555 1bbe
000003d0: 8e2b cd3d a014 2e3e 5889 863e 645c 6fbe
000003e0: 4e06 c83e 66a6 c13d 77cd 863e 6f5e bcbd
000003f0: 423a 7e3d 7ffa 483e c3a1 a63b 51c9 b2bd

critic.2.bias f4 [64]
-0.0029389877 0.033393938 0.005048448 -0.0013285625 -0.010391151 0.017453425 -0.027540406 -0.013059812
0.015576707 0.01927663 0.05621794 0.0096672 -0.0001165507 0.0017004374 -0.00919944 -0.028966472
-0.024467349 0.0027677496 0.019489305 -0.009496936 -0.0068319915 -0.017662242 -0.031531975 -0.011730304
0.0024616325 -0.009263836 0.014255975 0.025933405 0.012663106 -0.013996324 -0.0019958417 -0.023369543
-0.015725471 0.012852319 -0.021560298 -0.009798934 0.0022692196 -0.00079328724 -0.031232594 0.016600326
0.013539992 -0.0071542137 0.028796596 0.029974295 0.031622678 -0.0050347997 0.013051325 0.00069012225
-0.015418787 -0.0068924027 -0.0040262872 0.013115453 0.022768233 -0.041618202 0.013510083 0.012330351
0.012110671 0.013936631 0.0063045328 0.009591429 0.01216539 0.0067286906 -0.029574914 0.022089466
00000000: 089c 40bb 15c8 083d 746d a53b 2923 aeba
00000010: a53f 2abc 7cfa 8e3c 6b9c e1bc d2f8 55bc
00000020: 7235 7f3c 06ea 9d3c c844 663d 2d63 1e3c
00000030: ae6c f4b8 36e1 de3a 3fb9 16bc 184b edbc
00000040: c06f c8bc 2263 353b 09a8 9f3c 0999 1bbc
00000050: e6de dfbb 68b0 90bc ac27 01bd 7630 40bc
00000060: 5753 213b 58c7 17bc e591 693c 4b72 d43c
00000070: eb78 4f3c d650 65bc abcc 02bb 7c71 bfbc
00000080: b4d2 80bc 8892 523c 399f b0bc b58b 20bc
00000090: 30b7 143b 9bf4 4fba 7fdb ffbc 68fd 873c
000000a0: d8d6 5d3c e56d eabb d7e6 eb3c a78c f53c
000000b0: c886 013d f6fa a4bb 3ad5 553c 52e9 343a
000000c0: 149f 7cbc aad9 e1bb f2ee 83bb 32e2 563c
000000d0: 7284 ba3c d977 2abd 6559 5d3c 3e05 4a3c
000000e0: d66b 463c 7856 643c 4196 ce3b 5e25 1d3c
000000f0: 5851 473c 597c dc3b 1747 f2bc f8f4 b43c

critic.4.weight f4 [1, 64]
0.057635687 -0.07624824 -0.0012110745 0.17841388 0.104077406 0.060783695 0.015738863 0.07394007
-0.12144118 -0.09654196 -0.1797056 0.34584594 -0.10658455 0.03324855 -0.10342307 0.037168924
0.18667276 -0.0067576626 -0.036629498 0.025073921 0.089902095 0.07457198 0.08066619 0.12048525
0.074625224 -0.06405689 -0.040845927 0.18476212 -0.190982 -0.035000164 -0.14091961 0.17761642
0.12162704 -0.20605676 0.16087787 0.021412015 -0.016987387 0.03568154 0.058643527 0.09397606
-0.17392135 0.088071994 -0.041959472 -0.091019236 -0.22051269 -0.029559486 -0.0078838365 -0.14612252
0.12601258 -0.065423734 0.15354143 -0.09933294 -0.031651907 0.056862745 -0.0890377 0.060517337
-0.1683093 -0.06479524 -0.11223201 -0.11362366 -0.04959123 -0.16039658 0.07276283 -0.08028818
00000000: 6613 6c3d 0a28 9cbd ebbc 9eba 21b2 363e
00000010: 8926 d53d 53f8 783d caee 803c e46d 973d
00000020: 27b6 f8bd cbb7 c5bd bf04 38be b812 b13e
00000030: 0049 dabd a22f 083d 79cf d3bd 713e 183d
00000040: 2527 3f3e 626f ddbb d008 16bd d367 cd3c
00000050: 971e b83d 32b9 983d 5134 a53d f9c0 f63d
00000060: 1cd5 983d 4230 83bd 0f4e 27bd 4832 3d3e
00000070: c990 43be 555c 0fbd 3b4d 10be 14e1 353e
00000080: 9917 f93d 8b00 53be 2bbd 243e 4068 af3c
00000090: 2229 8bbc ce26 123d 3234 703d 8576 c03d
000000a0: 7018 32be 175f b43d b2dd 2bbd 4b68 babd
000000b0: 14ce 61be bc26 f2bc 352b 01bc 24a1 15be
000000c0: 7109 013e e1fc 85bd f739 1d3e 126f cbbd
000000d0: 6ea5 01bd e9e8 683d 6659 b6bd 07e1 773d
000000e0: 4659 2cbe 5eb3 84bd e5d9 e5bd 85b3 e8bd
000000f0: 2c20 4bbd 003f 24be ae04 953d 216e a4bd

actor.0.weight f4 [64, 6]
-0.322118 0.18574446 -0.042713184 0.07302477 -0.391874 0.058529094 0.004487627 -0.16353321
0.0634815 -0.37285742 -0.02538096 0.09737145 0.14454786 0.16051039 -0.012418201 -0.19274084
-0.14257118 -0.045951802 -0.07628882 -0.10656343 -0.011872815 0.027523536 0.037248675 -0.34548804
0.2445067 0.098471634 -0.11987786 -0.06812804 -0.0042770444 0.068288244 0.00070929364 0.095884696
-0.057026517 -0.050723195 -0.08538359 -0.03631039 0.24997517 0.1892788 0.12689717 -0.18957165
0.19157046 -0.2463318 -0.03194467 -0.13741142 -0.21486944 0.35156614 0.033593606 0.060497683
-0.049304947 0.07547905 -0.42208362 -0.21325979 0.3496925 -0.037438717 0.113779746 -0.013530919
0.127303 0.016172064 -0.116091676 -0.27516946 0.0067672087 -0.12304266 -0.18008718 0.12840052
-0.2374046 -0.30866456 -0.049114183 0.03582514 0.15848303 -0.0555348 0.123935714 -0.14811525
0.2981921 0.08383685 0.068491705 -0.090399526 0.008552203 0.032552555 0.042290047 0.25842613
0.19817153 0.11025151 -0.023308506 0.119462624 -0.15870593 0.19606398 -0.29500577 0.047712084
0.14043224 0.21414421 -0.17649108 -0.3361273 0.11547711 -0.13575186 0.08289962 0.3322629
-0.14241843 -0.013563491 0.07111515 -0.009222077 0.44858286 0.060485158 -0.2883933 -0.14877954
0.10160011 0.04348254 -0.3614894 -0.08782564 0.0419349 0.010304678 -0.041680582 0.12484703
-0.03758297 -0.19758202 -0.08158003 0.39511672 0.108590096 -0.13592546 -0.18926425 -0.027814873
0.23223653 -0.14900523 0.122858755 0.1415214 -0.1282009 -0.075172134 -0.19978212 -0.11801082
0.0025826443 0.10432996 0.012504923 -0.48863307 0.14688055 0.034264825 -0.007368953 0.21873043
0.0010617108 -0.10666718 -0.11707313 -0.22748777 -0.039476708 -0.14961147 -0.22190554 0.055052567
-0.23758735 0.14792559 0.018282445 -0.17038062 -0.16705628 0.07026796 -0.108856216 0.15410286
0.08934258 -0.07326371 -0.08496619 0.060400788 0.3207125 -0.23627774 -0.5518438 -0.35808378
-0.15463398 -0.010359919 0.19283652 -0.23340446 -0.1421967 -0.025245791 0.19845004 -0.016828956
-0.017887078 0.057919458 -0.119315356 0.09281854 0.012292639 -0.25237638 -0.014405141 -0.39669248
-0.2441212 0.16473164 0.00846797 0.37966207 -0.14659905 0.14615442 -0.32036325 -0.3221351
0.04410034 -0.3564403 -0.188164 0.05331221 0.036492042 0.09707638 0.22893149 0.021600774
0.04998984 0.13681667 -0.1252691 0.11428962 -0.00902545 0.2111242 0.007806955 0.06582609
-0.13521552 -0.106616825 0.27263778 0.1908098 -0.022676617 0.03874969 -0.04054995 -0.14849545
-0.18053016 0.2648297 0.16373605 0.071190916 0.0498283 0.4244692 -0.20287287 -0.00731971
-0.19738334 -0.0038052846 -0.14127323 0.15079463 0.024524318 -0.10861233 0.28370088 0.2650287
-0.22819422 -0.15244164 -0.151427 0.17040724 0.16503672 0.3048949 0.1477563 0.074616775
0.06850369 0.3529623 -0.415218 0.118670635 0.35092965 0.2603188 0.06387251 -0.049715005
-0.00068136223 -0.20106067 0.058712047 -0.041758023 -0.10302665 0.17817135 0.32090837 0.037688747
-0.100563675 0.01750851 0.13989191 -0.031305302 0.07558383 -0.25817028 0.17574964 -0.22558993
00000000: a7ec a4be cc33 3e3e 05f4 2ebd 038e 953d
00000010: b5a3 c8be 34bc 6f3d f20c 933b 4075 27be
00000020: 9702 823d 2be7 bebe bbeb cfbc af6a c73d
00000030: 5b04 143e d65c 243e b675 4bbc db5d 45be
00000040: 2efe 11be f537 3cbd 503d 9cbd ed3d dabd
00000050: 3286 42bc 0a79 e13c 1192 183d cfe3 b0be
00000060: f75f 7a3e 7fab c93d 8682 f5bd b786 8bbd
00000070: 7326 8cbb b5da 8b3d e4ef 393a 325f c43d
00000080: a394 69bd 20c3 4fbd 97dd aebd 34ba 14bd
00000090: 7ef9 7f3e 4dd2 413e 55f1 013e 121f 42be
000000a0: 0c2b 443e 673e 7cbe 6ad8 02bd 94b5 0cbe
000000b0: bc06 5cbe 7a00 b43e 7399 093d 6bcc 773d
000000c0: fcf3 49bd c394 9a3d 581b d8be c660 5abe
000000d0: e50a b33e 5759 19bd 5b05 e93d cab0 5dbc
000000e0: b85b 023e 477b 843c 79c1 edbd 03e3 8cbe
000000f0: 76bf dd3b cafd fbbd c668 38be 6d7b 033e
00000100: 311a 73be 4809 9ebe f42b 49bd 62bd 123d
00000110: 6049 223e 7578 63bd 02d2 fd3d 86ab 17be
00000120: a3ac 983e a8b2 ab3d 6145 8c3d 6323 b9bd
00000130: 8a1e 0c3c d455 053d 5438 2d3d 6e50 843e
00000140: 7aed 4a3e 8bcb e13d 7bf1 bebc d2a8 f43d
00000150: cf83 22be ffc4 483e ff0a 97be bf6d 433d
00000160: 78cd 0f3e 9f48 5b3e 14ba 34be e118 acbe
00000170: 437f ec3d 8902 0bbe 47c7 a93d 5d1e aa3e
00000180: 23d6 11be 6839 5ebc d2a4 913d 3218 17bc
00000190: a7ac e53e 49bf 773d 49a8 93be aa59 18be
000001a0: b813 d03d bf1a 323d 2315 b9be eedd b3bd
000001b0: eec3 2b3d f4d4 283c 42b9 2abd cdaf ff3d
000001c0: 9af0 19bd f152 4abe 6e13 a7bd bd4c ca3e
000001d0: 7c64 de3d 0b30 0bbe 7dce 41be 04dc e3bc
000001e0: 6acf 6d3e d494 18be 5f9d fb3d fcea 103e
000001f0: 1947 03be d9f3 99bd af93 4cbe a8af f1bd
00000200: 9541 293b f2aa d53d 73e1 4c3c 1d2e fabe
00000210: db67 163e 4659 0c3d 4277 f1bb dffa 5f3e
00000220: 1a29 8b3a 5374 dabd 0ac4 efbd 8ef2 68be
00000230: 54b2 21bd c033 19be 353b 63be cd7e 613d
00000240: 194a 73be ce79 173e 11c5 953c 4278 2ebe
00000250: cd10 2bbe a6e8 8f3d 02f0 debd 24cd 1d3e
00000260: 3ef9 b63d 490b 96bd c102 aebd d166 773d
00000270: 6e34 a43e cbf2 71be a345 0dbf c256 b7be
00000280: 5f58 1ebe a6bc 29bc f076 453e 9401 6fbe
00000290: 039c 11be 43d0 cebc 7d36 4b3e e1dc 89bc
000002a0: ec87 92bc f43c 6d3d 9c5b f4bd a617 be3d
000002b0: 1167 493c 7a37 81be 8a03 6cbc 471b cbbe
000002c0: e8fa 79be 69af 283e 3ebd 0a3c 1163 c23e
000002d0: 101e 16be 81a9 153e a706 a4be e4ee a4be
000002e0: 8fa2 343d 587f b6be 10ae 40be e75d 5a3d
000002f0: ae78 153d fbcf c63d 046d 6a3e 1bf4 b03c
00000300: 25c2 4c3d ab19 0c3e 8b46 00be ad10 ea3d
00000310: 7bdf 13bc f130 583e 7cd1 ff3b d4cf 863d
00000320: f075 0abe ec59 dabd 2e97 8b3e a563 433e
00000330: 50c4 b9bc ffb7 1e3d b417 26bd 310f 18be
00000340: e6dc 38be c297 873e 6caa 273e 8bcc 913d
00000350: c218 4c3d 0754 d93e e8bd 4fbe 2eda efbb
00000360: dc1e 4abe 1562 79bb eea9 10be e869 1a3e
00000370: 39e7 c83c 2470 debd 3e41 913e d7b1 873e
00000380: bfab 69be a919 1cbe ae0f 1bbe 3c7f 2e3e
00000390: 63ff 283e 2f1b 9c3e 6d4d 173e aed0 983d
000003a0: aa4b 8c3d 79b7 b43e 7497 d4be 9709 f33d
000003b0: 0dad b33e 8148 853e 97cf 823d f6a1 4bbd
000003c0: 729d 32ba d9e2 4dbe 0b7c 703d 760a 2bbd
000003d0: a3ff d2bd 8d72 363e 1a4e a43e 845f 1a3d
000003e0: 54f4 cdbd 026e 8f3c d33f 0f3e fd39 00bd
000003f0: b2cb 9a3d e52e 84be b7f7 333e 0c01 67be

actor.0.bias f4 [64]
-0.01318378 0.021624643 -0.049096666 -0.0032275359 0.0004569094 -0.03624282 -0.022725945 0.039366674
0.015776174 -0.014370714 -6.730338e-08 0.012061524 2.6599469e-06 0.0030385884 0.0037109721 -0.004301194
-0.030382754 0.0 -0.10172634 -0.050436947 -0.0021163027 -1.03436584e-07 0.023745194 -0.008386218
0.004431361 -0.0351893 0.02992633 0.012202664 -0.02918268 0.027678676 0.022283593 0.034482066
0.00020455864 0.0 0.026646867 -0.030630888 -0.029194806 -0.0019378535 0.0 -0.0015781573
0.019946301 0.06406313 -0.020006347 0.0074308235 0.0 0.036794115 0.0012009367 -0.021029249
-0.003299411 0.03378272 0.008856045 0.043954566 0.032254588 -0.0042228806 -0.06247284 0.045625206
-0.019126585 0.01864926 3.2112198e-06 0.040248767 0.013663563 -0.02544508 0.0 2.887993e-07
00000000: c800 58bc 2a26 b13c 9619 49bd 1185 53bb
00000010: 578d ef39 5a73 14bd c32b babc f33e 213d
00000020: 093d 813c 2573 6bbc 6d88 90b3 b39d 453c
00000030: 8a81 3236 0e23 473b c833 733b 08f1 8cbb
00000040: 41e5 f8bc 0000 0000 e655 d0bd f996 4ebd
00000050: abb1 0abb dd20 deb3 4885 c23c 5966 09bc
00000060: f334 913b a822 10bd 1028 f53c afed 473c
00000070: 8410 efbc 64be e23c 158c b63c 113d 0d3d
00000080: cb7e 5639 0000 0000 884a da3c a1ed fabc
00000090: f229 efbc 93ff fdba 0000 0000 2cda ceba
000000a0: 6d66 a33c 8833 833d 5ae4 a3bc 447e f33b
000000b0: 0000 0000 6db5 163d c068 9d3a 8845 acbc
000000c0: ee3a 58bb c05f 0a3d f218 113c b409 343d
000000d0: 631d 043d 1760 8abb 85e3 7fbd 7fe1 3a3d
000000e0: 5baf 9cbc 55c6 983c 5680 5736 e4db 243d
000000f0: 23dd 5f3c 3372 d0bc 0000 0000 460c 9b34

actor.2.weight f4 [64, 64]
0.0324471 -0.059782654 -0.15612969 -0.067494676 -0.062080193 0.23828804 0.03654548 -0.20837753
0.07861961 0.015172248 0.20594946 0.10521793 -0.06160597 0.06140916 -0.08490296 0.03005296
0.0030396734 0.33880258 -0.07041186 -0.2078205 -0.21508366 -0.07756309 0.149589 -0.061648365
-0.19397758 -0.47269106 -0.05310814 0.27299595 0.080390625 0.0036105681 -0.12772322 0.3492312
0.21252376 -0.002452633 0.5498442 0.2070737 0.19694996 -0.21925606 0.027596371 0.023389978
0.38859153 -0.016323768 -0.08390847 -0.13096339 -0.08819861 0.10095383 -0.019586297 0.1626895
-0.05548888 -0.13822661 -0.11378653 0.072137415 -0.1064272 0.16531987 0.1596947 0.056255523
0.09059399 0.13163249 0.007906085 0.4581492 0.027399935 0.18645433 0.07294633 -0.16042513
0.24374883 0.15351404 -0.0322057 -0.008796876 -0.09502845 -0.060142707 0.087659635 0.07905389
-0.07432831 -0.062415775 -0.29866767 0.23709892 0.15683912 -0.19255109 -0.13978076 0.057002634
0.037414987 0.16311122 -0.16354392 0.22969511 -0.0067317327 0.026666446 0.051712643 -0.12323921
-0.06499307 0.047501523 0.07203114 0.23644924 0.040968016 -0.25736243 0.18166701 0.3505192
-0.47887707 0.26776254 0.17489812 -0.036171384 0.109059565 -0.2819175 -0.07514294 0.06013854
-0.1640512 0.114207104 -0.017157666 0.09972102 0.04858904 -0.44693607 -0.083833545 -0.24679342
0.19897223 0.09980146 -0.11437219 0.060233153 0.2789187 0.15340798 0.052891888 -0.26019454
0.19672067 -0.13069649 -0.2363349 0.2333692 -0.1428657 -0.17111157 -0.32229444 -0.21268417
0.06384122 0.30837104 0.020209713 0.06666824 0.15624079 -0.031614702 0.010665051 0.24287869
-0.27703035 -0.29364705 0.27203587 -0.18716182 -0.08626724 -0.004510595 0.30295825 -0.18168482
0.113431066 -0.005359286 -0.37551332 -0.044604182 -0.14817986 -0.20775065 0.052425012 -0.2343521
0.049722765 -0.06545123 -0.029258497 -0.19814605 -0.40270126 -0.25498968 -0.0045465194 0.2541135
-0.13237333 0.26726022 0.33409032 -0.19089124 -0.18424256 0.15104146 0.037134327 0.06728215
0.32047018 0.07397915 0.046950135 0.092212506 0.027018072 -0.04556489 -0.047814336 -0.13531391
-0.09987798 -0.23507878 0.093452655 -0.07229067 0.2642492 -0.16308437 -0.19127329 0.11213779
0.20283942 0.10363486 0.33747277 -0.14787725 -0.24440423 0.1750322 -0.010479056 0.20412508
0.31631973 0.26240999 -0.4388689 -0.049915288 -0.00808124 0.18107039 -0.124751106 0.05470794
0.23761185 0.15358287 -0.21918806 -0.24750644 0.10311685 0.102323204 -0.23840842 0.13874629
-0.083973266 0.0892451 0.026936945 -0.1493488 -0.013002304 -0.34423023 -0.14553744 0.061605386
0.3367923 0.11880181 -0.13780239 -0.48862082 0.0062249405 -0.052657086 0.089368716 -0.0031746936
0.03157944 -0.16719347 0.08774423 -0.11348059 -0.02849158 -0.030206317 0.01478682 0.16387072
0.07586921 -0.08514064 0.31198797 -0.07391416 -0.032594718 0.061716054 0.0234471 -0.0967161
0.05929622 -0.19482447 -0.2653196 -0.34189212 -0.025424214 -0.012312689 0.15360807 0.10714804
-0.27263767 0.24285701 -0.20848551 -0.07193006 -0.18673417 -0.2964668 -0.08963979 -0.26350385
00000000: 40e7 043d a8de 74bd 76e0 1fbe a63a 8abd
00000010: cd47 7ebd c801 743e b7b0 153d eb60 55be
00000020: 5103 a13d 0595 783c 6ae4 523e 807c d73d
00000030: 8b56 7cbd 2c88 7b3d 9ae1 adbd a031 f63c
00000040: 4235 473b 8877 ad3e 1834 90bd e6ce 54be
00000050: e43e 5cbe 66d9 9ebd dc2d 193e ff82 7cbd
00000060: 0fa2 46be 9004 f2be ec87 59bd 20c6 8b3e
00000070: d7a3 a43d 489f 6c3b e0c9 02be 6fce b23e
00000080: d49f 593e 5bbc 20bb 97c2 0c3f 210b 543e
00000090: 40ad 493e a984 60be c911 e23c 579c bf3c
000000a0: 78f5 c63e 6cb9 85bc 34d8 abbd 441b 06be
000000b0: 79a1 b4bd e2c0 ce3d 7173 a0bc 1498 263e
000000c0: 4f48 63bd 478b 0dbe ea08 e9bd c8bc 933d
000000d0: 81f6 d9bd 9d49 293e 0287 233e 316c 663d
000000e0: 5889 b93d abca 063e 8688 013c 8892 ea3e
000000f0: d475 e03c e2ed 3e3e e364 953d 7c46 24be
00000100: 4b99 793e c932 1d3e 20ea 03bd c620 10bc
00000110: 479e c2bd 3358 76bd e586 b33d 02e7 a13d
00000120: 7139 98bd afa7 7fbd f8ea 98be 0fca 723e
00000130: 6f9a 203e 1d2c 45be b022 0fbe 987b 693d
00000140: 7540 193d a106 273e 0f78 27be 3235 6b3e
00000150: de95 dcbb 9773 da3c a3d0 533d d764 fcbd
00000160: 161b 85bd f590 423d 1085 933d c01f 723e
00000170: 14ce 273d 02c5 83be eb06 3a3e 4177 b33e
00000180: 602f f5be 2c18 893e 7e18 333e 7228 14bd
00000190: 9f5a df3d 7e57 90be 8be4 99bd d453 763d
000001a0: 0afd 27be 6ae5 e93d 3c8e 8cbc 893a cc3d
000001b0: 4d05 473d ced4 e4be ecb0 abbd 6ab7 7cbe
000001c0: 60bf 4b3e b564 cc3d f73b eabd 0ab7 763d
000001d0: 6fce 8e3e fb16 1d3e 2aa5 583d 3838 85be
000001e0: 2571 493e 4dd5 05be c701 72be 56f8 6e3e
000001f0: 634b 12be df37 2fbe c703 a5be e1c9 59be
00000200: 30bf 823d cfe2 9d3e d78e a53c 5c89 883d
00000210: 96fd 1f3e 6b7e 01bd 77bc 2e3c 31b5 783e
00000220: ecd6 8dbe e858 96be 4948 8b3e 59a7 3fbe
00000230: e1ac b0bd 9dcd 93bb 581d 9b3e 960b 3abe
00000240: 8c4e e83d f39c afbb 4843 c0be e0b2 36bd
00000250: 76bc 17be 96bc 54be 9cbb 563d fff9 6fbe
00000260: 19aa 4b3d 4b0b 86bd 84af efbc cce6 4abe
00000270: dc2e cebe 028e 82be f8fa 94bb 2a1b 823e
00000280: e08c 07be 55d6 883e e30d ab3e fe78 43be
00000290: 15aa 3cbe 9daa 1a3e 2a1a 183d 39cb 893d
000002a0: ab14 a43e 6182 973d c94e 403d e9d9 bc3d
000002b0: 0155 dd3c 40a2 3abd f7d8 43bd bb8f 0abe
000002c0: d48c ccbd 7eb8 70be 1b64 bf3d 210d 94bd
000002d0: ac4b 873e 97ff 26be 25dd 43be 7fa8 e53d
000002e0: 23b5 4f3e 833e d43d 3bc9 ac3e 226d 17be
000002f0: 1a45 7abe a43b 333e 59b0 2bbc 2a06 513e
00000300: a9f4 a13e 9a5a 863e 6db3 e0be f973 4cbd
00000310: 2d67 04bc 846a 393e 827d ffbd 6f15 603d
00000320: 8550 733e d444 1d3e d672 60be 5472 7dbe
00000330: ed2e d33d d48e d13d 5621 74be 8213 0e3e
00000340: 2dfa abbd 23c6 b63d deaa dc3c e4ee 18be
00000350: 9e07 55bc f23e b0be c407 15be ee55 7c3d
00000360: 0a70 ac3e 5d4e f33d 121c 0dbe 822c fabe
00000370: 96fa cb3b f5ae 57bd f206 b73d 850e 50bb
00000380: 7159 013d c434 2bbe 3fb3 b33d 8368 e8bd
00000390: 2d67 e9bc 3d73 f7bc 6b44 723c bacd 273e
000003a0: 5161 9b3d 375e aebd e3bc 9f3e 4f60 97bd
000003b0: 0a82 05bd f9c9 7c3d 2214 c03c 1713 c6bd
000003c0: 98e0 723d 1180 47be f8d7 87be 7c0c afbe
000003d0: 7146 d0bc 29bb 49bc 6f4b 1d3e 6e70 db3d
000003e0: 2a97 8bbe 82af 783e 3a7d 55be 1150 93bd
000003f0: 3e37 3fbe 7fca 97be 1195 b7bd fae9 86be

actor.2.bias f4 [64]
-0.037530426 -0.023852803 -0.013435447 -0.02511277 -0.038321864 -0.004621268 0.017267115 -0.0071665933
-0.07116831 0.00072949607 -0.048187327 0.028551651 -0.0009248052 0.0015011589 -0.013906166 0.0064355712
-0.067636415 0.054401066 0.03253726 0.06008065 0.013310584 -0.0008916548 -0.019404093 0.03898636
-0.0069296407 0.028574174 -0.03717495 0.03278537 -0.0031653442 0.0038314175 -0.050660428 0.01590451
-0.030964077 0.0027278778 -0.0052301064 0.046232898 -0.022344638 -0.03250873 0.0066677453 0.014371746
-0.040060982 -0.036257852 0.041583158 -0.02148243 0.0018556988 -0.014455563 -0.02463336 0.0072820727
-0.009055477 0.01222062 0.0021651788 0.010188064 0.051652826 0.024186756 0.020998323 0.007940006
0.011479424 -0.033429656 0.03624172 -0.024529438 0.038987968 -0.026032168 0.024839135 -0.019180823
00000000: 81b9 19bd f466 c3bc 5920 5cbc 4cb9 cdbc
00000010: 63f7 1cbd 016e 97bb c473 8d3c bed5 eabb
00000020: b1c0 91bd a73b 3f3a 1360 45bd 27e5 e93c
00000030: a06e 72ba 89c2 c43a b0d6 63bc 7ce1 d23b
00000040: f684 8abd a7d3 5e3d ca45 053d 2117 763d
00000050: a314 5a3c f1bd 69ba 55f5 9ebc 29b0 1f3d
00000060: 0a12 e3bb 6314 ea3c c344 18bd f449 063d
00000070: aa71 4fbb 8518 7b3b 4f81 4fbd 2d4a 823c
00000080: 60a8 fdbc 32c6 323b 5061 abbb b55e 3d3d
00000090: 1a0c b7bc e027 05bd 1a7d da3b 7977 6b3c
000000a0: fc16 24bd 1d83 14bd 1a53 2a3d ecfb afbc
000000b0: eb3a f33a 07d7 6cbc e6cb c9bc 749e ee3b
000000c0: 6c5d 14bc ff38 483c ace5 0d3b d6eb 263c
000000d0: ea91 533d 4e23 c63c ad04 ac3c cd16 023c
000000e0: 3214 3c3c 89ed 08bd 3372 143d f6f1 c8bc
000000f0: d9b1 1f3d 6a41 d5bc 717b cb3c 1a21 9dbc

actor.4.weight f4 [2, 64]
0.027746646 0.060092777 0.048688244 0.02768148 -0.034228846 0.047968894 -0.0002932728 0.04855561
0.094349585 0.017778823 0.05086833 -0.072056904 0.0029555308 0.09815167 0.09337773 0.0052737994
0.09696709 -0.07319366 -0.09811863 0.0029560404 -0.046825252 0.044372406 0.095675714 0.07838466
0.022332732 0.02153746 0.042654037 -0.06703657 0.0683106 -0.042362574 0.029388985 0.032846067
0.033867776 -0.02096625 -0.0075253937 -0.06359717 0.0076782634 0.055533215 -0.028720146 0.11552136
0.023215212 -0.0062911767 -0.02659951 0.036115803 0.02252908 0.039194867 -0.08710659 0.014020516
-0.023856035 0.015578314 0.03856451 0.0027229784 -0.021626586 -0.075409636 0.018735167 0.10747332
-0.029169394 0.05650611 -0.105568305 0.026616234 0.041848216 0.055942137 0.023177002 -0.1063121
-0.028994907 -0.061142795 -0.051091395 -0.027093038 0.03492577 -0.04604146 -0.0016623181 -0.05062436
-0.09370418 -0.01384391 -0.053516 0.0724069 -0.004781338 -0.09637562 -0.09263323 -0.001377553
-0.09682222 0.074749745 0.09783529 -0.0038032797 0.04814987 -0.045950033 -0.09346391 -0.080789156
-0.021932842 -0.02208266 -0.042741816 0.069157 -0.070245266 0.041875295 -0.029209072 -0.030832589
-0.03391303 0.020250753 0.006732238 0.059575595 -0.006552877 -0.05498001 0.027374879 -0.11435924
-0.022688696 0.009237183 0.0271674 -0.039844237 -0.021428645 -0.04165591 0.08612224 -0.013721448
0.024850316 -0.01455874 -0.038173992 -0.0032465921 0.019845348 0.07705831 -0.01862786 -0.108805865
0.029920014 -0.05425475 0.107774295 -0.025744516 -0.046935067 -0.05583667 -0.024334647 0.10685785
00000000: ef4c e33c d823 763d 536d 473d 45c4 e23c
00000010: 8c33 0cbd 087b 443d 69c2 99b9 3fe2 463d
00000020: 5b3a c13d e5a4 913c 4f5b 503d 9292 93bd
00000030: 94b1 413b be03 c93d d33c bf3d d6cf ac3b
00000040: af96 c63d 8fe6 95bd 6cf2 c8bd 21ba 413b
00000050: d6cb 3fbd d7bf 353d a1f1 c33d 2388 a03d
00000060: 22f3 b63c 546f b03c 00b6 2e3d 784a 89bd
00000070: 6ee6 8b3d 6184 2dbd 2bc1 f03c 9989 063d
00000080: f0b8 0a3d 6ac1 abbc 9497 f6bb 3c3f 82bd
00000090: f199 fb3b cc76 633d 8346 ebbc 7696 ec3d
000000a0: d42d be3c 3726 cebb 37e7 d9bc 2aee 133d
000000b0: e88e b83c cc8a 203d f164 b2bd 4eb6 653c
000000c0: bb6d c3bc 2f3c 7f3c d2f5 1d3d ff73 323b
000000d0: 3d2a b1bc 5e70 9abd 7e7a 993c f91a dc3d
000000e0: a7f4 eebc f372 673d 3234 d8bd 4a0a da3c
000000f0: 0969 2b3d 9523 653d b2dd bd3c 29ba d9bd
00000100: ba86 edbc de70 7abd 3645 51bd 38f2 ddbc
00000110: 530e 0f3d f895 3cbd 24e2 d9ba 7d5b 4fbd
00000120: fae7 bfbd 91d1 62bc 9833 5bbd 124a 943d
00000130: c5ac 9cbb 9560 c5bd 7eb6 bdbd 028f b4ba
00000140: ba4a c6bd 6516 993d de5d c83d 7240 79bb
00000150: cc38 453d 1a36 3cbd 026a bfbd c974 a5bd
00000160: 81ac b3bc b2e6 b4bc 0b12 2fbd 2fa2 8d3d
00000170: c0dc 8fbd 6e85 2b3d dd47 efbc a094 fcbc
00000180: 64e8 0abd e8e4 a53c 1b9a dc3b 8a05 743d
00000190: 84b9 d6bb b832 61bd 4841 e03c 2d35 eabd
000001a0: a5dd b9bc 8e57 173c 2b8e de3c b633 23bd
000001b0: 208b afbc 639f 2abd db60 b03d edcf 60bc
000001c0: e492 cb3c c887 6ebc 555c 1cbd c7c4 54bb
000001d0: b692 a23c bfd0 9d3d 7499 98bc 9cd5 debd
000001e0: d11a f53c 3b3a 5ebd c5b8 dc3d 2ae6 d2bc
000001f0: fc3e 40bd feb4 64bd 7459 c7bc 4ad8 da3d

actor.4.bias f4 [2]
-0.010582314 0.010582306
00000000: 7161 2dbc 6961 2d3c
