python/pong/policies/test.pt (torch, 40919 bytes, 11 tensors)

critic.0.weight f4 [64, 6]
00000000: 2bae 83be 06fa 1d3d d934 1cbe 5fd3 283d
00000010: 0098 abbd bc31 41be 95d7 c2bb 5cd4 883d
00000020: 928a 4abf d344 493e 2582 cdbb a906 85bd
00000030: 8cff c83d 05d5 08be 1259 dbbe a75f 323d
00000040: 8b2e 923e 5906 d6bd 5b53 3bbb a747 15bc
00000050: 58b5 ef3c 4485 393e b292 62be 5ce0 50be
00000060: cbc9 60be c865 f33d fdc9 01bf 95a7 08bf
00000070: 9af6 a93e 0fa7 5b3e b969 9d3d eed4 a3bd
00000080: 3522 d13f a829 97be b7d0 063c 8add 703c
00000090: b8c8 d8bd 9a28 ff3d 8558 8bbf 70e8 23be
000000a0: be29 b53b 7643 b63c be25 1dbd 77b4 cdbd
000000b0: 93fc 5bbe 9c9e b0be e9bc 493e b00a cf3d
000000c0: ff7b 15be da00 073c 9974 cc3f f90b fabe
000000d0: 4dc4 0e3e cb04 cfbd 8abc 68be c454 7d3e
000000e0: a4c6 e4be 6666 edbe 63e1 cf3e 4383 6ebd
000000f0: 1967 a73c 1bdd 7fbd 3f1f 8fbe 64dd 913e
00000100: 1d89 ddbe 0082 853d 0b4d e8bd 7c6f 0c3c
00000110: 1174 913e 3578 163d 115d 09be 3493 53be
00000120: efdb 893d 07cb c8bd bebc 723f a307 a93f
00000130: 87a8 88be 3b37 e63d ae87 d7be cca7 4ebe
00000140: 4ef4 ab3e 7b8f 24be 939d f73c 2d28 8cbd
00000150: 36ec 44bd 1fba eabe a6ae 99be 1b0b 24be
00000160: af86 463b 510b 943a 05db 1d3e 2bb1 82bd
00000170: 4e9b 733f 5e07 58bf 10e9 dc3d f100 a4bd
00000180: 1756 a5be a6de 93bd 5921 46be 5aa9 6b3e
00000190: 4feb e4bd 0d9b 0fbe 66b8 b1bb 3b30 a23e
000001a0: 49cf c33d b83c 71be ba8b a93e 9873 893e
000001b0: ef28 8bbe 320d d83b a6d9 b1be 5cea 6f3f
000001c0: c303 ba3c 1bc7 013f 1325 cf3c d50e 373d
000001d0: 2a8b 9e3e c0cf 003e be0e e5bb d278 0dbd
000001e0: 3618 873c b1f0 173e c1f0 d43f 99f8 4abe
000001f0: c3bb fe3a a721 17be eae0 febd c112 1a3e
00000200: 7cf9 e8be 021f 00be 1b4c 7cbd 165e b3bd
00000210: 584f aabe deba c4bd 45bd babc 0b1b cb3e
00000220: 2be0 98bd fa19 80be 2f12 323d 99ed 363d
00000230: fd94 793e 5fae ae3c 16d3 b2ba 2851 47bd
00000240: 0574 013e 1fe4 b03c a37c 703e 1452 793e
00000250: d11d 06be 4043 843d b766 673c 499f 2bbe
00000260: 52d6 d63f b7b7 b4bf c3cd 1cbc 8916 263e
00000270: 1adf 6c3d aa07 1bbe 7699 233f 5cf9 b53d
00000280: a0d4 98be e6b6 8a3e 2716 adbe 16e9 193d
00000290: 6bb6 ffbd daf8 b7be 2580 2dbd e922 c1bd
000002a0: a12b d1bd 43fd 643e 2bd8 c53e 26fc a03f
000002b0: 6ae4 1abc 6783 fabd ea4a 273e 8e21 3f3e
000002c0: 5540 eb3d d891 373e 81ed 19be b298 08bd
000002d0: 2a77 a4bc 6fab bbbc 14cc a33d f26a cbbd
000002e0: d76a 5cbe b512 abbd 6e1e 1b3e a869 893e
000002f0: b25b 4dbd 8cdb 443e 3764 a73d 36bf c53d
00000300: 1b2e 77be 726b 4dbd d115 c43e 7776 993d
00000310: 661d a4ba 693e 78be e416 8c38 267d 7e3e
00000320: be8e 8bbe 1a5c 293f 616f b7be ae53 a23e
00000330: 01cb ab3b d9ab 32bc ec16 2bc0 cd63 023d
00000340: cfd1 873c ea2c b6ba 6909 2fbd b198 b9be
00000350: f836 963d dfdb 4e3e f029 ddbc 5962 c5bc
00000360: 2cc4 03bc 6f75 1dbe cfb4 58be d20d a83c
00000370: 9eed 37bb d521 293e 5491 90bb bde6 95be
00000380: 540d f23e 0a59 b2be 8f75 52bc 2de5 78be
00000390: da5a d23d 7ee0 bf3d dd07 73bf b14a eb3b
000003a0: adb6 0bbf 4356 06be b8d8 9ebd a130 b7be
000003b0: 7172 6d3f 6f81 3dbf 7fd1 ddbd b71d da3d
000003c0: 0ac0 253d 71e2 593d 26b2 e33f 5644 09bf
000003d0: e7e5 f63c 6e2b b1bd 0963 163e bd81 aa3e
000003e0: ccdd fbbd 7396 49bd d215 a83e b8c0 6fbd
000003f0: c112 aabe 258a 8a3e a7c6 61bf 9bac 00be
-0.25718817 0.03856852 -0.15254535 0.041217204 -0.08378601 -0.18866628 -0.0059461095 0.06681129
-0.7911769 0.1965516 -0.006271618 -0.06495411 0.09814367 -0.1336251 -0.42841393 0.043548252
0.28551134 -0.104504295 -0.002858362 -0.0091113215 0.029261276 0.18117243 -0.22126272 -0.20398086
-0.21951978 0.118846476 -0.50698835 -0.5338071 0.33195955 0.21450447 0.076861806 -0.079995975
1.6338564 -0.2952397 0.008228472 0.0147012565 -0.10585159 0.12458916 -1.0886389 -0.16006637
0.0055286577 0.022248965 -0.038366072 -0.100441866 -0.21483068 -0.3449601 0.1970097 0.1010946
-0.14598082 0.008239949 1.5973083 -0.4883726 0.1394207 -0.10108336 -0.22728172 0.24739367
-0.446828 -0.46367186 0.40601644 -0.05823065 0.020434903 -0.062466722 -0.27953526 0.2848922
-0.43268672 0.06518936 -0.1134282 0.008571502 0.28408864 0.036735732 -0.13414408 -0.20661622
0.06731402 -0.098043494 0.9481925 1.3205456 -0.26691076 0.11241003 -0.42095703 -0.20181197
0.33584827 -0.16070358 0.030226504 -0.068436004 -0.04807683 -0.45845124 -0.3001606 -0.16019861
0.003029268 0.0011294876 0.1541558 -0.06381448 0.9515885 -0.8438624 0.10786641 -0.08007992
-0.32292244 -0.07220201 -0.19348659 0.23013821 -0.11177694 -0.14023991 -0.0054235933 0.31677422
0.09561021 -0.23558319 0.33114415 0.26846004 -0.27179667 0.00659337 -0.34736365 0.9371698
0.022706872 0.50694436 0.025286233 0.04469188 0.3096555 0.1257925 -0.006990283 -0.03453905
0.016491037 0.1483791 1.6635972 -0.19821395 0.001943462 -0.14758931 -0.12445243 0.15046217
-0.4550284 -0.12511829 -0.061596017 -0.0875818 -0.3326366 -0.096059546 -0.022795329 0.3966907
-0.07464632 -0.2501982 0.043474372 0.044660185 0.24373241 0.021323381 -0.0013643231 -0.04866138
0.12641914 0.021593152 0.23485045 0.24347717 -0.13097312 0.064581394 0.01412361 -0.16759981
1.6784155 -1.4118565 -0.009570542 0.16219534 0.057829954 -0.15139642 0.6390604 0.08885452
-0.2984972 0.27092665 -0.33805963 0.037575804 -0.12485965 -0.35932046 -0.042358536 -0.09430487
-0.102134 0.22362237 0.38641486 1.257695 -0.009453872 -0.12232094 0.16337171 0.18665144
0.1148688 0.17926729 -0.15032007 -0.033348747 -0.020076353 -0.022908894 0.07997909 -0.099325076
-0.21525131 -0.083531775 0.15148327 0.26838422 -0.050136276 0.19224375 0.08173411 0.09655611
-0.24138682 -0.050151296 0.38297895 0.074932985 -0.0012520968 -0.24242558 6.679984e-05 0.24852428
-0.2725734 0.6615616 -0.35827163 0.31704468 0.005242706 -0.0109052295 -2.673274 0.03183346
0.016579537 -0.0013898883 -0.042733584 -0.36249307 0.07334703 0.20201062 -0.026997536 -0.024094747
-0.0080423765 -0.15376829 -0.21162723 0.020514403 -0.0028065215 0.16516812 -0.0044118557 -0.29277602
0.47275794 -0.34833556 -0.012845411 -0.24306174 0.10271235 0.0936899 -0.94933873 0.007180535
-0.54575616 -0.13118844 -0.077561796 -0.35779288 0.9275275 -0.74025625 -0.10830974 0.10650199
0.040466346 0.053194467 1.7788742 -0.536199 0.030138923 -0.08650862 0.14686216 0.33302107
-0.12298164 -0.049215745 0.32829148 -0.0585334 -0.33217433 0.2705852 -0.88193744 -0.12565844

critic.0.bias f4 [64]
00000000: c910 c934 6de7 39c0 1e1f dc3e 29dc 9abb
00000010: ace9 883d 26e8 003f b44e 903e fe99 f9bd
00000020: 60f3 cdbc 29fe e93c 7e0e 563d e726 05b4
00000030: f02f 1fbd 3b4a 71bc d13d 823c 760e 853e
00000040: 84be 08b4 d7fa 68bd f86e 82be db8f 4bc0
00000050: e5e8 edbf 8ac2 6a3d 9bf9 97b3 156a c63f
00000060: bcce 193e 1343 dbbe d02c c6bd d568 04bf
00000070: a4c1 0bbf 2f09 ac3c 4476 91bc 9a7e 8a34
00000080: 32b2 c4ba ce34 393e a440 20bf c31e 0ab4
00000090: b316 25c0 0187 98bc 325f 46be 58eb a3be
000000a0: a1ab 0b3f 0079 793d dec4 1ebf 15ff 453c
000000b0: 68ac a63e d5d8 c7b4 715f 08b5 559e 3ebf
000000c0: 1f89 01b8 c2f3 dcbf b9e3 ad3e 31ca d63c
000000d0: 5b21 ae3d 8b7f 1ab5 4140 d5bc d928 6337
000000e0: 89a9 a1bc 0191 793d fa57 4bb5 42e4 29bc
000000f0: 51fc 8fbe fa4f 0bbe c7c3 08bd 922e 093f
3.745138e-07 -2.90475 0.4299249 -0.004725952 0.066851944 0.5035423 0.28185046 -0.12187575
-0.025140464 0.028563576 0.052259915 -1.2400743e-07 -0.038864076 -0.014727171 0.015898617 0.25987595
-1.2735296e-07 -0.056879845 -0.25475287 -3.1806552 -1.8586699 0.057314433 -7.0768884e-08 1.5501124
0.15020269 -0.4282461 -0.09676516 -0.5172246 -0.5459235 0.021000473 -0.017756589 2.5796618e-07
-0.001500672 0.1808655 -0.62598634 -1.2863443e-07 -2.5795105 -0.018619062 -0.19372252 -0.3201549
0.5455876 0.06090641 -0.62019145 0.012084742 0.3255341 -3.7224405e-07 -5.0802834e-07 -0.74460346
-3.08837e-05 -1.7261889 0.339628 0.02621946 0.08502456 -5.755507e-07 -0.026031615 1.3539765e-05
-0.019734161 0.060929302 -7.5751416e-07 -0.010369362 -0.2812219 -0.13604727 -0.033389833 0.53586686

critic.2.weight f4 [64, 64]
00000000: 4fcb 273e 0a91 213c 34c1 aebd 968a bebe
00000010: 3b3f 9dbd cf48 c2bd 86bd 4f3e 6373 8a3e
00000020: 8e16 bcbe 2175 f53d 86ec 7abe 5d08 1b3e
00000030: adc2 913c 84be 1f3d 2c60 38be a1d7 aabd
00000040: 96f7 8a3e 07be f4bc 2b9b d9be c521 733e
00000050: 59ec 203e 7ffe b83e 22af 953e 35db 53be
00000060: 0874 88be 2553 583c 2fe3 9abc ba0d 90be
00000070: e76c 3c3c 642d b2be bde1 97bd 838d 243d
00000080: a201 aabd 5621 bcbe 4891 be3c 6d80 733d
00000090: 8b43 03be 9e5b 5ebd 9709 7bbc cceb 503e
000000a0: e74f 63be 3bb7 fa3d c5f9 12be 346e 53be
000000b0: 9b5c e9bd 5a6b fcbd 10e5 973e e07e b53d
000000c0: 65fa 263c 57e5 85bc c389 20be 1187 59bc
000000d0: 115f cc3d 7ad3 8cbe c48b 26be 991a 0abe
000000e0: 3b7b 16bd f2df b0bc 2fa9 a4bc 257e 54be
000000f0: 80d2 33bd c5d2 153e b2b3 32bd 748e f3bd
00000100: c55e 42be c6b0 dfbd 7040 2ebe 9bb5 1abe
00000110: 3cd4 493e af7f afbe 66de dd3d 9641 b53e
00000120: fe3f 64be 9256 e33d edfc 00be 83c4 973d
00000130: d5cc d4bd 8a67 57be 0837 85bd ef82 c43d
00000140: 337b 6bbe 2d05 f53d a31e 843e 290c 1bbe
00000150: d351 22bf e171 3f3e df5d c43d df7e 16be
00000160: 9a1b 18be f040 1fbe 84d6 373e adde 8a3c
00000170: b4ae 16bc 6546 eb3e de96 bbbd 193b ebbd
00000180: 9cbe 6cbc 35d0 823d 7476 b73e 8fbd 94bd
00000190: 7d85 71bf c798 67be 972f 2d3e 9a9b 6c3e
000001a0: 4499 8e3d b937 973d f957 9abd b26b 643e
000001b0: 6601 c43d aed9 213e c0f5 d13e 813a d5bd
000001c0: f3dc 953d c4c2 1fbf 6962 a5bb 4d9f e13c
000001d0: 801c 67bd 379e 753d 3afb ee3c 6ef0 01be
000001e0: c7fa e1be ca04 623e 2645 753e fa42 353c
000001f0: 981c 5b3e d45c 383d a766 8e3e 0070 153f
00000200: 655c 0d3e 744d 113e 0a75 bfbd 55ca 3c3e
00000210: d838 2bbe 458a 6cbc 7d10 483d bac8 1d3e
00000220: ce34 873d 976a 84bd b4ad b9bb f6c8 823e
00000230: 15ed 14be f95a 523e e061 513d 3b2d cebe
00000240: a309 58be a184 52bd b293 403e d868 26bf
00000250: 7735 963d 18e1 a6bd 0efa cc3e c959 c13e
00000260: 8e30 c83e fe48 933c a280 34be b527 a4bd
00000270: efef 40be 99fe 9abe e44e 93bd 0d63 963c
00000280: 6d04 b5bd de0d 1a3d 0a3c 33be ab52 5cbd
00000290: 0c66 403d f70e 363e a4a8 cf3d c9d7 713d
000002a0: 1506 4ebd c7b3 823d cbdc c7bd 79fc 28bd
000002b0: 3e82 5fbe d434 41be 5e08 553e f626 253c
000002c0: d7e9 7d3e a246 debd b186 923e acaa e43d
000002d0: e8d0 f8bc b710 7abd c986 8b3d 70da eabd
000002e0: aa09 9ebe f88c 193e 585c d0bd a94c f6bc
000002f0: 524a 883d e09b 1e3e 7ae8 84bc 7aef 14be
00000300: 596e 35be ac97 1cbb e4cf 21bc 435a 35be
00000310: 68cf fbbc fdfc 2b3e 8b65 a6bb e7f4 7a3d
00000320: dc2c e4bd 921c 98bd 9f0c 0f3e bb76 55be
00000330: fc90 13be da82 cabe 0502 0d3e 406a 82be
00000340: f679 ba3d a665 31be 50c7 c63d 6e9f bdbe
00000350: 09d9 023e 6859 6a3d b64d 10bd bce4 eebc
00000360: b138 13bd 4874 183d 001f 9fbe 0261 28bd
00000370: cd7f 453c 4038 e5bc e999 b4be 9c27 3d3d
00000380: 5268 3ebd aa5e 46be 3e43 c2bd 376a 1e3e
00000390: d456 0e3e 1a5f 8c3c c981 c03e 0be9 6ebe
000003a0: a6c9 ed3d ee7a 83be 45f7 72bd 1c26 2b3e
000003b0: 8c88 a4bd 62b1 523e 48b3 933e 4d39 823d
000003c0: f696 533e 5ac7 dc3c 8306 99be e4bb 17be
000003d0: 8259 923d 8d91 253e 68a5 823e d909 70be
000003e0: edcd c43e 4e5d b23d bc49 8b3e b868 cfbd
000003f0: 1fb8 863d 47cd 7f3e 3304 9bbd 077a 2b3d
0.1638615 0.00986124 -0.08532944 -0.37215108 -0.07678076 -0.094865434 0.20287141 0.27041158
-0.36735958 0.11985231 -0.24504289 0.15139909 0.017793024 0.03900005 -0.18005437 -0.08341909
0.27142018 -0.029875768 -0.42501196 0.23743351 0.1571516 0.36131665 0.29235178 -0.2068909
-0.26651025 0.013203417 -0.018907158 -0.28135473 0.011500574 -0.34800255 -0.07416103 0.04017402
-0.08301093 -0.36744183 0.023262635 0.05944865 -0.12818734 -0.05428659 -0.015322111 0.2040245
-0.22198449 0.1224198 -0.14353092 -0.20647508 -0.11394616 -0.12325163 0.29666948 0.0886209
0.010191535 -0.01634471 -0.15677552 -0.013276831 0.0997907 -0.27505094 -0.16264254 -0.13486709
-0.036738615 -0.02159116 -0.020100204 -0.20751245 -0.04390192 0.14631183 -0.043628402 -0.11892405
-0.18981464 -0.10922389 -0.17016768 -0.1510834 0.19709867 -0.34277102 0.10833435 0.354016
-0.22290036 0.11100496 -0.12596484 0.074105285 -0.10390631 -0.21035591 -0.06504637 0.09595286
-0.22996216 0.11963878 0.25804624 -0.15141357 -0.63406104 0.18695785 0.09588217 -0.14696835
-0.14854279 -0.15552115 0.17952925 0.016951883 -0.009196926 0.45952144 -0.09159635 -0.11485881
-0.014449742 0.063873686 0.3583256 -0.07262718 -0.9434431 -0.22616874 0.16912685 0.23106232
0.06962827 0.07383675 -0.07536311 0.22306708 0.09570579 0.15805694 0.41007805 -0.10411549
0.07317533 -0.62406564 -0.005047132 0.02754178 -0.056423664 0.05996534 0.029172529 -0.12689373
-0.4413664 0.2207214 0.2395216 0.011063332 0.21397626 0.045010403 0.27812693 0.58374023
0.13804777 0.14189702 -0.09348495 0.18436559 -0.16720903 -0.014437263 0.04884385 0.15408602
0.066018686 -0.06465643 -0.005666459 0.25543946 -0.14543565 0.20542516 0.05111873 -0.40268883
-0.21097426 -0.051396016 0.18806341 -0.6500373 0.07334416 -0.08148402 0.40034527 0.37763813
0.39099544 0.017979141 -0.17627195 -0.08015386 -0.18841527 -0.30272368 -0.071927816 0.018357778
-0.08838735 0.03761088 -0.17503372 -0.053789776 0.04697232 0.17779146 0.101395875 0.05904368
-0.05029877 0.06381946 -0.0975891 -0.0412564 -0.21827027 -0.18867809 0.20803973 0.01008009
0.24796234 -0.10853316 0.28618386 0.111653656 -0.030373052 -0.061051097 0.068128176 -0.11467445
-0.30866748 0.14995182 -0.10173863 -0.030065851 0.066548005 0.15489149 -0.016224135 -0.14544478
-0.17717876 -0.0023894114 -0.009876225 -0.17710213 -0.030738547 0.16795726 -0.005078023 0.061268713
-0.11141369 -0.07427324 0.13969658 -0.20846073 -0.14410776 -0.39552957 0.13770302 -0.25471687
0.091052935 -0.17323932 0.097059846 -0.37035698 0.12778105 0.05721417 -0.03523036 -0.029161803
-0.035942737 0.03722027 -0.3107834 -0.04110814 0.012054396 -0.027980924 -0.35273674 0.046180353
-0.046486206 -0.19372049 -0.09485482 0.15470205 0.1390031 0.017135192 0.37599018 -0.23331086
0.11610727 -0.25679725 -0.059317846 0.16713756 -0.08033857 0.20575479 0.28847718 0.063585855
0.20663056 0.026950527 -0.2988778 -0.14817768 0.071459785 0.16168804 0.2551682 -0.23441257
0.3843836 0.08709203 0.27204692 -0.101273954 0.06578087 0.24980651 -0.0756916 0.04186442

critic.2.bias f4 [64]
00000000: 4f91 03bc d641 a13d 9675 07bd 2f78 f33b
00000010: 070e 86bc 58a9 d23c 3f14 daba d938 a7bd
00000020: ff0d e0bc 15c8 d6bc 4721 343e 99f7 e33c
00000030: 9776 363a 53ec 0a3c d74c d33d c15b b03c
00000040: 957d 6abd e423 b6bb 4402 00be e8d6 62bd
00000050: a966 893d 73d2 f23c 06fb 86bc 1b0d 00be
00000060: 4220 9b3b 79ff b23c 0b4d 3a3d 067a 2a3d
00000070: 8e5c d23d 0589 eebd 62c0 aebd 0b51 d63c
00000080: fb43 c5bc ff48 40bc 9f60 e2bc ab8a 48bc
00000090: 308e 513c 0fa1 a1bc f920 6fbd aa2b bdbc
000000a0: 44ad 163e bab5 823d 0666 be3d dbc1 3e3d
000000b0: 8317 e03d 0cb0 673d 55a6 95bd 98f6 773c
000000c0: 5a29 f7bc 6634 fd3c feb2 8c3d 2d29 ee3c
000000d0: 4f43 bd3c 0277 3c3d ddc0 d93d c772 d23c
000000e0: 489a 48bc 46a4 453d 3582 0dbd e941 0d3e
000000f0: e0fa 0a3d 18be 43bd f432 efbd 56ff 36bc
-0.00803025 0.07873885 -0.033071123 0.0074300985 -0.01636411 0.025715515 -0.0016638114 -0.0816514
-0.027350424 -0.026218453 0.1759082 0.027828025 0.000696042 0.008479196 0.103173904 0.021528127
-0.05724867 -0.0055584777 -0.12500864 -0.05538073 0.06709034 0.029641366 -0.01647712 -0.12505
0.00473407 0.021850334 0.04548363 0.041620277 0.1027156 -0.11647228 -0.08532788 0.026161691
-0.024080267 -0.011736154 -0.027633963 -0.012240092 0.012790248 -0.019730119 -0.058381055 -0.02309211
0.14714533 0.06382318 0.09296803 0.046571594 0.109419845 0.056564376 -0.07307116 0.015134476
-0.030171085 0.030908775 0.068700776 0.029072369 0.023103384 0.046011932 0.10632489 0.025689496
-0.012243815 0.048252366 -0.034548003 0.13794674 0.03393066 -0.04778871 -0.116796404 -0.011169275

critic.4.weight f4 [1, 64]
00000000: c935 423c 6d70 2dbe c591 873c fc04 90bc
00000010: e7f1 9dbc 4d2f bcbd 7f8a 983c 601f 303e
00000020: f3c5 4cbe ebb0 2f3d 228f 8cbe 98c4 e63e
00000030: e98c 7ebd ef03 8b3c 42dc 12be 1e6e be3d
00000040: 3efc 3b3e 5b45 d03b 4312 21be a629 6f3d
00000050: 8743 e43d c410 6b3c 05b8 7c3d e138 123e
00000060: a50a 4bbd 0db3 ea3b 6fef 14bd 5529 0d3e
00000070: c87b febd e7a8 bcbd ed24 1ebe e538 c03d
00000080: 28e4 5b3c 413a 58be 2af9 2c3e 19c4 833c
00000090: 256a 023c e948 6e3d 8f65 f23c c2ae 413d
000000a0: 6c7a 08be 764f 50bd eee4 ebbd 8e46 05bc
000000b0: a812 70be b16a 21bd 2d41 203e 6b75 67bc
000000c0: 9d61 fe3c 11ff 92ba 0dc3 e43d e11c f03a
000000d0: 4bdb d43c e0b4 b5bc b068 813c 76a5 94bc
000000e0: 7429 47be 7fb2 aebc b19e 07be 058d bfbd
000000f0: d56e cfbc 69da 43be ddf9 863d 6e9d 45bd
0.011853644 -0.16937418 0.016549 -0.017580502 -0.019280387 -0.091887094 0.018620728 0.17199469
-0.19997387 0.04289333 -0.27452952 0.45071864 -0.0621461 0.01696965 -0.14341834 0.09298347
0.18357942 0.006355924 -0.15729623 0.05838933 0.11145692 0.014347259 0.061698932 0.1427951
-0.0495707 0.007162458 -0.036361154 0.13785298 -0.12425953 -0.09211903 -0.15443774 0.09385852
0.013421096 -0.21115972 0.16891924 0.016084718 0.007959877 0.058175 0.029589443 0.047285803
-0.1332795 -0.05085703 -0.11518274 -0.008134497 -0.23444617 -0.03940839 0.15649863 -0.014127116
0.031052405 -0.0011214932 0.111700155 0.0018319153 0.025983473 -0.022180974 0.01579699 -0.018145304
-0.19449407 -0.021325348 -0.1324413 -0.09353069 -0.025321404 -0.19126286 0.065906264 -0.04824584

actor.0.weight f4 [64, 6]
00000000: c90d 57bf d9e8 c03d fbc3 603f ad38 98bf
00000010: 4ddb f6bc b50f 92bd 9cfa 3a3c b93f 17be
00000020: 14ba fc3f b943 0440 4712 10bd 8ab7 073e
00000030: e9c6 32bc 3e18 75bd c58b 9ebe 3b67 42be
00000040: 1e67 21be ec85 86be e034 3c3e ec5b 383e
00000050: ce11 e8bd 1bab 8b3c 5929 843e e3a9 33bd
00000060: 099a 7a3e 45bf e03d 59ee 03be 4789 8ebd
00000070: 3e37 983b a83e a43d ecfa 58bd 2d84 953c
00000080: 51f3 d8bd baf4 51be 1840 bdbd 6e47 dabd
00000090: b6bb 143f 7606 923e 53b4 49be fa6c 06bf
000000a0: ce2c 623e 3e85 1dbe dfcb 08be 2ea2 58be
000000b0: 9e85 18be e467 873e d2ec 2ebd 37c0 6cbb
000000c0: 6e89 79be e70a 7b3e 9e58 eabe 7d96 ebbf
000000d0: d98a 853e 1c0a ab3c c123 b6bb 2f08 0fbe
000000e0: 7840 983e c468 83be 9d17 1cbe 0999 ddbe
000000f0: c63d 07bb 4c4d 1bbe 2325 2bbe f575 1a3e
00000100: 24c1 8ebe 24c1 b3be a14b c23d 5c87 373e
00000110: 9e0f c83d 2874 61be 143c 9b3e 46c0 0fbc
00000120: c128 853e f492 953d 7760 903d 5f5e bcbd
00000130: 5597 42bb d6d8 c43c 36af e9bd ae03 4b3d
00000140: 3f26 433e f93f 453e 7b2c 09be cae6 b0bd
00000150: 5921 c2be 70fc 1fbd 9313 63bd 39b5 cf3c
00000160: 94d2 74be e496 a53b 4a2c 5e3d 20ca 6cbe
00000170: 5d7c 403e f04d 17be 1d38 7d3d 1f93 e83e
00000180: b837 4f3e 334b 97bc c982 8240 9c4e c5be
00000190: c518 23bc bfc7 fc3c 49a8 93be aa59 18be
000001a0: b513 d03d be1a 323d 2315 b9be f0dd b3bd
000001b0: a31d 82bd f6cf 5b3d 079d b8be cb3b 5b3f
000001c0: fe18 7ebe eb5a 27be 3a2e 75be fa3b 2a3e
000001d0: 7d35 8dbb 4926 ddbd 2b86 b4be ec9b 8abe
000001e0: eb1a c23a fdd4 c2be f345 e23d 90e7 083f
000001f0: 4bdd e9be 782b 84be a0c9 4cbe 5ef9 f2bd
00000200: bb9f 323b f5d4 d53d 30b2 393b 5096 fabe
00000210: ec33 f23d 97c1 19be 153d 593e 9eb6 e33e
00000220: 84b9 07be b455 77be 8c66 633a 56e4 a93d
00000230: 7640 86be 9b66 b93c e4ac 4b3e a630 a73e
00000240: 6bb2 043d d974 603e c888 0c3f d0c2 4dbf
00000250: 69a7 7a3e ec2f 343e 9f56 35be 6b48 393d
00000260: 011c 013d b24c 55bc b8d1 6ebe 7d08 b4bd
00000270: 7306 7e3b e1dc 0dbf a3eb 3cbf 1a33 913d
00000280: ddc5 85be 6ded bebe 92d4 1d3f 001d 9cbd
00000290: fdfc 7cbf 47a0 0f3f fdee 9c3d 01df d53d
000002a0: f764 74bd 1171 a73c 6b95 debd 050f ffba
000002b0: c77f 11bc ac7b 8fbe 7eba 023e 81ef adbe
000002c0: fd95 a43e c098 5b3e f568 da3c f72c d83e
000002d0: a8c1 f6bd f834 a53d 272e 86be b8c0 f8be
000002e0: 2113 7139 8bca debe 1d4f 2239 e9d9 4d3e
000002f0: 7c27 ed3d e10c 88be df66 063f 1346 2b3e
00000300: 0109 8e3c 5070 0f3e 5294 09be 021f f53d
00000310: aec9 e43b 014c 5d3e a47e 15be f1b0 8b3d
00000320: 74d9 b6be ef6b 1f3f fa3c 343f a079 313e
00000330: 0f74 54be 14e3 23be 7e47 92be 6f6f 813d
00000340: 87e7 d2be 87a1 593d e40e 743c 610d 213a
00000350: 13d0 903f fe4a 1840 ff0a 983d 27ef 79bb
00000360: 746b 253b d1aa 3b3e 6345 04be 22fc 50bd
00000370: be1e 913e a0ed bb3d 6e69 b53e 3ca1 be3e
00000380: 958c 90be 549c 2bbe e428 d1bc c636 8a3e
00000390: 1f9a e93d a215 953e 7d23 173e e25c 993d
000003a0: 6e8d 853d 7b09 ae3e 137a d0ba 4fa6 d43e
000003b0: caec f53e 5f2c 003e 4973 b93e ac4c 2e3e
000003c0: 8d77 28be 77ac 23be 4d9e 283d a7a6 ffbe
000003d0: 874a a3ba f2ee 1e3e d3e0 78bc ceb0 48be
000003e0: 16d6 17bf ade1 353f b4b4 babe 5cbf 93be
000003f0: 1b3b d539 2c1c cabe 48a6 523e 91f1 c0be
-0.8400541 0.09419412 0.8779904 -1.1892296 -0.030133868 -0.07131902 0.011412289 -0.14770402
1.9744287 2.0666335 -0.03517368 0.13253608 -0.010911682 -0.059837572 -0.3096601 -0.18984692
-0.15761992 -0.2627405 0.18379545 0.18003815 -0.11331521 0.017049363 0.25812796 -0.04386319
0.24472822 0.10973982 -0.12883891 -0.06959777 0.0046452573 0.08019763 -0.052973673 0.018251503
-0.10593284 -0.20503512 -0.092407405 -0.106581554 0.58098924 0.28520554 -0.19697694 -0.52510035
0.22087404 -0.15382859 -0.1335902 -0.21155617 -0.14894721 0.2644645 -0.04270632 -0.003612531
-0.24368832 0.24515878 -0.45770735 -1.84053 0.26082495 0.020878844 -0.0055584614 -0.13967966
0.29736686 -0.25665867 -0.15243383 -0.4328082 -0.0020636185 -0.15166205 -0.16713385 0.1508406
-0.2788173 -0.35108292 0.09487081 0.17922729 0.09768604 -0.22016966 0.30319273 -0.008773869
0.26007655 0.0730342 0.07049649 -0.09197687 -0.0029692252 0.024029177 -0.11410372 0.049564056
0.19057558 0.19262685 -0.13395874 -0.086377695 -0.37916067 -0.039059103 -0.05543859 0.025354968
-0.23908454 0.005053388 0.054241456 -0.2312398 0.18797441 -0.14775825 0.061821092 0.45424744
0.20236099 -0.018468475 4.078465 -0.38536537 -0.009954636 0.030856965 -0.2883933 -0.14877954
0.10160009 0.043482535 -0.3614894 -0.087825656 -0.06353309 0.053665124 -0.36057302 0.8563811
-0.24814221 -0.16343276 -0.23943415 0.16624442 -0.004309355 -0.10798318 -0.35258612 -0.27072084
0.0014809048 -0.38053122 0.11048498 0.53478336 -0.45676646 -0.25814414 -0.19998789 -0.11863969
0.0027255851 0.10441009 0.0028334968 -0.48942804 0.118263096 -0.15015255 0.21214707 0.44475263
-0.13254362 -0.24153787 0.00086746435 0.08295505 -0.26221055 0.022631934 0.19890171 0.32654303
0.032396715 0.21919574 0.5489621 -0.80375385 0.24477924 0.17596406 -0.17708825 0.04523508
0.031520847 -0.013018774 -0.23322189 -0.087906815 0.0038761168 -0.5541516 -0.73797053 0.07089825
-0.2612752 -0.37290516 0.6165248 -0.07622719 -0.9882353 0.5610394 0.07662771 0.10442925
-0.0596666 0.020439656 -0.10868343 -0.0019459432 -0.008880562 -0.28024042 0.12766454 -0.3397179
0.32145682 0.21444988 0.026661376 0.42221805 -0.12048656 0.080667436 -0.26207086 -0.48584533
0.00022990677 -0.43513903 0.00015478996 0.20102657 0.11579797 -0.26572326 0.5250072 0.1672595
0.017338278 0.14007688 -0.13435486 0.11968805 0.00698205 0.21611024 -0.14599091 0.06820858
-0.3571278 0.6227407 0.7040554 0.17331553 -0.20747398 -0.16004592 -0.2857017 0.063200824
-0.41192266 0.05313256 0.014896128 0.0006143656 1.1313499 2.3795772 0.07423972 -0.003813693
0.002524105 0.1832688 -0.12917094 -0.051021703 0.28343767 0.09176183 0.35432 0.37232387
-0.28232256 -0.16758853 -0.025532193 0.26994914 0.114063494 0.29118067 0.14759631 0.07488419
0.06521116 0.33991608 -0.0015905522 0.41533133 0.48032218 0.12516926 0.36220768 0.17021435
-0.16451855 -0.15983759 0.041166592 -0.49931833 -0.0012458124 0.15520838 -0.015190321 -0.19598696
-0.59311044 0.7104748 -0.3646599 -0.28856933 0.00040670563 -0.39474618 0.20571244 -0.376843

actor.0.bias f4 [64]
00000000: 7ce5 c5bf c64c 8b3f 2b9c 05bf 4e90 913e
00000010: 5d7a e13b bae7 acbc 0b1c 653f 6731 2fbd
00000020: 30bd 80bf 29c1 8abe c8e0 dbbc b8b3 1f3e
00000030: f14c bb3b e4ab 44be 22ae aebe 7462 d83d
00000040: b861 0ac0 0747 542d 2576 24be 6e43 2bbe
00000050: 1e5e 2abe 8266 65b8 5935 1b40 69ec 813f
00000060: 15a9 ee3d 1552 05bf d3e5 bbbe a2a2 373f
00000070: ba79 9abc 46ec 38be 8bdc afbd 3d2e e33d
00000080: b35a fd3b e4bf f6bf 2b55 f8bd e03d 3b3f
00000090: 5338 8a3e fe1b 0e3d 6765 e5b6 b4f9 8bbe
000000a0: 7ce7 7a3e cf51 b73d 1b85 35be 1a1f 4d40
000000b0: de03 5eb6 fa81 1b3f 9c41 623e ddd8 17bf
000000c0: 4532 98c0 d65c cbbc 68f7 29be 7f66 673e
000000d0: 30f2 883e 4b0e 4cbe b987 2abe 5ea8 5ebe
000000e0: b31d 003e 9efa 76bf 4f4a 12bd 4a90 6abe
000000f0: d797 893a 2f20 61be fe9b b9b7 5b84 7b39
-1.5460658 1.0882804 -0.5219142 0.28430408 0.006881042 -0.02110659 0.89495915 -0.042771723
-1.0057735 -0.27100495 -0.026840582 0.15595901 0.0057159592 -0.19206196 -0.34117228 0.105656534
-2.1622143 1.2066576e-11 -0.16060694 -0.16724941 -0.16637465 -5.4693322e-05 2.425131 1.0150272
0.116533436 -0.5207837 -0.3669878 0.7173253 -0.018856872 -0.18058881 -0.08586987 0.110928036
0.0077317595 -1.927731 -0.121256195 0.7314129 0.26996097 0.034694664 -6.8365366e-06 -0.27338946
0.24502367 0.089511506 -0.17726557 3.2050233 -3.3082829e-06 0.60745203 0.2209534 -0.5931528
-4.7561364 -0.024824541 -0.16598284 0.22597693 0.26747274 -0.19927327 -0.16653337 -0.21743914
0.1251133 -0.9647616 -0.035715397 -0.22906604 0.0010497522 -0.21984933 -2.2126358e-05 0.00023986532

actor.2.weight f4 [64, 64]
00000000: 9d11 8a3b 0e17 89be 0a5a 22be ed99 2fbd
00000010: 38f1 0c3d 5bc1 5a3e b29d 883e e035 9cbe
00000020: f0e1 4f3e 54c1 fcb8 7ed0 db3d 66ca 7c3e
00000030: 69a4 0f3d 7979 93bb fab2 71be 9a54 403d
00000040: 2386 4abe 6041 783e 5488 12be f93f b2be
00000050: 694b 95be 7a1b 32be 82dd ab3e cdee f1bd
00000060: 074f 2bbe 08e9 23bf ec3f 1cbe 19db 9a3e
00000070: 6e41 273d 3a1c b3bd ffd7 80be 9b97 cc3e
00000080: 4f3c 9e3e d58d 47bc 501b db3e aaed 073e
00000090: eca3 473e ae28 eebd 2ae0 fd3d 79e7 8dbd
000000a0: 5099 bb3e 4d1a f4bd a4ca 4abe cabc 0abe
000000b0: 2ace 053c ae57 a53e 50cd fa3d 2c98 5e3c
000000c0: 87d0 88be e01d 6fbe 4ba7 7ebe a52e b8bb
000000d0: aa1d a23c 4f95 c43d 2cb6 893d f703 4f3e
000000e0: da50 a73d 0299 ce3d fbe7 9e3d 2d18 ad3e
000000f0: 9861 ca3d 881c f93c 2761 2d3e 9731 83bd
00000100: 5933 c13e 76f6 d1bd 148c cd3d 8163 0c3d
00000110: 15a7 b4bc 6ca4 73bc 763f d03d ca78 11bc
00000120: 719c 843e e608 8dbd 2367 bdbe 6571 bb3e
00000130: 638a 6b3e 6da1 debd 5a04 14be 2269 63bd
00000140: 6ffd 603e da9a b83d 08a7 9bbd e326 6e3e
00000150: cfc2 273c 76aa 3dbd d4fc 7c3e ddf1 61bd
00000160: 2063 dfbc 08e2 dbbc fb97 0c3e 7595 293e
00000170: f4d2 2f3d bd50 ddbe aef3 b03d 86e0 d93e
00000180: 5bd2 cfbe 44dd c03e ba43 223e 6cef b5bd
00000190: 7908 ae3d 5cd1 43be 2767 0ebb 78ce 13bd
000001a0: 3f1e 5abe 1da7 593d a03c d3bd f7da ad3e
000001b0: 09f6 f83d b785 96be 3fa5 ce3c 7671 3cbe
000001c0: 247c 233e df1e 813c b1a1 9abd 02f7 5b3d
000001d0: ad43 c83e 1703 123e 5570 5abd 6972 aebd
000001e0: f896 d93d c504 48be 0e74 94be a0f9 623e
000001f0: 8d13 c8bd 733a 9ebe 194d 7fbe 0d10 0fbe
00000200: 0b72 0d3e 39dc 893e 8e06 eebc 5c82 1f3e
00000210: 540f 473e 60cb debc aea6 a9bd f0c1 563e
00000220: b395 55be 561d 30be 5285 6f3e 02b8 2bbe
00000230: c3d5 40bd dd49 92bd a620 103e c11d 32be
00000240: 69bb 083e df16 32bd 6230 bdbe efa4 1fbe
00000250: 68d2 33be b4c5 7bbe 8dd9 0b3d 87e7 a3be
00000260: 0f6e 203d b0b7 56be 67c0 ecbd 6deb 4ebe
00000270: 5f29 bdbe 7dcf d5be 2081 b23c f67f 743e
00000280: 3df0 c0bd faa8 173d bcfc eb3d b8d3 a23d
00000290: d42b 4cbd fd55 3c3e 2a1e 9a3d c820 233e
000002a0: 9659 923e 7621 38bc b791 d73d b899 583b
000002b0: b266 853d 3464 e43c 6d3f b7bc 0aa1 97be
000002c0: 943b a4bd d357 67be ff74 4ebd 9fe3 59be
000002d0: caae 8a3e 2d02 73be 62cb 1fbe e072 973d
000002e0: 901a 0e3e b94f 32be faf1 4f3e 2e09 4dbe
000002f0: ca4b 63be a5bf ff3d 046f e23c 4f0f 783e
00000300: 08fe 483e 3acc c73d d79a debe 37e0 ad3d
00000310: e698 613d 72ad c13d 8b2e 78bc ba25 fabc
00000320: ceaf b23e 694b 5d3d dfac 91be fdc4 f6bd
00000330: 5d1d 2a3e 556b 343d c9b8 b4be b7fa 4e3e
00000340: 3f12 8f3c bf04 d73c 517b 0cbe 5790 4bbe
00000350: c7ff 26be 0d7f d0be 331e b0bd fcc1 f23d
00000360: 61eb d63e e05f bd3d 498e 33be 1ad4 e2be
00000370: 1583 15bd 866d 90be 97fe a13c 36b3 e83d
00000380: 7b25 c23d 636d 05be 480a 0dbd 5ddd a8be
00000390: 5f8f c23d f67f 993d 284e 9f3d 1c99 783e
000003a0: fa20 2b3d 0b1c 5abe e34c 513e 2c5f babc
000003b0: 5911 f93c 4c05 5d3e 6035 2f3e 6975 00be
000003c0: 6013 153e ffa7 81be 5554 c1be b111 f2be
000003d0: 50be b13d bf00 83bc 223e 2a3d 0fe4 4f3e
000003e0: 1b0d bfbe 9059 963e ed04 8cbe 67da 3ebe
000003f0: dad6 12be 384c d5be 4f41 dabc 0651 4dbe
0.0042135254 -0.26775402 -0.1585466 -0.042871404 0.03440973 0.21362822 0.26682812 -0.30509853
0.20301032 -0.000120523066 0.10733126 0.24686584 0.035068903 -0.0045005647 -0.2360343 0.046955682
-0.19777732 0.24243689 -0.14309818 -0.34814432 -0.29159096 -0.17393294 0.33567435 -0.11813126
-0.16729365 -0.6402745 -0.1525876 0.30245283 0.040833883 -0.08745618 -0.25164792 0.39959416
0.30905387 -0.0121798115 0.42794275 0.13274255 0.19496125 -0.11628853 0.123962715 -0.069289155
0.36640406 -0.11919079 -0.19803864 -0.1354858 0.008166829 0.32293457 0.122461915 0.013586085
-0.26721594 -0.2335124 -0.24868505 -0.005620795 0.019789536 0.09598791 0.067242 0.20216356
0.08169718 0.10087778 0.077590905 0.33807507 0.09881896 0.030409113 0.16931592 -0.06405943
0.37734488 -0.10252087 0.100364834 0.03427458 -0.022052327 -0.014870744 0.10168354 -0.008878896
0.25900605 -0.06886463 -0.3699275 0.3660995 0.23002009 -0.10870633 -0.14454785 -0.055520184
0.21971677 0.090139106 -0.07600218 0.23257022 0.010239317 -0.046305142 0.24705821 -0.0551623
-0.027268946 -0.026841179 0.13729851 0.1656092 0.04292579 -0.4322566 0.08640228 0.4255411
-0.40590176 0.37668812 0.15846148 -0.08883557 0.0849771 -0.19122833 -0.0021728964 -0.036085576
-0.213006 0.053137887 -0.10314298 0.3395612 0.121563025 -0.2939889 0.02522528 -0.18402657
0.15965325 0.01576179 -0.075503714 0.053702362 0.39114133 0.14258991 -0.053329784 -0.08517916
0.10624498 -0.1953307 -0.28994793 0.22165537 -0.09769354 -0.30903968 -0.24931754 -0.13970967
0.13813035 0.2692583 -0.02905586 0.15577072 0.19439441 -0.027196586 -0.08283745 0.20972419
-0.20857887 -0.17198691 0.23390701 -0.16769412 -0.04707886 -0.071429946 0.14074954 -0.17394163
0.13352741 -0.043478843 -0.36950976 -0.15590261 -0.17560732 -0.24587137 0.03414302 -0.3201258
0.03916746 -0.20968509 -0.11560135 -0.20206995 -0.36945626 -0.41759863 0.021790087 0.23876938
-0.09420822 0.037026383 0.11522815 0.079505384 -0.049846485 0.18392177 0.075252846 0.15930474
0.28583974 -0.011238446 0.1052584 0.0033050608 0.06513728 0.027879812 -0.022369111 -0.2961505
-0.08019176 -0.22592096 -0.050404545 -0.21278237 0.27086478 -0.23731299 -0.15604928 0.073949575
0.1387732 -0.17413224 0.2030715 -0.20023033 -0.2219688 0.12487725 0.027640827 0.2422459
0.19628155 0.0975575 -0.43477508 0.08490031 0.055077456 0.0945691 -0.015147815 -0.030535568
0.34899753 0.054026995 -0.28452203 -0.12049291 0.16612764 0.044047672 -0.3529723 0.20212828
0.017464755 0.02624738 -0.13718916 -0.1987928 -0.16308509 -0.40721932 -0.0859951 0.11853406
0.41976455 0.09246802 -0.17534746 -0.44302446 -0.036501963 -0.2820856 0.019774718 0.11362307
0.09479805 -0.13030009 -0.034433633 -0.32981387 0.09500002 0.0749511 0.07778579 0.24277157
0.041779496 -0.2129976 0.20439486 -0.02275046 0.03040378 0.21584052 0.17110205 -0.12544788
0.14558172 -0.25323483 -0.37759653 -0.47279122 0.08678877 -0.015991567 0.04156316 0.20301841
-0.37314686 0.29365206 -0.27347508 -0.18638001 -0.14339772 -0.41659713 -0.02664247 -0.20050439

actor.2.bias f4 [64]
00000000: ccff 703d c630 493d f334 ca3c 722d 1b3d
00000010: 134d 9c3d ee91 883e 4b3d d4bd 8efd 64be
00000020: 2a9f 8a3d 1e34 2b3e 01e5 a23d 9e5c 663b
00000030: 96e0 1a3e 8d6a 413c 6d40 9ebd c21c 0f3e
00000040: d41e 5ebd 97b0 d6bc 5a9e 21bd 1c7e 293e
00000050: 3787 c13d 71f9 b33d 4c15 a73d 8761 5b3d
00000060: 23ef e0bc 58ee 2b3e 60cb 033e d3f2 c73d
00000070: 10e7 a73d 50ff 433e 5090 1b3c bfb7 453e
00000080: f049 63bd 7b40 473e 250e 9fbd a9cd 753d
00000090: d09b 2bbe 3363 a33d 8e8f aa3d f0fa 8ebe
000000a0: c574 1fbd f09f 413d d3a5 df3d 8a02 28bc
000000b0: 4c2d 9abd 0814 42bc 7ab3 3a3d 1266 f7bd
000000c0: 2e8c 09be 392f 153d 098a a73c c9df 303d
000000d0: 004b d2bc ba05 8cbd c591 b4bd 02cd 413e
000000e0: 4494 3f3d 310d ee3d 87b4 c43d 0fc8 08bb
000000f0: a9c1 e3bd 34d8 103b d1cd 123d 3fdc 01be
0.058837697 0.04911878 0.024683451 0.037885137 0.07631888 0.26673836 -0.10363253 -0.22362348
0.067686394 0.167191 0.07953835 0.003515042 0.15124735 0.011805189 -0.07727132 0.13975814
-0.05422862 -0.026207251 -0.039457656 0.16552013 0.09449618 0.087878115 0.08158359 0.053559806
-0.02745778 0.1679014 0.1287055 0.09763112 0.081983685 0.19140363 0.009494856 0.19308375
-0.055490434 0.19458191 -0.0776637 0.060010586 -0.16758657 0.07977905 0.08328162 -0.27925825
-0.03892972 0.04727167 0.109203 -0.010254512 -0.07528171 -0.011845596 0.04558132 -0.12080015
-0.1343238 0.03642199 0.020451562 0.04318217 -0.025670528 -0.0683703 -0.08816866 0.1892586
0.046772256 0.1162361 0.09604745 -0.0020871197 -0.11120922 0.0022101523 0.035840813 -0.12681673

actor.4.weight f4 [2, 64]
00000000: feb3 aa3d b3db e6bd 3eb4 9f3b 2427 b93d
00000010: 7672 993d 60d7 5fbd 2d80 a9bd 9aef 02bd
00000020: 3197 2c3c 58b4 e5bc 4097 993c f3af 703d
00000030: 100f 003d c786 85bd 5ce1 923b a7eb 133c
00000040: fa1d 7c3d de4a 1fbe 6317 c83d 1537 8f3d
00000050: 3d94 a03d 0c56 29be 63b2 74bd 1f39 f13c
00000060: ca07 07be 312d 473d c01c c53c a18f 933d
00000070: 5445 1c3d 0626 3ebf a2d2 be3d 430e e83c
00000080: 4982 83bb 2e67 9039 28a9 2abe f310 f83b
00000090: db99 ecbc 539b b33d 7c52 543d 24d0 963e
000000a0: ccd4 0a3e 324b 1a3d 7398 133e 0915 61bd
000000b0: 8023 9cbc 5c02 013d d9b0 113d 2bbe a6bd
000000c0: 0ac2 12bd b3e1 37bd c721 d23d 49dd 1b3d
000000d0: 56d8 0ebd 24b6 41bd 9e25 103e b2bd f13c
000000e0: 96fb 203d abab 9e3d 04bd 85bd e956 ac3d
000000f0: 25ee fabb bc8b 373e 5e76 84bd 1c2f df3e
00000100: 0843 adbd 34b5 e43d b873 eebb 9cf2 b7bd
00000110: f104 98bd b4bb 673d cb7e a53d 14ed f43c
00000120: 7502 22bc 7cf7 023d bf48 afbc 4f41 6fbd
00000130: c989 07bd 0a2a 893d b6f8 74bb b72d a8bb
00000140: 4786 7bbd 05e3 203e f3ab c8bd 73f3 90bd
00000150: e0dd 9dbd 6fb8 273e f4c1 7d3d d775 02bd
00000160: 9a70 073e 4969 49bd 32d5 c5bc f537 8fbd
00000170: 6e31 24bd 1806 3e3f 5d74 bebd 928f d7bc
00000180: 4307 823b 68f2 81ba 11d9 293e 9eec 3dbc
00000190: 4ad3 f53c 9979 b2bd 47d5 59bd b837 96be
000001a0: e74a 0abe 263a 0ebd ba03 13be d1cf 513d
000001b0: 0f28 a53c 5c17 0bbd 77b9 15bd 585b a73d
000001c0: 07d5 163d cd0e 3c3d 0355 d1bd 2402 1ebd
000001d0: 9e8c 073d d576 483d 5709 10be 0fa8 fcbc
000001e0: e3e8 1dbd bb0f 9abd af41 8a3d fd8d aabd
000001f0: 6d84 283b 4070 37be 8f17 823d 70e7 debe
0.08335112 -0.11272373 0.0048737815 0.090406686 0.07492535 -0.054648757 -0.08276401 -0.031966783
0.010534094 -0.028040096 0.01874888 0.05876155 0.031264365 -0.06519847 0.0044824313 0.009028352
0.061552025 -0.15555903 0.09770086 0.06992928 0.07840774 -0.1653673 -0.059740435 0.029446183
-0.13186565 0.048627082 0.02406156 0.072051294 0.038152054 -0.7427677 0.09317519 0.028327113
-0.004013334 0.00027542695 -0.1666609 0.00757038 -0.028881958 0.0876986 0.051836476 0.29455674
0.13557738 0.037669368 0.14413624 -0.0549517 -0.019059896 0.03149639 0.035569046 -0.081417404
-0.03582958 -0.044892978 0.10260349 0.03805283 -0.034874283 -0.047292843 0.1407685 0.0295094
0.03930243 0.07747587 -0.065301925 0.08415014 -0.0076577836 0.17924398 -0.06467889 0.4359063
-0.08460051 0.11167374 -0.0072769783 -0.08981821 -0.074228175 0.056575492 0.080808245 0.029898204
-0.009888281 0.0319743 -0.021396993 -0.058411893 -0.033090387 0.066974714 -0.0037379689 -0.0051324028
-0.061407354 0.15711601 -0.09798422 -0.07077684 -0.07708335 0.1637895 0.061952546 -0.031850662
0.13226548 -0.049172673 -0.024149511 -0.06993095 -0.040086202 0.7422805 -0.09299538 -0.026313577
0.003968151 -0.0009914162 0.1658671 -0.011592058 0.030007977 -0.08714599 -0.053181913 -0.29339385
-0.13505135 -0.034723423 -0.1435689 0.05122358 0.020160703 -0.033957824 -0.036553826 0.08171719
0.036824252 0.045912553 -0.10221293 -0.03857626 0.033093087 0.048941452 -0.14066063 -0.030841855
-0.038552176 -0.075225316 0.067508094 -0.08327863 0.0025713698 -0.17913914 0.0635215 -0.43535948

actor.4.bias f4 [2]
00000000: a8d1 853d f2d1 85bd
0.065341294 -0.065341845
