python/pong/policies/wall.pt (torch, 40919 bytes, 11 tensors)

critic.0.weight f4 [64, 6]
000000 48 a8 83 be 2d 66 1f 3d 6f 38 1c be 94 c2 28 3d
       -0.25714326 0.0389158 -0.15255903 0.04120119
000010 e6 e3 aa bd b0 cf 40 be 24 0b c1 bd 37 55 95 3c
       -0.083442494 -0.18829226 -0.09425953 0.01822911
000020 bf 24 1c 40 66 2d 78 3f e8 20 51 bd 70 a5 00 be
       2.4397428 0.9694427 -0.051056772 -0.1256311
000030 7d 0b 02 3e 60 2b 98 3d 9e de 44 c0 93 62 bc bc
       0.12699695 0.07430148 -3.0760875 -0.022996223
000040 03 a9 3d 3e 2b 90 00 3e 43 97 ce 3c a3 ca b7 3d
       0.18521504 0.12554996 0.025218612 0.08974197
000050 22 76 18 40 2e 35 0c bd 4f bc 9e bd d8 c2 ca bd
       2.3822103 -0.034230404 -0.07750761 -0.09900445
000060 db fb 5b 3e b1 3f 96 3d 3b 08 52 c0 97 14 7d bf
       0.21482794 0.07336367 -3.2817523 -0.9885954
000070 ee 10 51 3e 11 06 79 3e 9b c9 14 bc b4 94 9b be
       0.20416614 0.2431872 -0.00908127 -0.3038689
000080 0b 51 d8 3f 0f 05 b9 be 8d 6d c5 be 76 42 5c be
       1.6899732 -0.36136672 -0.38560143 -0.21509728
000090 38 ff ba 3c cc 0d 5b 3c de a0 a4 bf 19 7c 45 3e
       0.022826776 0.013369989 -1.2861593 0.19285621
0000a0 71 5d 77 3d 68 3e 24 3e d3 d0 36 3d 66 e6 fe bb
       0.060391847 0.16039431 0.044632744 -0.0077789305
0000b0 46 40 44 bf b8 5b 95 be ac 42 44 3e 5f a9 41 3e
       -0.76660573 -0.29171538 0.19166058 0.18912266
0000c0 42 24 f7 bd e7 62 ca bd 23 89 84 40 fb 15 41 be
       -0.120674625 -0.098821454 4.1417403 -0.18856041
0000d0 d3 cc ba bd 9e 33 0d be 8b 33 02 be 91 a7 a2 3e
       -0.09121098 -0.13789222 -0.12714975 0.31768468
0000e0 4f 49 19 c0 96 c6 4b 40 d3 69 e4 bd 1d 1a 74 3d
       -2.3950994 3.1839957 -0.11152997 0.059595216
0000f0 f2 f9 e5 bd 45 05 05 be 71 b7 65 40 7c 96 13 3f
       -0.11229314 -0.12990291 3.5893214 0.57651496
000100 b1 92 8b bd 14 7b d6 bd bf 4b e8 bd 8c 92 0c 3c
       -0.068150885 -0.10472694 -0.113425724 0.008579861
000110 11 74 91 3e 7e 79 16 3d 03 5b 09 be 45 91 53 be
       0.28408864 0.036736958 -0.13413624 -0.20660885
000120 b2 c3 09 be ab 6f 00 be 49 88 c1 3f 3e 38 17 40
       -0.13453558 -0.12542598 1.5119716 2.3628078
000130 29 b2 a9 bd a4 89 29 bb 87 61 d0 be 9c 9c 5e be
       -0.082859345 -0.0025869394 -0.40699407 -0.21739429
000140 0f b1 a6 3e a8 08 20 be 24 9d 38 bb ef 31 aa bd
       0.3255696 -0.15628302 -0.0028169835 -0.08310305
000150 db fd 24 ba 7e ce f5 be 1c 71 8c bd c1 af 38 be
       -0.0006293931 -0.48009104 -0.068575114 -0.18035795
000160 85 d9 b0 bd 74 16 3b bc ae f7 e3 3d 15 cd ea 3d
       -0.086352386 -0.011418927 0.111312255 0.114648975
000170 5a d1 ed bf 03 da 55 be 4e 6b 89 3d e4 7a 6b 3d
       -1.8579514 -0.20883946 0.0670992 0.057490245
000180 1c 55 a5 be b9 c7 93 bd 7a 22 46 be 81 ab 6b 3e
       -0.32291496 -0.072158284 -0.1934909 0.23014642
000190 7a c9 e4 bd ea 8a 0f be 17 fb 2d bb ce 3a a8 3e
       -0.11171241 -0.14017835 -0.0026547366 0.32857364
0001a0 e0 ad 96 3e 0c 52 27 be b7 69 c1 3e f8 ca 7b 3e
       0.2942953 -0.16339892 0.37775967 0.24589145
0001b0 16 0f 75 bc 19 5b 65 be 47 3d 9f c0 c1 16 06 3f
       -0.01495721 -0.22398032 -4.97623 0.5237847
0001c0 83 5c 5a bc 37 68 63 3e 0f 7c 98 bd 66 48 32 3d
       -0.013327721 0.22207724 -0.07445537 0.043526076
0001d0 7b 4d cb 3e cd 54 a6 3f b0 ac 3d bd ba 2e c7 bd
       0.3970755 1.2994629 -0.046307266 -0.09725709
0001e0 13 c0 da 3a 7e 72 f2 3d 8b 07 63 40 33 72 1a 3c
       0.0016689323 0.11838244 3.5473354 0.009426641
0001f0 17 67 67 3a fb ad f6 bd a6 61 c0 3d 68 32 31 3e
       0.0008827312 -0.12044903 0.09393625 0.17304385
000200 ee 25 a9 bf c7 b2 07 c0 5a 06 f2 3d 8b 9f 11 bd
       -1.32147 -2.1202867 0.11817618 -0.035552543
000210 4b 4f aa be ef b9 c4 bd b5 bd ba bc 0f 1b cb 3e
       -0.3326362 -0.096057765 -0.022795537 0.39669082
000220 bd de 98 bd bc 19 80 be 4b 2b d3 3b 01 05 06 3d
       -0.07464359 -0.25019634 0.00644437 0.032719616
000230 5b 64 86 40 19 4a ef bd ce 61 b8 3b 60 31 0f bd
       4.1997504 -0.11684055 0.0056268936 -0.034959197
000240 65 3e 95 bc 4c dd 11 3c a7 99 59 bf 70 e6 89 40
       -0.018218229 0.008902859 -0.8500008 4.3093796
000250 b3 2c 65 3c d0 64 e9 3b 8b b4 4d 3c 21 84 f7 bd
       0.013987708 0.0071226135 0.012555252 -0.120857485
000260 9a 55 4b 40 95 80 f7 3d f7 c0 96 bd 75 55 b3 3d
       3.1770997 0.12085072 -0.07361024 0.08756534
000270 10 c9 44 3c af 5a 3b be fb 41 00 40 50 17 99 3e
       0.012010828 -0.18296312 2.0040271 0.299006
000280 39 f3 62 bd 03 58 4c 3e d8 11 63 3c 21 33 97 3e
       -0.055407736 0.19955449 0.013859235 0.29531196
000290 1c 61 1b bf 14 ec e1 be 08 e3 90 3e 69 18 22 3e
       -0.6069505 -0.44125426 0.2829821 0.15829624
0002a0 5a 73 71 bc ac f7 11 3e 00 c1 77 bf 13 6c 85 40
       -0.014736975 0.14254636 -0.9677887 4.1694427
0002b0 22 a9 93 3c 1a 3e 03 be 26 05 7e 3e 28 f4 89 3e
       0.018024985 -0.12816659 0.24806651 0.2694409
0002c0 f0 71 10 be 39 ca 9a 3d 21 5d 29 3a 80 38 ee 3c
       -0.14105964 0.07558102 0.00064607157 0.029079676
0002d0 89 a3 bb bd b8 3f 90 bd 85 ca fc 3f 10 fc 89 3e
       -0.09162051 -0.070434034 1.9749304 0.2695012
0002e0 2d 9a a9 bd f2 00 07 be 56 cb 1b 3e 96 ac 8c 3e
       -0.0828136 -0.13183954 0.15214285 0.27475423
0002f0 31 58 4d bd ab db 44 3e c3 6e a6 3d fb d4 d2 3d
       -0.050132934 0.19224422 0.08126595 0.10294529
000300 91 a3 73 be 56 c6 38 bd 8a 92 c2 3e 99 b7 94 3d
       -0.23792864 -0.045111023 0.38002425 0.07261581
000310 c8 65 87 bb d5 bd 72 be 65 c3 a4 be 6d 37 bd 3c
       -0.0041320063 -0.23705228 -0.32180324 0.023097718
000320 cc e0 f2 bf 6c 3d ee 3f d4 f9 98 3c a4 61 42 3e
       -1.8974853 1.8612494 0.018673815 0.1898256
000330 54 32 b3 3d 91 f6 53 3d ef 9e 15 bf d0 38 03 bf
       0.08749834 0.051748816 -0.5844564 -0.51258564
000340 4c ab c2 3d 10 d7 2f 3c 25 fc 2e bd 8e 96 b9 be
       0.095053285 0.010732427 -0.042720933 -0.36247677
000350 b7 35 96 3d aa dc 4e 3e 04 de dc bc 24 2e c5 bc
       0.07334464 0.20201364 -0.026961334 -0.024069853
000360 ec 0e f4 bd 9c 01 1c be 6a c5 03 3f 8e 2d 8e 40
       -0.119169086 -0.15234989 0.51473105 4.443061
000370 f0 76 c9 bd f9 0a c1 bc 1c 54 14 bc d1 96 97 be
       -0.09837139 -0.023564802 -0.009053256 -0.2960725
000380 48 09 f2 3e da 18 74 be e6 0d c9 3a ec ba 8a be
       0.47272706 -0.23837605 0.0015339225 -0.27095735
000390 94 5a e1 bd 4b 35 0d 3d cd 91 04 40 4d 5f f3 3f
       -0.110036045 0.034474652 2.071399 1.9013458
0003a0 45 47 92 bd 9f 5e 54 be 52 1d a2 3c 35 bd 3f be
       -0.071425 -0.2073922 0.019789372 -0.1872452
0003b0 14 a0 8d 40 59 26 2d 3f 90 af ad bd 3d 24 31 3e
       4.425791 0.6763664 -0.084807515 0.1729898
0003c0 f3 cc 09 be 10 01 95 3d 40 71 90 3f 11 d8 0b 3d
       -0.13457088 0.07275593 1.1284561 0.034141604
0003d0 d9 e3 85 3e 8f 98 e0 bd 46 75 a8 ba 21 f8 8b 3e
       0.26150396 -0.10966598 -0.0012852333 0.27337745
0003e0 fd e1 16 3c bc ae 20 be de e6 1c 3f 35 a8 3b be
       0.009209153 -0.15691656 0.61289775 -0.18325885
0003f0 08 95 00 3c bb 1d 8e 3e 1d 45 16 3f 3e 49 74 40
       0.007848032 0.27757058 0.5869921 3.8169703

critic.0.bias f4 [64]
000000 66 74 91 37 4e 4a da be 96 c9 34 3f e8 18 a7 be
       1.733955e-05 -0.42634815 0.70620096 -0.3263619
000010 37 27 9c 3f 08 e1 0c bf ff 51 43 3f 17 12 f2 3e
       1.2199467 -0.5503087 0.7629699 0.47279426
000020 74 1d 8d bf 25 30 3f 3e ff a3 66 bf 7d 7e 05 35
       -1.1024613 0.1867071 -0.9009399 4.9730426e-07
000030 58 7e 03 c0 01 67 2c bc 1e 65 40 bd c1 a4 e4 3f
       -2.0545864 -0.010522605 -0.046971433 1.7862779
000040 58 63 82 36 75 80 39 3d 9d 26 e4 3e ee 8d 89 bf
       3.885867e-06 0.04528852 0.4456071 -1.0746439
000050 00 c6 72 bf a3 a7 0a 3f 8b 9d e9 33 6a 67 2c 3e
       -0.94833374 0.54162043 1.0878565e-07 0.16836324
000060 b5 db 10 bf 61 01 c4 bf a2 4a 6e bf 50 3f 8c 3e
       -0.56585246 -1.5312921 -0.9308263 0.27392054
000070 13 5d d6 bd f5 d7 59 3c 92 f8 c0 be f4 5a 0f b6
       -0.10466971 0.013296117 -0.37689644 -2.1361602e-06
000080 64 8f 82 b8 7a 75 65 be db 15 95 3e a9 c0 d1 35
       -6.225592e-05 -0.22408095 0.29118237 1.5627785e-06
000090 4e f3 88 bf ea 53 97 bc 0f 58 15 c0 41 6e 29 c0
       -1.0699251 -0.01847263 -2.3334997 -2.6473544
0000a0 99 0f ee bf c5 9c a9 3d cc c5 3b bf ad 74 9f 3b
       -1.859851 0.082818545 -0.7334869 0.0048662038
0000b0 75 52 1b 3f c4 e5 51 b6 8d eb 78 b6 52 80 1b c0
       0.60672694 -3.1277168e-06 -3.7091988e-06 -2.429707
0000c0 af 15 8a be f5 e4 c1 bf 30 81 ed 3d 82 ba 4d 3e
       -0.26969668 -1.5147997 0.11596906 0.20090678
0000d0 8b ef a2 bf 44 89 83 33 be e5 87 bc 7a 16 c9 bf
       -1.2729353 6.125131e-08 -0.016589042 -1.5709984
0000e0 32 b3 3e bc 38 d9 9c bf 20 13 87 b6 83 31 96 bc
       -0.011639403 -1.225379 -4.02554e-06 -0.018334156
0000f0 3e 56 9f 3e 88 02 82 3f 25 57 a1 3f 68 a3 ef 3b
       0.31120485 1.0157022 1.2604719 0.0073131807

critic.2.weight f4 [64, 64]
000000 98 b4 3d 3d 56 5e e5 3d f2 92 d0 3e 58 87 b2 be
       0.046314806 0.11199634 0.4073711 -0.34868884
000010 21 cc 4a 3d 94 6b 77 be 2e 45 8a 3e 3b 3d d9 3e
       0.04951108 -0.24162132 0.27005905 0.42429528
000020 be ef 32 be 9f a2 ca 3e d1 55 f5 be e3 a8 0a 3d
       -0.17474267 0.39577195 -0.47917035 0.03385247
000030 ee 33 52 be f5 cc 7e bd 35 08 a3 be bd 21 e6 bd
       -0.20527622 -0.06220718 -0.318422 -0.11236904
000040 b1 8f 1d 3e 04 6e e2 3d d3 aa 9f be 21 a7 e7 be
       0.15386845 0.1105614 -0.31185016 -0.45244697
000050 15 26 28 be 8e 4c 1a 3f f9 fe 32 3e 82 ae 7e be
       -0.16420777 0.60273063 0.17480077 -0.24871257
000060 50 bb ff be 4d ec 8e bd a1 e1 13 3e 75 5c d9 bd
       -0.49947596 -0.069786645 0.1444154 -0.10613338
000070 a0 3b 09 3f 73 22 33 be 32 99 5c be db 7f 21 3e
       0.53606606 -0.1749361 -0.21542814 0.15771429
000080 79 5a 4d be 1c 7f c1 be 82 9c 6e 3e 81 ef 6d bd
       -0.20054044 -0.3779229 0.2330189 -0.058089737
000090 6b 1e 05 bd fc b2 50 be 41 d8 48 3d f4 fc f0 3e
       -0.032499712 -0.20380777 0.04903436 0.47067988
0000a0 43 b9 f5 be 4e 13 87 3e b0 c9 3f 3e 48 8d b5 bd
       -0.47992906 0.26381916 0.18729281 -0.08864838
0000b0 1c b7 c9 3d 4f eb ba bb 84 13 d4 3e 7d a4 04 bd
       0.098493785 -0.0057043205 0.4142114 -0.03238343
0000c0 57 dc 8e bd bf 0b c1 bd 93 09 db be b2 37 99 3e
       -0.0697562 -0.094260685 -0.42780742 0.29925305
0000d0 c3 ee 73 3e 34 02 c9 be af e9 91 be c2 8d a5 be
       0.23821549 -0.39259493 -0.284986 -0.32334715
0000e0 76 88 19 be fe 57 56 3e 14 8f c7 3d 6c d5 ac be
       -0.14993462 0.20932004 0.09744087 -0.33756578
0000f0 74 32 d3 bd 0e ff 5f 3e d7 b4 6d 3e 57 6e 93 3c
       -0.103123575 0.2187464 0.23213516 0.01799695
000100 6f 31 5f be ed 99 48 be 84 e6 25 be b7 e3 33 be
       -0.21796201 -0.19589968 -0.16201216 -0.17567335
000110 76 99 01 3e 9e c4 9b be 52 88 0c be fe 99 e4 3e
       0.12656197 -0.30423445 -0.13723877 0.44648737
000120 a2 50 e2 3d 81 28 5f bd ee ca 86 bc 36 37 3c 3d
       0.11050536 -0.054481987 -0.016454186 0.04595109
000130 a6 97 2b bd f8 6b 83 be c7 4d d2 bd 47 d5 dc 3d
       -0.04189267 -0.2566831 -0.10268741 0.10782867
000140 2e 26 84 be 0b 25 06 3e e0 d0 dc 3b 1e 80 a0 bd
       -0.2581038 0.13100068 0.006738767 -0.078369364
000150 5d bb d2 be 5c b9 43 3e 87 b3 8a 3d d6 cf 06 be
       -0.41158572 0.19113678 0.067725234 -0.1316522
000160 72 d1 1c bd d8 b3 9b 3d 59 2d 6c 3e f9 58 88 3d
       -0.03828568 0.07602662 0.23064174 0.06657595
000170 e3 09 99 bd 1c 61 f5 3e d2 cd 91 bd a3 90 b1 bd
       -0.07472589 0.4792565 -0.07119335 -0.086701654
000180 6a 61 2f bd e7 9f 59 3d cb 70 63 3d 7f 67 ce bd
       -0.04281751 0.05313101 0.05552749 -0.10078334
000190 97 cf f2 bd 80 3c 88 be fa f8 b0 3d 0d 34 25 3e
       -0.11856001 -0.26608658 0.086412385 0.16133137
0001a0 c9 44 37 3e 9b fd c1 3d 67 4e 9e bd b4 5b 86 3e
       0.17897333 0.094721995 -0.07729798 0.2624184
0001b0 0a bf 44 3d 5f ac 3e 3e fc 5f e0 3e 4d c9 27 be
       0.04803375 0.18620442 0.4382323 -0.16385384
0001c0 3c e2 90 3d 79 89 1e be 63 c7 de 3c 6e a4 34 3e
       0.07074401 -0.15482129 0.027194684 0.1764085
0001d0 38 03 33 be d6 4f 02 3d 10 eb d7 ba a8 55 03 be
       -0.17481697 0.03181442 -0.0016473252 -0.12825644
0001e0 ac 0f f7 be 50 fe 8f 3e b2 0b 89 3e 10 e8 03 bc
       -0.48254144 0.28123713 0.26766735 -0.0080509335
0001f0 5b 47 7e 3e 96 27 b5 3c dc 29 56 3e 82 65 89 3e
       0.24831907 0.022113603 0.20914406 0.26835257
000200 45 1c 8e 3d d9 7b 91 be ae 55 31 3d 67 81 71 3e
       0.06938986 -0.284148 0.0432946 0.2358452
000210 c1 f6 84 be 7d 38 03 be 13 df fb 3d 35 05 85 3d
       -0.25969508 -0.12814517 0.122984074 0.06495134
000220 bd b7 01 bf 03 71 81 3e 38 ff 7e 3e b9 46 3f 3e
       -0.5067099 0.25281534 0.24902046 0.18679322
000230 e8 bf 96 be f7 17 1a 3e 08 99 03 bd b1 92 f5 be
       -0.29443288 0.15048204 -0.032128364 -0.4796348
000240 90 2b 8f be 39 28 1f be 26 ec 6e 3f 3e b8 45 bf
       -0.27962923 -0.15542687 0.93329084 -0.77234256
000250 c2 76 e4 3e 19 bb 4b 3c f4 d3 a9 3e 9f e4 74 bd
       0.44621855 0.012434744 0.3316952 -0.059788343
000260 38 43 b2 3f 53 72 c1 3e aa b5 34 bd 78 25 ec bd
       1.3926764 0.37782535 -0.04411856 -0.11530584
000270 c7 6b 8d 3f 4a 9c 7b be 3a 91 a6 be 5b 37 b2 3d
       1.1048516 -0.24571338 -0.32532674 0.087019645
000280 3f ae 20 be ac 1b b5 3e 69 ea 6c 3d 27 c6 fa bd
       -0.1569147 0.35372674 0.05784074 -0.12244826
000290 de cb e3 3e 17 79 14 3e 0c 73 9b bd 77 1d a6 bd
       0.44491476 0.14499317 -0.07590303 -0.08111089
0002a0 41 d4 15 3f 57 71 e3 3d c1 34 4d 3e 89 73 b2 3c
       0.58527 0.11105602 0.20039655 0.021783607
0002b0 f1 56 e3 bd 8f cf f5 bd a8 aa 8d 3e 3e c5 84 bd
       -0.11100567 -0.12002479 0.27669263 -0.064829335
0002c0 62 61 06 3d da 02 99 bd b7 8b 81 3e 8e 02 30 3e
       0.032807715 -0.07471247 0.25301906 0.17188475
0002d0 e0 87 a5 3e 26 d2 04 be 5e 01 83 3b 3d b6 31 3f
       0.32330227 -0.1297079 0.0039979657 0.694187
0002e0 94 62 c2 be 1b f2 0a bd d7 7e 07 bd 0b d3 b5 bd
       -0.37965834 -0.033922296 -0.03307995 -0.08878144
0002f0 9f 95 81 be 7a 79 23 3f b5 19 0a bd 0b 1e 1c bd
       -0.25309464 0.63857234 -0.033715922 -0.03811459
000300 83 61 2d 3c 88 3f de bc ed bc cd bd 21 b7 c9 be
       0.010582331 -0.027129903 -0.100458 -0.3939753
000310 c1 67 a4 bd 60 24 ab 3d 71 d9 7d 3e 13 8a 12 3d
       -0.08027602 0.08356547 0.24789979 0.03577621
000320 2d c1 8f bd 8c 44 67 3e 7c e6 9c be 52 95 a9 bc
       -0.07019267 0.22584742 -0.30644596 -0.020701084
000330 6a 0e 55 bd fc 20 54 be 40 ea 91 3e b3 75 37 be
       -0.0520157 -0.20715708 0.2849903 -0.17915992
000340 04 c0 8e 3e 10 bd f3 be 09 9a 52 3f 86 c3 a2 bd
       0.2788087 -0.4760518 0.8226629 -0.079474494
000350 ad 58 10 bf 27 76 87 bd a8 2f 1c 3e 3e 2d 2c be
       -0.5638531 -0.06614333 0.15252554 -0.16814134
000360 1d 05 ec be 56 8d 2a be ba 6a e8 be 45 00 17 be
       -0.4609765 -0.16655478 -0.45393926 -0.14746197
000370 b2 49 f6 be 6b c6 28 be 6c 89 07 bd 73 f9 10 be
       -0.481031 -0.1648194 -0.03309004 -0.14157657
000380 ca a9 10 3e d7 cf e2 be 21 c8 87 bc 98 57 af 3e
       0.1412727 -0.44299194 -0.016574921 0.34246516
000390 fc d7 e5 3d 5c 1e 2b 3e 10 e5 86 3e b1 7a 1f bf
       0.112228364 0.167108 0.26346636 -0.6229659
0003a0 14 5a bd 3d a1 2a b3 be 1f af ad be 49 40 a7 bc
       0.09245697 -0.3499346 -0.3392267 -0.020416396
0003b0 da c6 5c bd f9 69 93 3c f1 44 ce 3d 20 c6 3c 3e
       -0.053900577 0.017994868 0.10071743 0.18434954
0003c0 72 87 15 3e eb b3 81 be 49 6a d4 be 56 45 7c 3e
       0.1460245 -0.2533258 -0.4148734 0.24635825
0003d0 bc 93 b5 3e 3e eb b2 3e f0 a2 dd 3e 14 94 0e bf
       0.35464275 0.349451 0.43288374 -0.556947
0003e0 39 7f 12 3f 3e fa d2 bb 4f 9e ac 3d 4a 2c 96 3d
       0.57225376 -0.0064385226 0.084286325 0.07332666
0003f0 7d 74 ee 3b b5 96 ff 3c 23 e5 3e 3f 35 f2 3e be
       0.00727707 0.031199792 0.74568385 -0.18647082

critic.2.bias f4 [64]
000000 90 48 e0 3d f9 eb da 3d ad c3 11 3d 7b a8 38 be
       0.1095134 0.106895395 0.035587 -0.1803302
000010 c7 f7 a2 3d cc 5c f3 3d 4d a2 f2 bc c6 50 52 bc
       0.07957416 0.11882934 -0.029618407 -0.012836641
000020 1e b9 ce 3d d4 ca 3a 3e af d4 3d 3e b3 0d 1f be
       0.10093902 0.18241435 0.18538164 -0.1553257
000030 aa 78 1b be 72 bd 7d 3e bc 9d 33 3e 19 86 0a bd
       -0.15182748 0.24779299 0.1754064 -0.03381929
000040 00 30 26 be cf 89 48 3e 1d 08 a4 3c 42 98 c4 3c
       -0.16229248 0.1958382 0.0200234 0.023998383
000050 f9 c2 b1 3d 51 db f4 bd ae de 93 3d a3 77 a3 bd
       0.08679766 -0.11955894 0.07220207 -0.07981803
000060 06 84 24 be 4a af b5 bc 7d c7 c5 3d 3d de 21 be
       -0.16065988 -0.02217831 0.0965719 -0.15807433
000070 21 6c 46 3e 1b fe fe bb 74 63 15 3e 25 a7 ef bd
       0.19377185 -0.0077817566 0.1458872 -0.11701802
000080 c4 c2 95 bc 6a 26 d8 3d e5 6f 9b 3d 91 78 c1 bd
       -0.018281348 0.10554202 0.075897016 -0.09446824
000090 15 e8 63 3d ee 1e f6 bd cd 6b e6 bd ef e7 05 3d
       0.055641253 -0.12017618 -0.1125103 0.032691892
0000a0 80 c4 1d 3e 33 7f 00 3d 5c f7 72 3d 28 18 31 3d
       0.1540699 0.031371307 0.05931793 0.043235928
0000b0 64 a9 1a 3e 97 52 3f 3d 8e db 3c be 6a d7 27 3e
       0.1510368 0.046709623 -0.18443128 0.16390768
0000c0 d3 3b 82 3c 78 8f 6e 3d 46 9c fd 3c 4d 0c 2e bd
       0.015897667 0.05824229 0.030958306 -0.0424922
0000d0 44 09 19 3e 48 39 0f be 00 45 38 bd 4f 76 75 bb
       0.14944941 -0.13986695 -0.04498768 -0.003745455
0000e0 0b 9b 14 bd be 9a 32 3e 36 30 2f be 45 3f 4a 3d
       -0.036280673 0.17441842 -0.17108235 0.049376745
0000f0 6d 89 52 3d 15 13 de bc 44 8a 5d be d6 93 c4 3d
       0.05140059 -0.027108708 -0.21634775 0.0959851

critic.4.weight f4 [1, 64]
000000 1b 7e 2e bd 3c 4d 11 be b0 a2 55 bd 13 d8 ef 3d
       -0.042600732 -0.14189619 -0.052157104 0.11711135
000010 1a 42 ba ba 49 45 35 bd 04 ce 4b 3d 3d c1 00 bd
       -0.0014210374 -0.04425553 0.04975702 -0.031434286
000020 f0 4f 55 3d 17 03 45 bd 8e 8b 27 3c 88 6a 76 3b
       0.052078187 -0.04809865 0.0102261435 0.0037600119
000030 0f ff 78 3d 82 a7 00 bc ad 7d 6b bd 6b 22 a6 3c
       0.060790118 -0.007852437 -0.0574929 0.020280084
000040 1a e7 81 3e 16 85 23 be 61 50 e1 3c 19 be 4e 3d
       0.2537163 -0.15968737 0.027504148 0.05047426
000050 91 62 bb bd e2 f9 cf 3d e7 df 43 bd 7d 7c cc 3c
       -0.091496594 0.10155083 -0.04782095 0.024961704
000060 9c 8b 13 bd 2d 8a 9c 3c 0b f2 c6 bd 73 b2 44 bc
       -0.036021814 0.019108856 -0.09714135 -0.012005436
000070 e1 7c 8d be be 25 3f bd 42 57 d9 3c 2a b3 8b bc
       -0.27634338 -0.046666853 0.026530866 -0.017053206
000080 0a e0 1e 3a 1b a3 72 bc ae 0e 36 be 79 5b ee 3d
       0.0006060606 -0.014809395 -0.17779037 0.11638541
000090 f1 e7 b2 3d e3 60 c9 bd e3 7f ef 3c 74 7a ba 3c
       0.087356456 -0.09832933 0.029235786 0.022763468
0000a0 43 84 26 bd 82 0c 15 3d e8 0c 5f 3d 6b 40 ba 3a
       -0.04065348 0.03638888 0.054455668 0.0014209872
0000b0 14 d5 24 3d af 51 c0 bc 55 43 44 3d 59 6f 13 be
       0.04024227 -0.02347645 0.047915775 -0.14397945
0000c0 57 c8 dc 3d 04 b8 92 3d 21 00 f4 bb ff 36 00 bb
       0.10780399 0.071640044 -0.0074463044 -0.001956403
0000d0 76 70 03 bd 2a a2 b7 3d 28 c3 d7 3d 0f b6 4e bc
       -0.032089673 0.08966477 0.1053527 -0.012616648
0000e0 e3 b1 06 be 80 67 7a bc 55 8d fa 3d b8 ac 8e 3d
       -0.13153796 -0.015283465 0.12233988 0.06966537
0000f0 b2 cd eb bc 51 98 5e bd a7 e1 17 3e 98 f1 f1 bd
       -0.028784607 -0.05434448 0.14832173 -0.118136585

actor.0.weight f4 [64, 6]
000000 45 76 eb be 01 5f f1 3d 03 c5 08 3c e5 0e 90 bf
       -0.4598867 0.11785699 0.0083477525 -1.1254545
000010 87 f1 1f 3f e2 ce a8 bc c1 45 cf bc ff 8a ac bd
       0.62477916 -0.020606462 -0.025301816 -0.08424949
000020 40 f9 85 3d 04 28 98 bf 9f 01 f0 bd ce 09 32 3e
       0.06541681 -1.1887212 -0.11719059 0.17386553
000030 70 09 a1 3d a5 58 17 3e 57 c6 1f bf 63 48 ba be
       0.07863128 0.14779909 -0.6241202 -0.36383352
000040 34 ad 26 3e 6c 3e 5c bd 48 5c ce bd 68 27 f7 bd
       0.16277009 -0.053770468 -0.10076195 -0.12068063
000050 a4 ed 29 bc 8b a2 e6 3c 00 27 c3 ba c2 b2 b7 be
       -0.010371599 0.028153678 -0.0014888942 -0.3587857
000060 d8 96 58 3e 3a f0 2c 3e cb 11 09 be 55 8f 5c bd
       0.21151292 0.16888514 -0.13385694 -0.05384763
000070 9e 7f f1 bb fc bf 0d 3e 78 7d a6 3e 53 b9 ba 3d
       -0.0073699495 0.13842767 0.325176 0.09117379
000080 94 fd 16 c0 9e 40 0c 3f 10 72 3e 3e ea 1f 25 bd
       -2.3592272 0.547861 0.18598199 -0.04031364
000090 ce a5 f7 3e 9a f0 79 3e 28 a7 2b bf e1 05 7f 3d
       0.48368686 0.24408188 -0.67051935 0.062261466
0000a0 c8 bc 4a 3e b2 6a 48 be 2b 7a 97 bd cc 21 1e be
       0.19798577 -0.19571951 -0.073963486 -0.1544258
0000b0 44 54 b0 be ae 8e 43 3f 5c 33 21 be d8 66 0f 3d
       -0.3443929 0.76389587 -0.15742248 0.03501019
0000c0 80 17 60 3e 70 36 5e 3d 9a f0 f8 bf 9d 66 60 3f
       0.21883965 0.054251134 -1.9448426 0.87656575
0000d0 6e 60 7c 3d 22 51 a6 bd b0 81 dc bd 1a bd de 3d
       0.0616154 -0.081209436 -0.107669234 0.10875912
0000e0 e8 f7 10 3f 2d e1 de 3f d9 7d b9 bd c4 30 5d be
       0.56628275 1.7412468 -0.09057207 -0.21600634
0000f0 2e 8e de ba aa 78 0f be d7 e4 3f be 97 55 14 3e
       -0.0016979629 -0.14010873 -0.18739639 0.14485775
000100 52 13 7f be 53 d3 a7 be 8a bd b7 3e a5 32 bf 3d
       -0.24909714 -0.32778415 0.35886794 0.093358316
000110 02 e6 86 bf c4 d4 0d bf c3 2d 1a 3e 4c c5 9f bd
       -1.0538943 -0.5540278 0.15056519 -0.07801303
000120 44 e6 10 bf e2 53 41 3b 4f 3e e6 3d e2 cf 89 be
       -0.5660136 0.002949946 0.11242353 -0.26916414
000130 68 d4 97 be f1 4e 78 bd 80 28 3a be cf d8 ee 3c
       -0.2965424 -0.06062216 -0.18179512 0.029156117
000140 d1 cb 81 3e 6a 9f 59 bd 4a 90 e4 bd fc f4 e3 bd
       0.25350812 -0.053130545 -0.111603335 -0.111307114
000150 98 b1 79 bb a4 f3 fb 3e 27 6e 63 be 5e 84 8d be
       -0.003810024 0.4920932 -0.22209989 -0.2764005
000160 a6 d1 0b 3e 23 38 0a 3f 42 1c 38 3d 01 46 a8 be
       0.13654193 0.5399191 0.044948824 -0.3286591
000170 11 2c 76 be 2a a1 19 bf 95 d4 fe 3d 9d ee b4 3e
       -0.24040247 -0.6001154 0.124428906 0.35338297
000180 c2 ae 2b 3b 2e d9 86 3d ab 23 96 bd e9 24 4f be
       0.0026196693 0.065843925 -0.07331022 -0.20228924
000190 d9 d2 32 3f 1b 26 12 3e 49 a8 93 be aa 59 18 be
       0.6985298 0.14272349 -0.2883933 -0.14877954
0001a0 b5 13 d0 3d be 1a 32 3d 23 15 b9 be e0 dd b3 bd
       0.10160009 0.043482535 -0.3614894 -0.08782554
0001b0 95 97 01 bd 16 25 74 3d 69 9c 90 bf 2b 1d f3 be
       -0.0316387 0.05960568 -1.1297733 -0.4748319
0001c0 74 bd 16 bf 67 fb 08 be d0 f1 98 3d f2 09 81 3e
       -0.5888283 -0.13377152 0.07467997 0.252029
0001d0 22 e2 fc be 86 4a ca bf 7c 17 de 3e e2 ea 21 be
       -0.49391276 -1.5803993 0.43377292 -0.15812257
0001e0 fb b4 72 3a dd 52 c4 be b1 2e 86 3c ab 94 07 3e
       0.00092585356 -0.3834447 0.016379686 0.13240306
0001f0 21 80 82 be 33 15 85 be bf cf 4c be 02 1e f3 bd
       -0.2548838 -0.25992736 -0.20001124 -0.11870958
000200 c6 f1 30 3b 61 83 d5 3d f5 cd 78 39 18 94 fa be
       0.0026999577 0.10425449 0.00023727848 -0.48941112
000210 69 0f fe 3d 19 38 5b 3e 3d 53 6e 3f 3d ae 05 40
       0.12405283 0.21408118 0.9309576 2.0887597
000220 f3 af 2b 3e 95 a6 5b 3d 3a 9b c9 bd 73 2f 3a be
       0.16766338 0.053625662 -0.0984406 -0.18182163
000230 6f dc 55 bd 73 80 11 be 75 da 4e be 90 9b bd 3d
       -0.052212175 -0.14209156 -0.20200522 0.09258187
000240 50 36 bc 3d 33 6f 4e 3d 98 e1 85 bf 53 51 c9 bf
       0.09190047 0.050399017 -1.0459471 -1.5727943
000250 62 6e 9c 3e d4 9c 91 3c f1 88 33 3f c9 d1 c1 3d
       0.30552965 0.017774977 0.7013083 0.094638415
000260 25 ed b8 3e e3 f3 96 3f 1f ca c8 3e 5f a4 03 bd
       0.36118427 1.1793178 0.39216706 -0.03213918
000270 c8 34 59 3b 7d f7 0a bf 84 4e e2 be 87 23 b4 3d
       0.0033143032 -0.5428389 -0.44200528 0.08795839
000280 5a 18 66 be 0b 82 a3 be ef b5 1f bc 15 1f ab bd
       -0.22470227 -0.31935152 -0.009747966 -0.08355538
000290 9c 68 35 3e 2e c3 e7 3f f4 58 d7 be d3 04 94 3d
       0.17715687 1.8106439 -0.42060053 0.07227483
0002a0 a1 19 03 3e 28 94 35 3e 85 44 a6 be 4f b3 a5 bd
       0.12802745 0.17732298 -0.3247415 -0.08090841
0002b0 ec 78 35 3e d0 8c f5 bd 79 46 f4 3d 3f f2 be be
       0.1772191 -0.119897485 0.11927504 -0.37294194
0002c0 95 69 08 bf 08 51 dd be 7b df b5 3d 6b 66 d0 3e
       -0.53286105 -0.43225884 0.08880516 0.4070314
0002d0 00 2f 19 be ed e0 06 3e 40 60 9c be 86 cc 8d be
       -0.14959335 0.1317174 -0.30542183 -0.27695101
0002e0 b7 14 a5 bb c8 e1 c7 be 49 ac 14 3f 61 58 25 3d
       -0.00503787 -0.39039445 0.58075386 0.040367488
0002f0 3c c4 ed 3d be 86 b5 3e 3a cc ca 3e 03 5c de 3a
       0.11609694 0.35454363 0.39608938 0.0016964677
000300 6d da 13 bd ff 81 9d bd d2 46 b8 be 92 a5 0c 3f
       -0.03609698 -0.076908104 -0.35991532 0.5494014
000310 a1 2e a8 be 95 04 97 bc 17 3e d1 39 24 61 4c 3e
       -0.32848075 -0.018434802 0.00039909847 0.19958931
000320 dd 56 19 be 63 bd 9c bd ca 76 85 3e f8 53 a5 3e
       -0.14974542 -0.0765331 0.2606719 0.32290626
000330 ff 6b b1 be d5 0a 0a be a0 2f b8 3f 69 8b 37 bd
       -0.34652707 -0.13480695 1.4389534 -0.044810686
000340 49 03 94 bd 06 39 99 3d a1 07 9d bd 87 50 6c bb
       -0.07227189 0.074815795 -0.07667471 -0.003605874
000350 b6 54 49 3f 2f 5b 8a 3f 96 70 d6 be ae 87 c0 bd
       0.78644884 1.0809077 -0.4188277 -0.09400879
000360 93 ff 14 3d 91 0e fa 3d 8b 49 9a be 96 c5 1a be
       0.036376547 0.122098096 -0.30134234 -0.15114436
000370 79 bc e5 3d 73 eb 36 3d 05 b6 ae 3e 17 af e1 3e
       0.11217589 0.044658136 0.34123245 0.44078895
000380 0f 13 91 be 33 11 fd bd 87 fa d4 bc c3 76 ae 3e
       -0.28334853 -0.12356796 -0.025998367 0.34074983
000390 10 a7 f9 3d 74 eb bd 3e 1a 7d 16 3e 5f c2 97 3d
       0.12190068 0.370937 0.1469616 0.0741012
0003a0 19 08 c9 3c 12 fa d6 3e 2a 1b 91 be e5 44 83 3d
       0.024539994 0.41987664 -0.28341037 0.06409625
0003b0 5e 05 99 3f fe 79 fb be 06 70 af bd c3 fc 0a be
       1.1954763 -0.4911651 -0.08566289 -0.13572983
0003c0 75 c1 5e be 82 9e 5f be 9e d7 8e 3f 8b c4 8c be
       -0.21753486 -0.2183781 1.1159551 -0.274937
0003d0 43 3c 90 bd 85 66 16 3e 68 54 00 bd 37 9a 0a be
       -0.07042744 0.14687546 -0.031330496 -0.13535391
0003e0 61 d7 35 3f c4 47 61 3f e2 9e b5 be 61 62 72 be
       0.7103177 0.8800013 -0.3547278 -0.23670341
0003f0 dd ee e4 ba f7 d7 a9 be 2a c6 05 3e 44 ba 2f be
       -0.0017466206 -0.3317258 0.13063875 -0.17160898

actor.0.bias f4 [64]
000000 9e 02 05 3f 98 e3 05 be 61 c9 f5 3e 15 c1 86 bb
       0.5195712 -0.13075101 0.48005202 -0.0041123726
000010 49 db 43 3c 91 51 01 40 e2 15 75 3f b6 4e 37 3d
       0.011954137 2.0206034 0.95736516 0.0447528
000020 29 e6 74 40 66 a5 41 bf 3e 1f ec bb 20 3d f5 3f
       3.8265479 -0.75643003 -0.007205873 1.9159279
000030 0d 96 3e bf 83 ac a1 be d7 8d 6e 3d 85 9c 4b 3f
       -0.7444771 -0.31576928 0.058240738 0.79535705
000040 13 95 58 3e aa 70 23 32 d7 93 6b 3f 7b 04 80 3f
       0.21150617 9.513466e-09 0.9202246 1.0001367
000050 b3 35 41 be 79 61 8b b8 93 eb 10 bf 63 9a a0 39
       -0.18868141 -6.646192e-05 -0.5660946 0.00030632605
000060 11 b5 8f 3f 3c 79 04 3f 20 10 7d be e3 42 2a bf
       1.1227132 0.5174749 -0.24713182 -0.6650831
000070 43 f7 39 3e c4 ca dd 3e 09 f8 ba bb 5c 38 a3 3e
       0.18160729 0.4331876 -0.0057058376 0.31878936
000080 1a f2 44 3e cc cd e5 3c ee a1 eb bf 8e 34 2b bf
       0.1923298 0.028052233 -1.8408792 -0.6687707
000090 fc c6 b7 3e 6d d6 23 3d 61 a5 0b 35 00 bd 05 bf
       0.35894 0.039999414 5.2022193e-07 -0.52241516
0000a0 37 9b d8 bf 21 84 c0 be b8 ae 73 bd 2a 17 fb 3d
       -1.6922368 -0.37600806 -0.059492797 0.122602776
0000b0 7c 91 cf 36 9f b6 1f 3f d0 1a ab 3e f8 cd 8d bd
       6.1860173e-06 0.6238803 0.33418894 -0.06924051
0000c0 08 75 6e 3e fd 91 83 bd 01 ad 71 3f 97 b9 21 bf
       0.23286831 -0.064243294 0.9440461 -0.6317381
0000d0 d9 aa 6e 3f 4a 35 0c be 31 43 ac be a9 14 8e 3f
       0.9322944 -0.13692203 -0.33645013 1.1100055
0000e0 cc 32 97 bf a2 aa 98 3e 8d fc 97 3c 8a 00 6b be
       -1.1812377 0.29817683 0.018553043 -0.22949424
0000f0 04 ea 7d 3d 63 94 7e bf ab 5f 1c b6 57 e3 58 b8
       0.061990753 -0.9944517 -2.3301498e-06 -5.171014e-05

actor.2.weight f4 [64, 64]
000000 1d 87 82 be 34 f4 54 be ff 79 b3 bd ef 44 bb bd
       -0.25493708 -0.20796281 -0.08763503 -0.091440074
000010 de 35 17 bd 75 ef a9 3e e3 e1 aa bd e5 c9 20 be
       -0.036916606 0.33190504 -0.08343866 -0.15702017
000020 d4 c6 93 3a c9 5d 0f be cb ed 35 3e 0b 7b 50 be
       0.0011274465 -0.1400062 0.17766492 -0.20359437
000030 46 b4 06 bd 23 f0 9d 3d 7e 3c 3b bd 2c f6 97 be
       -0.032886766 0.07711818 -0.045711987 -0.29680002
000040 05 14 89 bd 05 99 a0 3e b6 f1 3c be 0f 06 33 be
       -0.066932715 0.31366745 -0.1845158 -0.1748278
000050 33 40 55 be 7b 4d d2 bd 39 e1 21 3c b5 5f b2 bd
       -0.20825271 -0.102686845 0.009880357 -0.08709661
000060 9a 04 77 bd 8f 99 fe be 4e 3c 3d bd a5 15 82 3e
       -0.060307123 -0.4972653 -0.04620009 0.25407138
000070 78 fd 6a bd 9f 01 ed bc 43 59 05 be 9d 43 8f 3e
       -0.057370633 -0.028931437 -0.13022332 0.27981272
000080 8c 49 10 3f fc b2 b7 3c 14 ae 47 3f a7 3e cf 3e
       0.56362224 0.022424214 0.78 0.40477487
000090 6c 6a 37 3e 8d c4 59 be 2e f3 57 3d 7f aa c6 3d
       0.1791169 -0.21266384 0.05272215 0.09700488
0000a0 a3 d8 97 3e 02 cb 4d 3d e7 1d 96 bd 54 3a 58 bd
       0.29657468 0.05024243 -0.07329922 -0.05279
0000b0 ab 2b 81 bd e4 31 6b 3d 45 78 2f be 4f ef eb 3d
       -0.06307157 0.057420626 -0.17135723 0.11520254
0000c0 74 42 d7 bb b7 f4 a4 be 2f da 94 be 38 48 39 3e
       -0.006569201 -0.32217953 -0.2907271 0.18093956
0000d0 f7 69 8f be 79 20 fb 3d 15 15 d3 3e dd 67 1f be
       -0.28010532 0.12262053 0.41227022 -0.15566964
0000e0 6c fc 27 bd 6e b1 d2 bc 97 8f 9c bd 37 df f3 3e
       -0.041012213 -0.02571937 -0.07644575 0.47631237
0000f0 de ba 3d 3d 99 2a 72 3e 8f d9 c8 3d 0e 8a 0a be
       0.04632079 0.23649062 0.09807121 -0.13529226
000100 5b e3 c4 3e 34 39 cd 3e 1f a4 b0 be e9 c7 22 bd
       0.38454708 0.40082705 -0.34500214 -0.03974143
000110 c6 28 83 bd 69 2b 15 be c9 47 bb 3d a1 8c a1 3d
       -0.06404261 -0.14567341 0.09144551 0.07888151
000120 79 8f f0 bd e9 de 9e 3e 1b 0e a9 be 29 c0 8d 3e
       -0.11746115 0.31029442 -0.33018574 0.2768567
000130 a7 7f ee 3e 26 5b 58 3e db ed 7a be 18 e7 84 3e
       0.46581766 0.2112852 -0.24504797 0.2595756
000140 93 37 23 bd 26 4a 07 3e 2a 14 5a bd 12 d9 79 3d
       -0.03984792 0.13211879 -0.053241886 0.06099803
000150 ae 69 0e 3e 12 c0 8d bb a9 99 4e 3e aa 67 1e be
       0.13907501 -0.004325875 0.20175804 -0.15469232
000160 cf 8e 58 be 95 61 bc be 1c b6 21 3e a6 6c e3 3e
       -0.21148227 -0.367932 0.15792125 0.4441883
000170 54 65 5d bd d1 84 00 bf dc 13 18 3e 81 51 83 3e
       -0.054051712 -0.5020266 0.14851326 0.2564812
000180 8f 6c c4 be ff f1 98 3e bb 83 33 bd 69 d8 f2 3d
       -0.38364074 0.29872128 -0.0438268 0.11857683
000190 b3 9f a1 3d 57 b2 7d be bc d4 34 bd 97 a9 ef 3e
       0.07891788 -0.24775063 -0.04414819 0.46809074
0001a0 5b 1b c0 bd 80 ea 2e 3e 5f ed b3 bc cb 70 97 be
       -0.09380218 0.17081642 -0.021963773 -0.29578242
0001b0 d3 f7 a2 3d c8 7c 1f bf 1b 11 c3 bd 48 b6 1a be
       0.07957425 -0.62299776 -0.09524747 -0.15108597
0001c0 0f 87 14 3f 37 00 da bb a7 8c 8c be a0 79 0c 3e
       0.58018583 -0.0066528576 -0.2745106 0.13718271
0001d0 21 6c 82 3e 3f 51 ff 3e b5 c9 fc 3d ba 03 67 be
       0.2547312 0.49866673 0.1234316 -0.22560015
0001e0 be 66 0c be 64 f9 49 3e cd b2 31 bd d5 6c 84 3e
       -0.13711068 0.19724041 -0.04338341 0.25864282
0001f0 c5 77 0c be da d8 07 be 13 26 95 be e1 0c 3a be
       -0.13717563 -0.13266316 -0.2913061 -0.18168975
000200 a3 c2 80 3e cd 5f e4 bd 63 34 80 3e 82 ac a8 bc
       0.25148496 -0.11151085 0.25039968 -0.02059007
000210 d0 2f 7a 3e 33 9c ca be 51 c6 8a 3d 73 d1 25 3e
       0.24432302 -0.39572296 0.06776107 0.1619318
000220 62 9f 20 bf 32 22 cf be b8 ab 3a 3e 4c 44 bd be
       -0.627432 -0.40455776 0.18229568 -0.3696617
000230 08 e0 2a bf 01 23 81 be 0e 2c d1 3e 2e d2 c5 be
       -0.66748095 -0.25222018 0.40853924 -0.38636917
000240 ec 09 2d 3e 73 62 bf bd 5a f7 9a be b7 6a b8 bd
       0.16898316 -0.093449496 -0.3026684 -0.09004729
000250 26 75 42 be 45 76 97 be 00 e5 18 3f 71 5a a5 be
       -0.18990001 -0.2958242 0.59724426 -0.32295564
000260 41 7f 81 bd 32 a1 2d 3e 00 23 1d be 05 06 03 bf
       -0.063231 0.16956022 -0.15345383 -0.5118106
000270 5f 13 b3 bd c4 88 b6 be 96 46 67 bd d0 03 3d 3e
       -0.08743929 -0.3565122 -0.0564638 0.18458486
000280 d7 5e 7b be a7 dd b5 3e 8b 11 d2 3e e5 bc 80 be
       -0.24547897 0.3552067 0.4102901 -0.25144115
000290 20 4f 36 be f0 be 6d 3e b4 3a 00 3e af 84 4c be
       -0.17803621 0.23217368 0.12522393 -0.1997249
0002a0 ab 18 3c 3e 70 76 72 3d d2 d9 4f 3c ac 1a b6 3e
       0.18368785 0.059194982 0.01268621 0.35567224
0002b0 6d bd eb 3d 0a 93 22 bd 55 22 c8 bc 3e 56 15 be
       0.115107395 -0.03969101 -0.024430433 -0.1458368
0002c0 8e 6e 9d be e6 ea 50 be a1 ec b3 3e 11 ad eb bd
       -0.3074841 -0.20402107 0.3514147 -0.11507619
0002d0 e8 5d a6 3e 4b 11 bf be 34 2c 23 bd 0e 5d d5 39
       0.3249352 -0.3731788 -0.039837077 0.00040695857
0002e0 ef 33 82 3e f7 cf cd be bb 58 15 3e 62 e9 23 be
       0.25430247 -0.40197727 0.14584629 -0.16006997
0002f0 d8 3f 30 be 4c eb 59 3e ed f2 9e 3d 8a 9b 95 3e
       -0.17211854 0.21281165 0.07761178 0.2922023
000300 52 bb 0c 3f 1b 35 62 3e 88 77 87 be c5 40 bd bd
       0.5497333 0.2209057 -0.26458383 -0.092408694
000310 0e f8 0c 3d 96 56 fc 3e 6a 89 b2 39 eb 17 d9 3c
       0.03441625 0.4928481 0.00034053187 0.026500663
000320 9d df e1 3e c6 ea 85 3e 4c f8 85 be d1 55 b5 bd
       0.44115916 0.2615568 -0.26165998 -0.08854259
000330 4f 5b 26 3e 6a fe ca bb 7b 5d 4f be 94 38 fc 3d
       0.16245769 -0.0061948793 -0.20250504 0.12315479
000340 48 32 50 bd e0 8d 3f 3d b6 00 e9 3d 9f 04 8d 3e
       -0.050829202 0.046766162 0.11377089 0.27542588
000350 29 ad 92 bd 3c fd c5 be 9e ed dc be 51 13 9d 3c
       -0.07161934 -0.38669765 -0.43150038 0.01917425
000360 96 0b 11 3f dc 45 13 3f 5b bd 12 be f5 28 96 bf
       0.56658304 0.5752847 -0.14330046 -1.1731249
000370 ff 83 64 3e e4 c2 ab 3e e4 5a 7b 3d 45 2a 45 be
       0.22315978 0.33547127 0.061365977 -0.19254406
000380 c7 f7 a8 bc a5 09 ff bd 54 b9 07 3d df 82 4d be
       -0.020625962 -0.124530114 0.033135727 -0.20069455
000390 87 0a 05 3e 68 2d de 3c 99 90 6a 3d 4e 89 83 3e
       0.12992297 0.02712126 0.057266805 0.25690693
0003a0 30 ce 9a 3e b1 d5 69 be 1a 27 82 3e 27 21 96 bd
       0.30235434 -0.22835423 0.25420457 -0.07330542
0003b0 f5 f0 21 3c d5 84 6e 3e bd aa 87 3d 82 3d 15 be
       0.009884109 0.23292859 0.066243626 -0.14574245
0003c0 31 1e b0 3d ca 69 91 be cd 8a 87 bf c2 f6 fc be
       0.085995086 -0.28401023 -1.0589234 -0.4940701
0003d0 2d 54 a6 3d e3 86 be bd 3e 1e 87 bc f5 6b 4d 3e
       0.08121524 -0.09303071 -0.016493913 0.20060714
0003e0 a9 00 26 bf 9f 14 59 3e 56 3d aa be ae ca 22 bd
       -0.6484476 0.21199273 -0.3324992 -0.03974407
0003f0 b1 58 16 be fe 56 e3 be 58 2c 41 bd 67 57 62 be
       -0.1468227 -0.44402307 -0.04716143 -0.22103654

actor.2.bias f4 [64]
000000 de 40 4b bc 75 f7 e9 3b 65 e4 98 3d 94 40 8e 3c
       -0.012405602 0.007140095 0.07465438 0.017364778
000010 bd 5f 31 3e 73 4e 41 3c 32 77 94 bd f7 8d c4 be
       0.17321678 0.011798489 -0.07249297 -0.3838956
000020 ae 65 b9 bc dd 5a 2e 3e 44 33 85 be f6 10 a0 3d
       -0.022631492 0.17026849 -0.26015675 0.07815735
000030 2c be 9d be 78 19 89 3c 84 b6 af bd dc 1c 5e bd
       -0.30809152 0.016735777 -0.08579734 -0.05422674
000040 39 fb b7 be 81 ad d8 3c 70 55 49 3e 43 f0 0a 3e
       -0.35933855 0.02644992 0.19661498 0.13568215
000050 0a 1d 31 3d b0 ab 85 3e 38 c1 01 bd d4 a0 62 be
       0.043240584 0.2610755 -0.03167841 -0.22131664
000060 bb 07 7c bd bd 3a 34 3e d6 00 14 bd 95 47 d1 3c
       -0.06153081 0.17600532 -0.03613361 0.025546828
000070 cf 63 1e 3e b1 58 27 3e de 3b 3d be 80 2f 82 be
       0.15467761 0.16342427 -0.18479869 -0.25426865
000080 f8 39 b2 bd 0b dd 93 bd 7c b1 a6 bd 1c 0c a2 bd
       -0.08702463 -0.07219895 -0.08139321 -0.07912466
000090 5f 08 8b bd 97 35 51 be 21 4e d3 3d 24 6a a7 bd
       -0.06788706 -0.20430599 0.10317636 -0.081745416
0000a0 d4 70 39 3d 13 eb 3d be 28 55 2e be 16 2e e2 3d
       0.045273617 -0.18546705 -0.17024672 0.110439464
0000b0 59 ff 87 bd a1 20 fb bd ad ce 0b bd e7 df 64 bd
       -0.066405006 -0.12262083 -0.03413265 -0.055877592
0000c0 09 e6 9e bd f8 35 fc 3d 79 b5 23 be 8e 2b 6f 3d
       -0.077587195 0.12314981 -0.15987195 0.058391146
0000d0 8c 20 68 be fd ea 69 3e f7 ac 8c 3d d2 10 ef bc
       -0.22668666 0.22843547 0.06868928 -0.029182825
0000e0 d5 30 63 bd e0 a3 4c 3d 39 96 92 bb e4 be 2f be
       -0.05546649 0.04996097 -0.0044734743 -0.17162663
0000f0 e7 b0 d1 3d d1 38 a0 bd 8e 8c 1e 3d bc 49 0b be
       0.102388196 -0.07823337 0.038708262 -0.13602346

actor.4.weight f4 [2, 64]
000000 c8 5f 02 be 5d 3d 12 be 22 23 9e bc 2a cd 5a 3d
       -0.1273185 -0.1428122 -0.019303862 0.053418316
000010 2c a4 be bc 63 d6 96 3e 11 5f 5e 3c 03 51 3b 3e
       -0.023271643 0.2946044 0.01357247 0.18292622
000020 d4 81 a4 bd 68 65 2c be 69 50 33 3e ae 7f 48 3e
       -0.08032575 -0.16835558 0.17511143 0.19579956
000030 ec 16 1b 3e b0 6e 49 b9 f9 3a 64 3e 99 ed 8d 3c
       0.15145463 -0.00019210088 0.22288121 0.01732521
000040 77 00 2a 3f a1 20 af 3b a9 7e bd bd e6 2b cb bd
       0.6640696 0.005344466 -0.09252674 -0.09920482
000050 31 d2 b8 3d ae b4 d4 bd 87 ab 69 bd 1f 80 2e 3e
       0.09024466 -0.103860244 -0.057048347 0.17041062
000060 68 c2 31 3c 3e 6f f3 3c 3a 43 f2 bb 7c ab 74 be
       0.010849573 0.02971613 -0.007393268 -0.23893541
000070 b7 e2 b6 bc 08 75 c1 3d 7b de b3 bd 28 b1 bb 3d
       -0.022324903 0.0944615 -0.08782669 0.09164649
000080 ed 43 9a bb ae 21 5d be 4a 6e 89 bd 83 02 cc 3e
       -0.0047078044 -0.21594879 -0.06710489 0.39845666
000090 10 be 06 3c 9c 35 f5 3d 7b fc b9 3d 43 d9 44 3d
       0.008224025 0.11973116 0.0908136 0.04805876
0000a0 78 95 c2 3c e2 56 92 3b c4 60 37 3b 7a 89 9b 3d
       0.023752913 0.0044659236 0.002798126 0.07594581
0000b0 f6 47 03 3e 24 a3 6f bd 95 5c 94 3e 95 ef 2e 3e
       0.1282042 -0.058505192 0.28976884 0.17083581
0000c0 10 c0 a2 bd f2 30 bb 3b 44 85 dc 3d b4 79 2b 3c
       -0.07946789 0.005712622 0.10767606 0.010466028
0000d0 21 a6 de 3d dc 9f 22 be 64 f2 3b be 17 0d fd bd
       0.1087153 -0.15881294 -0.18354183 -0.12356012
0000e0 72 41 32 be 8c 45 08 3e 25 17 67 be 2c ba 3d bc
       -0.17407778 0.1330778 -0.22567423 -0.011580031
0000f0 40 cd 55 3c 1f 89 e4 3c 6f 45 13 be de bd 8d bc
       0.013049424 0.027897416 -0.14381956 -0.01730245
000100 00 19 01 3e 26 2a 11 3e 84 77 8a 3c d1 64 58 bd
       0.12607193 0.14176235 0.016902693 -0.05283052
000110 53 55 c4 3c d6 d9 95 be ab 6c 7e bc 36 6f 3d be
       0.023966467 -0.29267758 -0.015528838 -0.18499455
000120 06 d5 a5 3d 70 6d 30 3e a3 06 36 be 8b 24 48 be
       0.080972716 0.17229247 -0.17775969 -0.1954519
000130 26 f5 1c be 5d f5 00 3b 89 77 63 be 3a fc 5b bc
       -0.15327892 0.0019677498 -0.22213568 -0.013426835
000140 dd f6 29 bf a1 61 78 bb 5c e9 bc 3d 83 70 c9 3d
       -0.6639231 -0.0037899988 0.09224197 0.09835913
000150 77 1b b6 bd 34 7a d1 3d d2 b9 72 3d 5b f6 30 be
       -0.08891957 0.102283865 0.059259243 -0.17281477
000160 4e 33 2b bc 79 e4 f7 bc f9 59 ef 3b 9b d7 76 3e
       -0.010449244 -0.030260311 0.0073044267 0.24105684
000170 03 05 a7 3c 8e 75 c2 bd f5 3d b4 3d c6 8f b7 bd
       0.020388132 -0.09495078 0.0880088 -0.089629695
000180 7f d1 98 3b 96 66 5c 3e 96 ce 87 3d ce 11 ce be
       0.0046636458 0.21523508 0.066312 -0.4024796
000190 59 91 e8 bb 94 12 f4 bd 8b be bc bd b2 17 40 bd
       -0.007097405 -0.11917606 -0.09216031 -0.046897598
0001a0 43 44 be bc d1 04 c7 ba e3 fd 11 bb 24 2d a3 bd
       -0.02322591 -0.001518393 -0.0022276572 -0.07967594
0001b0 91 27 02 be 73 8d 65 3d c5 dd 94 be 33 a1 2e be
       -0.12710406 0.0560431 -0.29075447 -0.1705368
0001c0 7e ca a4 3d 73 d3 99 bb 00 b7 db bd 81 17 34 bc
       0.08046435 -0.004694396 -0.10728264 -0.010991932
0001d0 f0 4a e2 bd 69 4f 24 3e b8 0e 3c 3e 1f 52 fa 3d
       -0.110494494 0.16045918 0.1836499 0.122226946
0001e0 bb 06 33 3e 5d f7 05 be 18 5a 69 3e 07 06 4c 3c
       0.17483036 -0.13082643 0.22788274 0.012452609
0001f0 2a 96 94 bc ab ae e3 bc 6a 16 12 3e 18 39 92 3c
       -0.01813801 -0.02779325 0.14266363 0.01784949

actor.4.bias f4 [2]
000000 d4 d5 9e 3d de d6 9e bd
       0.07755628 -0.077558264
