python/pong/policies/wall.pt (torch, 40919 bytes, 11 tensors)

critic.0.weight f4 [64, 6]
0	0xbe83a848	-0.25714326
1	0x3d1f662d	0.0389158
2	0xbe1c386f	-0.15255903
3	0x3d28c294	0.04120119
4	0xbdaae3e6	-0.083442494
5	0xbe40cfb0	-0.18829226
6	0xbdc12f06	-0.09432797
7	0x3c954063	0.018219179
8	0x401c24c3	2.4397438
9	0x3f782d4d	0.96944124
10	0xbd512918	-0.05106458
11	0xbe00a7b3	-0.12563972
12	0x3e020979	0.12698926
13	0x3d982a58	0.074299514
14	0xc044de9e	-3.0760875
15	0xbcbc621b	-0.022996
16	0x3e3d9b60	0.18516302
17	0x3e008fa1	0.1255479
18	0x3cef65db	0.029223373
19	0x3dad4368	0.08460122
20	0x4016c5f8	2.355833
21	0xbd9fa0ad	-0.07794318
22	0xbdaceb58	-0.08443326
23	0xbdd49167	-0.10379296
24	0x3e5bfc43	0.21482949
25	0x3d962745	0.07331709
26	0xc052083b	-3.2817523
27	0xbf7d1497	-0.9885954
28	0x3e511432	0.2041786
29	0x3e78f9d5	0.24314053
30	0xbc14c99b	-0.00908127
31	0xbe9b94b4	-0.3038689
32	0x3fd8510b	1.6899732
33	0xbeb9050f	-0.36136672
34	0xbec56d8d	-0.38560143
35	0xbe5c4276	-0.21509728
36	0x3cb6d37b	0.022317639
37	0x3c587744	0.013212029
38	0xbfa4a15e	-1.2861745
39	0x3e4584e0	0.19288969
40	0x3d7728dd	0.060341705
41	0x3e240fc3	0.16021638
42	0x3d36de78	0.044645756
43	0xbbfcaa40	-0.007710725
44	0xbf444046	-0.76660573
45	0xbe955bb8	-0.29171538
46	0x3e444c71	0.19169785
47	0x3e41bb5f	0.18919133
48	0xbdf6b0a7	-0.120454125
49	0xbdca4abd	-0.098775364
50	0x40848932	4.1417475
51	0xbe41170b	-0.18856446
52	0xbdbab6de	-0.091169104
53	0xbe0d26c8	-0.13784325
54	0xbe0a958d	-0.13533612
55	0x3e9d2b46	0.30697078
56	0xc01952eb	-2.395686
57	0x404d878c	3.2113981
58	0xbdf41d36	-0.11919634
59	0x3d47c3d7	0.04877075
60	0xbde5feca	-0.11230238
61	0xbe050582	-0.12990382
62	0x4065b771	3.5893214
63	0x3f139678	0.5765147
64	0xbd8b98c8	-0.0681625
65	0xbdd67bb2	-0.10472812
66	0xbde84bbf	-0.113425724
67	0x3c0c928c	0.008579861
68	0x3e917411	0.28408864
69	0x3d16797e	0.036736958
70	0xbe095b03	-0.13413624
71	0xbe539145	-0.20660885
72	0xbe09c3b2	-0.13453558
73	0xbe006fab	-0.12542598
74	0x3fc18849	1.5119716
75	0x4017383e	2.3628078
76	0xbda9b229	-0.082859345
77	0xbb2989a4	-0.0025869394
78	0xbed06187	-0.40699407
79	0xbe5e9c9c	-0.21739429
80	0x3ea6b10f	0.3255696
81	0xbe2008a8	-0.15628302
82	0xbb389d24	-0.0028169835
83	0xbdaa31ef	-0.08310305
84	0xba2514dc	-0.0006297359
85	0xbef5ce7e	-0.48009104
86	0xbd8c711c	-0.068575114
87	0xbe38afc1	-0.18035795
88	0xbdb0d97f	-0.08635234
89	0xbc3b168f	-0.011418953
90	0x3de3d9f4	0.11125556
91	0x3deac414	0.1146318
92	0xbfedd15a	-1.8579514
93	0xbe55d9fe	-0.20883939
94	0x3d8970c7	0.06710964
95	0x3d6b6833	0.05747242
96	0xbea5551c	-0.32291496
97	0xbd93c7b9	-0.072158284
98	0xbe46227a	-0.1934909
99	0x3e6bab81	0.23014642
100	0xbde4c97a	-0.11171241
101	0xbe0f8aea	-0.14017835
102	0xbb2b65dc	-0.0026153242
103	0x3ea83130	0.32850027
104	0x3e96ade0	0.2942953
105	0xbe27520c	-0.16339892
106	0x3ec1682e	0.37774795
107	0x3e7bb7ba	0.24581805
108	0xbc7c16f4	-0.015386332
109	0xbe70c98b	-0.23514383
110	0xc09f50c1	-4.9786077
111	0x3ee9d139	0.45667437
112	0xbc0c7d6d	-0.008574826
113	0x3e584918	0.21121633
114	0xbd985cdf	-0.07439589
115	0x3d3253ff	0.043537136
116	0x3ecb4d82	0.3970757
117	0x3fa654cd	1.2994629
118	0xbd3d98cd	-0.0462883
119	0xbdc72957	-0.09724682
120	0xbc90a7ba	-0.017658103
121	0x3ddbdc8b	0.107354246
122	0x406185b2	3.523785
123	0xbb2a512c	-0.0025988324
124	0xbbda23cb	-0.006657099
125	0xbe06928e	-0.13141844
126	0x3dc06bef	0.09395587
127	0x3e314406	0.17311105
128	0xbfa925ee	-1.32147
129	0xc007b2c7	-2.1202867
130	0x3df20c3f	0.11818742
131	0xbd1158ee	-0.0354852
132	0xbeaa4f4b	-0.3326362
133	0xbdc4b9ef	-0.096057765
134	0xbcbabdb5	-0.022795537
135	0x3ecb1b0f	0.39669082
136	0xbd98debd	-0.07464359
137	0xbe8019bc	-0.25019634
138	0x3be773b1	0.007063352
139	0x3cf2f6cd	0.0296587
140	0x4086b89e	4.2100363
141	0xbe0ca22c	-0.13733739
142	0x3bc5e163	0.006038831
143	0xbd1adfe6	-0.037811182
144	0xbd13542d	-0.03596895
145	0x3c2e2466	0.010628795
146	0xbf647872	-0.89246285
147	0x40891862	4.2842264
148	0x3c8ef389	0.017450111
149	0x3c115583	0.008870485
150	0x3b92de1f	0.0044820453
151	0xbe098456	-0.13429388
152	0x404b0deb	3.1727245
153	0x3dd26652	0.10273422
154	0xbd9f16ab	-0.077679954
155	0x3d97f671	0.07420052
156	0xbb39a918	-0.0028329547
157	0xbe38dcfd	-0.1805305
158	0x4000d49d	2.012977
159	0x3eb989d3	0.36237964
160	0xbd2bd711	-0.04195315
161	0x3e4e2e85	0.20134933
162	0x3c638715	0.013887187
163	0x3e973594	0.29533064
164	0xbf1b611c	-0.6069505
165	0xbee1ec14	-0.44125426
166	0x3e90e8d9	0.2830265
167	0x3e221d7c	0.1583156
168	0xbbe5e30d	-0.007015592
169	0x3e0fa2e1	0.14026977
170	0xbf76b93a	-0.96376383
171	0x4085c08f	4.1797557
172	0x3c9e31fe	0.019310948
173	0xbe057ef7	-0.13036714
174	0x3e7e0b57	0.24809013
175	0x3e89f4b5	0.2694451
176	0xbe1071f0	-0.14105964
177	0x3d9aca0f	0.07558071
178	0x3a396d77	0.00070735015
179	0x3cee4270	0.029084414
180	0xbdbba3bf	-0.091620915
181	0xbd903fc1	-0.0704341
182	0x3ffcca85	1.9749304
183	0x3e89fc10	0.2695012
184	0xbda99a36	-0.082813665
185	0xbe0700f2	-0.13183954
186	0x3e1bdb04	0.15220267
187	0x3e8cabf6	0.27474946
188	0xbd4d5828	-0.0501329
189	0x3e44dbab	0.19224422
190	0x3da68e5e	0.08132623
191	0x3dd2d2b4	0.10294095
192	0xbe73a391	-0.23792864
193	0xbd38c656	-0.045111023
194	0x3ec2928a	0.38002425
195	0x3d94b799	0.07261581
196	0xbb8765c8	-0.0041320063
197	0xbe72bdd5	-0.23705228
198	0xbeab67d5	-0.33477655
199	0x3c165ef0	0.009177908
200	0xbff38d01	-1.9027406
201	0x3fef3a68	1.8689699
202	0xbc0ac493	-0.0084697185
203	0x3e33f8e4	0.17575413
204	0x3db33dff	0.08752059
205	0x3d5401db	0.051759582
206	0xbf159eef	-0.5844564
207	0xbf0338d0	-0.51258564
208	0x3dc29622	0.09501292
209	0x3c3005c3	0.010743561
210	0xbd2efc10	-0.042720854
211	0xbeb9968e	-0.36247677
212	0x3d9635b7	0.07334464
213	0x3e4edcaa	0.20201364
214	0xbcdcddf0	-0.026961297
215	0xbcc52e22	-0.02406985
216	0xbdf3a125	-0.1189597
217	0xbe1bf6f6	-0.15230927
218	0x3f03c529	0.5147272
219	0x408e2d97	4.443065
220	0xbdc9718a	-0.09836109
221	0xbcc0c641	-0.023532035
222	0xbc144f8d	-0.0090521695
223	0xbe9796d1	-0.2960725
224	0x3ef20948	0.47272706
225	0xbe7418da	-0.23837605
226	0x3ac93c72	0.0015353097
227	0xbe8abaec	-0.27095735
228	0xbde15a84	-0.110035926
229	0x3d0d354b	0.034474652
230	0x400491cd	2.071399
231	0x3ff35f4d	1.9013458
232	0xbd92473c	-0.07142493
233	0xbe545e9f	-0.2073922
234	0x3c8c7349	0.017144816
235	0xbe41bb95	-0.18919213
236	0x408ed88d	4.4639344
237	0x3f278d7f	0.6545028
238	0xbd6ea06d	-0.058258463
239	0x3e2f3d83	0.17113309
240	0xbe02b337	-0.12763678
241	0x3d99a69d	0.07502482
242	0x3f8d138f	1.1021594
243	0x3d06393b	0.032769423
244	0x3e8b401e	0.27197355
245	0xbddb2b86	-0.10701661
246	0xba78b139	-0.00094868575
247	0x3e8c19ef	0.27363536
248	0x3c17400e	0.00923158
249	0xbe20bcd7	-0.15697037
250	0x3f1ce7ff	0.612915
251	0xbe3b72ee	-0.18305561
252	0xbb730fbf	-0.0037088243
253	0x3e96b55c	0.2943524
254	0x3f1518c4	0.58240914
255	0x4074e7e0	3.8266525

critic.0.bias f4 [64]
0	0x37917466	1.733955e-05
1	0xbeda4a62	-0.42634875
2	0x3f34c996	0.70620096
3	0xbea2e220	-0.31813145
4	0x3f9c2737	1.2199467
5	0xbf0ce108	-0.5503087
6	0x3f43517a	0.762962
7	0x3ef21217	0.47279426
8	0xbf8d1d5f	-1.1024588
9	0x3e3a0869	0.1816727
10	0xbf66a3ff	-0.9009399
11	0x35057e7d	4.9730426e-07
12	0xc0037e58	-2.0545864
13	0xbc2c6701	-0.010522605
14	0xbd40651e	-0.046971433
15	0x3fe4a4c1	1.7862779
16	0x36826358	3.885867e-06
17	0x3d398075	0.04528852
18	0x3ee292b7	0.4425256
19	0xbf898dee	-1.0746439
20	0xbf77956d	-0.9671238
21	0x3f0aa7a3	0.54162043
22	0x33e99d8b	1.0878565e-07
23	0x3e28eb21	0.16495945
24	0xbf157c88	-0.58393145
25	0xbfc42f07	-1.5326852
26	0xbf74d799	-0.95641476
27	0x3e8c3f50	0.27392054
28	0xbde75735	-0.1129593
29	0x3c59d809	0.013296136
30	0xbec0f892	-0.37689644
31	0xb60ebb03	-2.1268504e-06
32	0xb8828f64	-6.225592e-05
33	0xbe6eccb8	-0.23320282
34	0x3e9515db	0.29118237
35	0x35d1e99a	1.56397e-06
36	0xbf88f339	-1.0699226
37	0xbc9753e9	-0.018472629
38	0xc015580f	-2.3334997
39	0xc0298551	-2.648762
40	0xbfe92d8c	-1.8217025
41	0x3da99e5c	0.08282158
42	0xbf4028f3	-0.75062484
43	0x3b9f7514	0.0048662517
44	0x3f1b5275	0.60672694
45	0xb65401b7	-3.159146e-06
46	0xb6802d36	-3.8199605e-06
47	0xc01b8052	-2.429707
48	0xbe8a15af	-0.26969668
49	0xbfc1e4ec	-1.5147986
50	0x3db600c1	0.088868625
51	0x3e523817	0.20529209
52	0xbfa2ef8b	-1.2729353
53	0x33838944	6.125131e-08
54	0xbc87e5be	-0.016589042
55	0xbfc91682	-1.5709994
56	0xbc3eb2da	-0.011639321
57	0xbf9d0303	-1.2266544
58	0xb685c6e5	-3.9868632e-06
59	0xbc963184	-0.018334158
60	0x3e9cdfa4	0.30639374
61	0x3f820288	1.0157022
62	0x3fa1635d	1.2608448
63	0x3befa369	0.007313181

critic.2.weight f4 [64, 64]
0	0x3d3dac48	0.04630688
1	0x3de55a2f	0.11198842
2	0x3ed093b6	0.40737695
3	0xbeb28870	-0.3486972
4	0x3d4ad471	0.049519006
5	0xbe776da5	-0.2416292
6	0x3e8a45f2	0.2700649
7	0x3ed93dff	0.42430112
8	0xbe32f1cf	-0.17475055
9	0x3ecaa10d	0.39575997
10	0xbef55695	-0.4791762
11	0x3d0aa093	0.03384454
12	0xbe5235ff	-0.2052841
13	0xbd7ed545	-0.06221511
14	0xbea308f9	-0.31842783
15	0xbde61d97	-0.112361126
16	0x3e1d8da0	0.15386057
17	0x3de2722a	0.11056931
18	0xbe9fabe3	-0.31185827
19	0xbee7a7e5	-0.4524528
20	0xbe2828ae	-0.16421768
21	0x3f1a4cfd	0.60273725
22	0x3e32fce8	0.17479289
23	0xbe7eb027	-0.24871884
24	0xbeffbb0c	-0.49947393
25	0xbd8ef051	-0.069794305
26	0x3e13deda	0.1444048
27	0xbdd9584f	-0.10612547
28	0x3f093bdb	0.5360696
29	0xbe332062	-0.17492822
30	0xbe5c9b43	-0.21543603
31	0x3e2181ec	0.15772218
32	0xbe4d5c8a	-0.20054832
33	0xbec17cb1	-0.37790444
34	0x3e6e9e93	0.23302679
35	0xbd6df7d1	-0.058097664
36	0xbd0526bb	-0.03250764
37	0xbe50b50d	-0.20381565
38	0x3d48cff1	0.049026433
39	0x3ef0fb85	0.47066894
40	0xbef5b8c0	-0.47992516
41	0x3e871412	0.263825
42	0x3e3fc65f	0.18728016
43	0xbdb58922	-0.08864047
44	0x3dc9bb42	0.0985017
45	0xbbbaa96b	-0.0056964657
46	0x3ed41448	0.41421723
47	0xbd04accd	-0.03239136
48	0xbd8ee07d	-0.069764115
49	0xbdc10fe6	-0.094268605
50	0xbedb0c66	-0.42782897
51	0x3e993717	0.29924843
52	0x3e73ecb2	0.23820761
53	0xbec902f8	-0.39260077
54	0xbe91ea73	-0.28499183
55	0xbea58e86	-0.323353
56	0xbe198a87	-0.1499425
57	0x3e56521e	0.20929763
58	0x3dc7933a	0.09744878
59	0xbeacd630	-0.33757162
60	0xbdd337fb	-0.10313412
61	0x3e60011f	0.21875428
62	0x3e6db6eb	0.23214309
63	0x3c937ed7	0.018004818
64	0xbe5f33d0	-0.21797109
65	0xbe489c4e	-0.19590876
66	0xbe25e423	-0.16200309
67	0xbe33ec3e	-0.17570588
68	0x3e019bd7	0.12657104
69	0xbe9bc5cd	-0.30424348
70	0xbe0c85f2	-0.13722971
71	0x3ee49b2d	0.4464964
72	0x3de24be3	0.110496305
73	0xbd5fcfb0	-0.054641426
74	0xbc86dda1	-0.016463103
75	0x3d3c2ddc	0.045942172
76	0xbd2ba100	-0.04190159
77	0xbe836d27	-0.25669214
78	0xbdd25286	-0.10269646
79	0x3ddcda06	0.10783772
80	0xbe84275d	-0.25811282
81	0x3e06276c	0.13100976
82	0x3bd7e119	0.006588113
83	0xbda084dd	-0.07837842
84	0xbed2b41d	-0.4115304
85	0x3e43bbbd	0.19114585
86	0x3d8aaec8	0.06771618
87	0xbe06935a	-0.13142148
88	0xbd1d224c	-0.038362786
89	0x3d9badfa	0.07601543
90	0x3e6c4547	0.23073302
91	0x3d885db8	0.066585004
92	0xbd990bca	-0.07472952
93	0x3ef5624b	0.47926554
94	0xbd91d291	-0.071202405
95	0xbdb18be4	-0.0866926
96	0xbd2f6ac4	-0.04282643
97	0x3d59e218	0.053194135
98	0x3d637a25	0.055536408
99	0xbdce6c3e	-0.10079239
100	0xbdf2d456	-0.11856906
101	0xbe883daf	-0.2660956
102	0x3db0f43b	0.08640333
103	0x3e25267e	0.16127965
104	0x3e373387	0.1789075
105	0x3dc2025a	0.09473105
106	0xbd9e3309	-0.07724578
107	0x3e865ce3	0.26242742
108	0x3d44c864	0.04804267
109	0x3e3eaec0	0.1862135
110	0x3ee0612b	0.43824133
111	0xbe27cbae	-0.16386291
112	0x3d90dd7d	0.070734955
113	0xbe1e8bda	-0.15483037
114	0x3cde70ba	0.027153362
115	0x3e34ba5c	0.17649215
116	0xbe330599	-0.17482604
117	0x3d02467c	0.0318055
118	0xbad91720	-0.0016562678
119	0xbe035809	-0.12826551
120	0xbef710db	-0.48255047
121	0x3e8fe7c4	0.2810651
122	0x3e890ce1	0.26767638
123	0xbc040d92	-0.008059876
124	0x3e7e57c4	0.24838167
125	0x3cb53a49	0.02212252
126	0x3e562c4a	0.20915332
127	0x3e8966b1	0.2683616
128	0x3d8445d4	0.06458631
129	0xbe93f17b	-0.28895172
130	0x3d450288	0.048098117
131	0x3e6a57e3	0.22885089
132	0xbe828123	-0.25489148
133	0xbe0823a7	-0.1329485
134	0x3e02dac9	0.12778772
135	0x3d8edb97	0.06975477
136	0xbf02f284	-0.511513
137	0x3e800c83	0.25009546
138	0x3e7a1408	0.24421704
139	0x3e3a5b8e	0.18198988
140	0xbe993589	-0.29923657
141	0x3e152ccc	0.1456787
142	0xbd1745e2	-0.03693188
143	0xbef31d10	-0.4748311
144	0xbe91a131	-0.28443292
145	0xbe1a3d0c	-0.1506235
146	0x3f66920d	0.90066606
147	0xbf46f304	-0.7771456
148	0x3ed6b9ff	0.4193878
149	0x3c8d3732	0.017238233
150	0x3ea75e53	0.3268915
151	0xbd9e7c28	-0.07738525
152	0x3fb4772a	1.4098866
153	0x3ebce5a3	0.3689395
154	0xbd3b047f	-0.045658585
155	0xbde24f17	-0.110502414
156	0x3f901f67	1.1259583
157	0xbe76b126	-0.24091014
158	0xbea906db	-0.33013043
159	0x3dbc0dbd	0.09182308
160	0xbe25996a	-0.16171804
161	0x3eb2f87e	0.3495521
162	0x3d804b90	0.062644124
163	0xbe024e41	-0.12725164
164	0x3ee1563d	0.44011107
165	0x3e0f8dec	0.14018983
166	0xbda5496d	-0.080706455
167	0xbdcf2c3d	-0.1011586
168	0x3f147ce3	0.5800306
169	0x3ded4798	0.11585921
170	0x3e3a2be7	0.1818081
171	0x3cd9cd35	0.026587108
172	0xbdd9808f	-0.10620224
173	0xbdebf92f	-0.115221374
174	0x3e902049	0.28149632
175	0xbd8e9ba2	-0.06963278
176	0x3ce5691e	0.028004225
177	0xbda2d93b	-0.0795159
178	0x3e7c44fc	0.2463569
179	0x3e2c099f	0.16800545
180	0x3ea3123f	0.31849858
181	0xbe09bd50	-0.13451123
182	0xba53299a	-0.00080552103
183	0x3f307b76	0.68938386
184	0xbec4d835	-0.38446203
185	0xbd765d2c	-0.06014745
186	0xbce7a404	-0.028276451
187	0xbdbfa96b	-0.09358486
188	0xbe82a1d0	-0.25514078
189	0x3f24b440	0.6433754
190	0xbcec903e	-0.028877374
191	0xbd087136	-0.03331109
192	0x39f51db6	0.00046752178
193	0xbd188df3	-0.03724475
194	0xbdb905eb	-0.09034332
195	0xbeda9106	-0.4268877
196	0xbd8fb0bb	-0.070161305
197	0x3d966d5c	0.073450774
198	0x3e841a84	0.2580148
199	0x3d3bf83d	0.045891035
200	0xbda47830	-0.080307364
201	0x3e779655	0.24178441
202	0xbea2144b	-0.31656107
203	0xbcfc71b3	-0.030815935
204	0xbd7e7c82	-0.06213046
205	0xbe5e7c76	-0.21727166
206	0x3e8cbc71	0.2748752
207	0xbe2d1a38	-0.16904533
208	0x3e899235	0.2686936
209	0xbeee8f41	-0.4659367
210	0x3f58fe61	0.8476315
211	0xbdb77a87	-0.08958917
212	0xbf12e8fb	-0.5738675
213	0xbd657e28	-0.056028515
214	0x3e11d42e	0.14241096
215	0xbe51c236	-0.20484242
216	0xbee2d6f6	-0.44304627
217	0xbe34e911	-0.17667033
218	0xbeee459a	-0.46537477
219	0xbe0ca4ca	-0.13734737
220	0xbee41ff6	-0.44555634
221	0xbe1e6af0	-0.15470481
222	0xbd30f797	-0.04320487
223	0xbe069df8	-0.13146198
224	0x3e064e50	0.13115811
225	0xbeda1294	-0.425923
226	0xbbd3af5e	-0.0064601144
227	0x3eaa29c9	0.33235005
228	0x3dd120fd	0.1021137
229	0x3e20c2e2	0.15699342
230	0x3e81b741	0.25335124
231	0xbf237532	-0.638507
232	0x3d913b42	0.07091381
233	0xbeadfccf	-0.3398194
234	0xbeacd80c	-0.3375858
235	0xbc28c7ee	-0.010301573
236	0xbd3358b1	-0.043785755
237	0x3ce64656	0.02810971
238	0x3de2fbf3	0.11083212
239	0x3e326aa6	0.17423496
240	0x3e0b2bf8	0.13590991
241	0xbe86e1b5	-0.26344076
242	0xbedd1af1	-0.43184617
243	0x3e77113f	0.24127673
244	0x3eb065ed	0.34452763
245	0x3eadbd6f	0.3393359
246	0x3ed87521	0.42276862
247	0xbf112af6	-0.5670618
248	0x3f0fe857	0.562139
249	0xbab9fbf6	-0.001418947
250	0x3dc15551	0.09440101
251	0x3d81753c	0.06321189
252	0xbccbb6d1	-0.024867447
253	0x3d293985	0.04131462
254	0x3f417c05	0.75579864
255	0xbe3496ba	-0.17635623

critic.2.bias f4 [64]
0	0x3de04cb6	0.109521315
1	0x3ddaf0b8	0.10690445
2	0x3d257086	0.040390514
3	0xbe2e4d00	-0.1702156
4	0x3da2d49c	0.07950708
5	0x3df3378d	0.1187583
6	0xbce05976	-0.027386408
7	0xbc3f9b4b	-0.01169474
8	0x3dca2ced	0.0987185
9	0x3e3af596	0.18257746
10	0x3e525444	0.20539957
11	0xbe4466bf	-0.1917982
12	0xbe0c3665	-0.13692625
13	0x3e7faab5	0.24967463
14	0x3e20705d	0.15667863
15	0xbcfbdedf	-0.030745922
16	0xbe260cb5	-0.16215785
17	0x3e5888e4	0.2114597
18	0x3c429b31	0.011877821
19	0x3cf47461	0.02984065
20	0x3db13969	0.08653528
21	0xbdf312d3	-0.11868825
22	0x3d97f2a9	0.074193306
23	0xbdcd3b00	-0.10021019
24	0xbe123709	-0.14278807
25	0xbcf015d6	-0.029307287
26	0x3dcecf5a	0.10098143
27	0xbe21bca9	-0.15794624
28	0x3e463827	0.19357358
29	0xbc448737	-0.011995128
30	0x3e07f2a4	0.13276154
31	0xbdf15ae1	-0.11784912
32	0xbc954af1	-0.018224211
33	0x3dd0289d	0.10163996
34	0x3da018aa	0.07817204
35	0xbdb36601	-0.0875969
36	0x3d72bca0	0.059261918
37	0xbe21af61	-0.15789558
38	0xbdd168ce	-0.10225068
39	0x3d74bc71	0.059750024
40	0x3e202ea5	0.15642793
41	0x3cf549db	0.029942444
42	0x3d385e13	0.04501159
43	0x3d3b3bee	0.04571145
44	0x3e20e197	0.15711056
45	0x3d19ba92	0.037531443
46	0xbe3cb852	-0.18429688
47	0x3e22376f	0.15841459
48	0x3c2119cd	0.009832812
49	0x3d4eb82e	0.050468616
50	0x3c7a36c5	0.015271847
51	0xbd2fae4a	-0.042890824
52	0x3e259f10	0.16173959
53	0xbe06e866	-0.1317459
54	0xbd341ef1	-0.04397482
55	0xbae9e116	-0.001784357
56	0xbd2aa1a7	-0.04165807
57	0x3e21d8cc	0.15805358
58	0xbe134d6d	-0.14385004
59	0x3d38cb5e	0.04511582
60	0x3d79c5f6	0.060979806
61	0xbb9c4405	-0.0047688507
62	0xbe5e0d65	-0.21684797
63	0x3db6fbc1	0.08934737

critic.4.weight f4 [1, 64]
0	0xbd22bded	-0.03973191
1	0xbe0e5d2c	-0.1390273
2	0xbd272152	-0.04080326
3	0x3df3bd50	0.11901343
4	0x3abf04c3	0.0014573563
5	0xbd298665	-0.041387934
6	0x3d409848	0.047020227
7	0xbce9d9ee	-0.0285463
8	0x3d497168	0.04918042
9	0xbd394038	-0.04522726
10	0x3c1fe086	0.00975812
11	0x3c85fe06	0.01635648
12	0x3d6e37f4	0.05815883
13	0xbbb4b6e2	-0.0055149654
14	0xbd5fa93e	-0.05460476
15	0x3cace297	0.02110414
16	0x3e806f1d	0.25084773
17	0xbe34a75e	-0.1764197
18	0x3cbb833c	0.022889726
19	0x3d5a2b75	0.0532641
20	0xbdb5834a	-0.08862932
21	0x3dca1cdd	0.098687865
22	0xbd38087d	-0.04492997
23	0x3cad5a94	0.021161355
24	0xbd308fba	-0.04310582
25	0x3d27a421	0.04092801
26	0xbdc104c8	-0.0942474
27	0xbc73cc23	-0.014880213
28	0xbe8c04e6	-0.27347487
29	0xbd644f76	-0.055739842
30	0x3d17a0ef	0.037018713
31	0xbca301f9	-0.019898402
32	0x3b63a846	0.003473775
33	0xbc4bf69d	-0.012448934
34	0xbe3e1f44	-0.18566614
35	0x3dee9edd	0.116513945
36	0x3db354fe	0.08756445
37	0xbdbaf10c	-0.09128007
38	0x3cfe989d	0.031078631
39	0x3c17d19b	0.009266282
40	0xbd1a9cc1	-0.03774715
41	0x3b1d222c	0.0023976667
42	0x3d376b80	0.044780254
43	0x3b8aacf0	0.0042320415
44	0x3d2090e8	0.039200693
45	0xbc8486b2	-0.016177509
46	0x3d388460	0.045048118
47	0xbe099b58	-0.13438165
48	0x3deaa3b6	0.11457007
49	0x3d8f4e91	0.06997407
50	0xbc9cd101	-0.01914263
51	0xbb9a780c	-0.0047140177
52	0xbd098975	-0.033578355
53	0x3de38908	0.11110121
54	0x3dd1e5cf	0.10248911
55	0xbc1b5c47	-0.00948245
56	0xbe08e3b2	-0.13368109
57	0xbc5607f8	-0.013063423
58	0x3dffed68	0.124964535
59	0x3dcb2360	0.099188566
60	0xbd56629a	-0.052340128
61	0xbd4a116b	-0.049333017
62	0x3e14f177	0.14545237
63	0xbdea0736	-0.114271566

actor.0.weight f4 [64, 6]
0	0xbed35a50	-0.4127984
1	0x3dd48254	0.103764206
2	0x3d6075e4	0.05479993
3	0xbf94b18d	-1.1616684
4	0x3f2d237b	0.67632264
5	0xbd0cc769	-0.03436986
6	0xbcc7e492	-0.024400983
7	0xbdde1ab0	-0.10844934
8	0x3de38da1	0.11110998
9	0xbf9cae8b	-1.2240766
10	0xbe119b32	-0.14219359
11	0x3e199bc3	0.15000825
12	0x3da23c0d	0.0792161
13	0x3e1749d5	0.14774258
14	0xbf1fc65c	-0.6241205
15	0xbeba48e5	-0.3638374
16	0x3e26dba5	0.16294725
17	0xbd5c74f7	-0.053822484
18	0xbdce5c48	-0.10076195
19	0xbdf72768	-0.12068063
20	0xbc29eda4	-0.010371599
21	0x3ce6a28b	0.028153678
22	0xbac32700	-0.0014888942
23	0xbeb7b2c2	-0.3587857
24	0x3e59ed8f	0.21282028
25	0x3e2cf7d6	0.16891417
26	0xbe091e39	-0.13390435
27	0xbd5c7cd5	-0.053829987
28	0x38a7ae71	7.995673e-05
29	0x3e0dc7ee	0.13845798
30	0x3ea6b566	0.3256027
31	0x3dbb69e7	0.09151059
32	0xc016fd94	-2.3592272
33	0x3f0c408c	0.5478599
34	0x3e3e88d7	0.18606888
35	0xbd23bcbd	-0.039974917
36	0x3ef835f7	0.48478672
37	0x3e798f26	0.24371013
38	0xbf2ba728	-0.67051935
39	0x3d7ef9e3	0.06225003
40	0x3e4affa8	0.19824088
41	0xbe48c9cd	-0.19608231
42	0xbd979628	-0.07401687
43	0xbe1e2471	-0.15443589
44	0xbeb05427	-0.34439203
45	0x3f438e98	0.76389456
46	0xbe213468	-0.15742648
47	0x3d0f5e2c	0.03500192
48	0x3e6fd6d1	0.2342179
49	0x3d72c8bc	0.059273466
50	0xbff819fa	-1.9382927
51	0x3f60c930	0.8780699
52	0x3d550b93	0.05201299
53	0xbd9c14c7	-0.076211505
54	0xbddc82ec	-0.10767159
55	0x3ddebcec	0.10875878
56	0x3f10f7e8	0.56628275
57	0x3fdee12d	1.7412468
58	0xbdb97dfa	-0.09057231
59	0xbe5d30d1	-0.21600653
60	0xbadb53e1	-0.0016733372
61	0xbe0f77e4	-0.14010578
62	0xbe3fe4e2	-0.18739656
63	0x3e1455ad	0.14485808
64	0xbe7f130c	-0.2490961
65	0xbea7d30d	-0.32778206
66	0x3eb7bd4f	0.35886618
67	0x3dc069cc	0.09395179
68	0xbf86e602	-1.0538943
69	0xbf0dd447	-0.55402035
70	0x3e19fb1f	0.15037201
71	0xbd9e90ee	-0.07742487
72	0xbf10e644	-0.5660136
73	0x3b41228c	0.0029470054
74	0x3de63e4f	0.11242353
75	0xbe89cfe2	-0.26916414
76	0xbe97d468	-0.2965424
77	0xbd78520d	-0.060625125
78	0xbe3a2880	-0.18179512
79	0x3ceed88d	0.029155994
80	0x3e81cbd1	0.25350812
81	0xbd599f6a	-0.053130545
82	0xbde4904a	-0.111603335
83	0xbde3f501	-0.11130715
84	0xbb1c4992	-0.0023847562
85	0x3efb56de	0.49089712
86	0xbe636ddb	-0.22209875
87	0xbe8d87d6	-0.27642697
88	0x3e0c6faa	0.13714471
89	0x3f09eb3f	0.5387458
90	0x3d3391ae	0.043840103
91	0xbea8a129	-0.32935455
92	0xbe762388	-0.24036992
93	0xbf19a483	-0.6001665
94	0x3dff04b3	0.12452068
95	0x3eb49bc7	0.352751
96	0x3b53780b	0.0032267596
97	0x3d85ee6a	0.065396145
98	0xbd9623d2	-0.07331051
99	0xbe4f27c2	-0.2023001
100	0x3f32df9d	0.69872457
101	0x3e11b340	0.14228535
102	0xbe93a849	-0.2883933
103	0xbe1859aa	-0.14877954
104	0x3dd013b5	0.10160009
105	0x3d321abe	0.043482535
106	0xbeb91523	-0.3614894
107	0xbdb3dde0	-0.08782554
108	0xbd05f132	-0.032700725
109	0x3d719979	0.058984254
110	0xbf909bfb	-1.1297601
111	0xbef31367	-0.4747574
112	0xbf16c4ed	-0.58894235
113	0xbe09a334	-0.13441163
114	0x3d983b8b	0.07433232
115	0x3e8124d1	0.252234
116	0xbefce1fc	-0.49391162
117	0xbfca4a7d	-1.5803982
118	0x3ede0709	0.43364742
119	0xbe21b690	-0.15792298
120	0x3a72b4fb	0.00092585356
121	0xbec452dd	-0.3834447
122	0x3c862eb1	0.016379686
123	0x3e0794ab	0.13240306
124	0xbe828021	-0.2548838
125	0xbe851533	-0.25992736
126	0xbe4ccfbf	-0.20001124
127	0xbdf31e02	-0.11870958
128	0x3b30f1c6	0.0026999577
129	0x3dd58361	0.10425449
130	0x3978cdf5	0.00023727848
131	0xbefa9418	-0.48941112
132	0x3e00a0cb	0.12561338
133	0x3e59c9c5	0.21268375
134	0x3f6e5397	0.930963
135	0x4005adf0	2.0887413
136	0x3e2c2c96	0.16813883
137	0x3d5605a6	0.05225148
138	0xbdc99b23	-0.09844043
139	0xbe3a2ef4	-0.18181974
140	0xbd55dc70	-0.05221218
141	0xbe118073	-0.14209156
142	0xbe4eda6b	-0.20200507
143	0x3dbd9c99	0.09258384
144	0x3dbb831b	0.09155866
145	0x3d4f5829	0.050621185
146	0xbf85e198	-1.0459471
147	0xbfc9514c	-1.5727935
148	0x3e9c6951	0.305491
149	0x3c936145	0.017990718
150	0x3f333fdc	0.70019317
151	0x3dc34945	0.095354594
152	0x3eb8ed36	0.36118478
153	0x3f96f441	1.179329
154	0x3ec89a97	0.39180443
155	0xbd00bec0	-0.031431913
156	0x3b5934c8	0.0033143032
157	0xbf0af77d	-0.5428389
158	0xbee24e84	-0.44200528
159	0x3db42387	0.08795839
160	0xbe66185a	-0.22470227
161	0xbea3820b	-0.31935152
162	0xbcd97592	-0.02654532
163	0xbdb611b1	-0.08890093
164	0x3e3f2591	0.18666674
165	0x3fe6712f	1.8003291
166	0xbedebdf5	-0.435043
167	0x3d89ddfa	0.06731792
168	0x3e02cf0a	0.12774292
169	0x3e3605f3	0.17775707
170	0xbea64462	-0.32474047
171	0xbda5af97	-0.08090132
172	0x3e353cc0	0.17698956
173	0xbdf4ac0f	-0.1194688
174	0x3df365b1	0.118846305
175	0xbebe9027	-0.37219355
176	0xbf0869a1	-0.53286177
177	0xbedd4fa2	-0.43224818
178	0x3db55662	0.08854367
179	0x3ed0c782	0.40777212
180	0xbe192f61	-0.1495948
181	0x3e06e04a	0.13171497
182	0xbe9c603c	-0.3054217
183	0xbe8dcc85	-0.276951
184	0xbba886ff	-0.005143046
185	0xbec7e227	-0.39039728
186	0x3f1491b8	0.5803485
187	0x3d2695da	0.040670253
188	0x3dedc459	0.11609716
189	0x3eb5872f	0.354547
190	0x3ecab257	0.39589188
191	0x3b02e7bb	0.0019974548
192	0xbd1defd1	-0.038558785
193	0xbd9ea81e	-0.077469096
194	0xbeb83fc3	-0.35986146
195	0x3f0ca04c	0.54932094
196	0xbea84cc7	-0.32871076
197	0xbc9ad009	-0.018898027
198	0x3a3e8b5c	0.0007268691
199	0x3e4bf46c	0.19917458
200	0xbe195727	-0.14974652
201	0xbd9cc236	-0.0765423
202	0x3e85909a	0.26086885
203	0x3ea51e8c	0.32249868
204	0xbeb16bff	-0.34652707
205	0xbe0a0ad5	-0.13480695
206	0x3fb82fa0	1.4389534
207	0xbd378b69	-0.044810686
208	0xbd940349	-0.07227189
209	0x3d993906	0.074815795
210	0xbd9d07a1	-0.07667471
211	0xbb6c5087	-0.003605874
212	0x3f4954b6	0.78644884
213	0x3f8a5b2f	1.0809077
214	0xbed67096	-0.4188277
215	0xbdc087ae	-0.09400879
216	0x3d1adfb2	0.03781099
217	0x3df81a9b	0.121144496
218	0xbe9a4985	-0.30134216
219	0xbe1acc41	-0.15116979
220	0x3de6dee5	0.112729825
221	0x3d331a59	0.0437263
222	0x3eb06bcd	0.34457245
223	0x3ee311d1	0.4434953
224	0xbe91478c	-0.28374898
225	0xbdfcaec2	-0.1233802
226	0xbc812e3f	-0.015769122
227	0x3eafdcbc	0.34348094
228	0x3df99d8e	0.12188254
229	0x3ebde35a	0.37087518
230	0x3e167c9f	0.14695977
231	0x3d97c114	0.074098736
232	0x3cc922a1	0.024552645
233	0x3ed6f241	0.419817
234	0xbe911b2a	-0.28341037
235	0x3d83453b	0.06409689
236	0x3f99055e	1.1954763
237	0xbefb79fe	-0.4911651
238	0xbdaf7006	-0.08566289
239	0xbe0afc9a	-0.13572922
240	0xbe5ec175	-0.21753486
241	0xbe5f9e82	-0.2183781
242	0x3f8ed79e	1.1159551
243	0xbe8cc48b	-0.274937
244	0xbd903c43	-0.07042744
245	0x3e166685	0.14687546
246	0xbd005468	-0.031330496
247	0xbe0a9a37	-0.13535391
248	0x3f35d761	0.7103177
249	0x3f6147c4	0.8800013
250	0xbeb59ee2	-0.3547278
251	0xbe726261	-0.23670341
252	0xbae4f46d	-0.0017467864
253	0xbea9d7f7	-0.3317258
254	0x3e05c62a	0.13063875
255	0xbe2fba44	-0.17160898

actor.0.bias f4 [64]
0	0x3f079c38	0.52972746
1	0xbe2142e6	-0.15748176
2	0x3ef5c961	0.48005202
3	0xbb86c115	-0.0041123726
4	0x3c446739	0.011987501
5	0x40015191	2.0206034
6	0x3f7515e1	0.9573651
7	0x3d374e05	0.04475214
8	0x4075e280	3.8419495
9	0xbf41a566	-0.75643003
10	0xbbec1d8b	-0.0072056702
11	0x3ff53d20	1.9159279
12	0xbf3e960d	-0.7444771
13	0xbea1ac83	-0.31576928
14	0x3d6e8da1	0.058240537
15	0x3f4b9b04	0.7953341
16	0x3e589505	0.21150596
17	0x322370aa	9.513466e-09
18	0x3f6b92a1	0.9202061
19	0x3f80047b	1.0001367
20	0xbe4135b3	-0.18868141
21	0xb88b6179	-6.646192e-05
22	0xbf10eb94	-0.56609464
23	0x39a09e4a	0.00030635513
24	0x3f8fb511	1.1227132
25	0x3f04795d	0.51747686
26	0xbe7d1020	-0.24713182
27	0xbf2c313e	-0.6726264
28	0x3e39f772	0.18160799
29	0x3eddcac4	0.4331876
30	0xbbbaf988	-0.005706016
31	0x3ea3389e	0.31879133
32	0x3e44e7f6	0.19229111
33	0x3ce5cdc3	0.028052216
34	0xbfeba1ee	-1.8408792
35	0xbf2b348e	-0.6687707
36	0x3eb7c6d3	0.35893878
37	0x3d24fc4a	0.040279664
38	0x35173ef1	5.6343475e-07
39	0xbf05bd00	-0.52241516
40	0xbfd89b37	-1.6922368
41	0xbec08421	-0.37600806
42	0xbd73aeb8	-0.059492797
43	0x3dfb1770	0.1226033
44	0x36cd05b0	6.110138e-06
45	0x3f1fb69f	0.6238803
46	0x3eab1ad0	0.33418894
47	0xbd8dcdb2	-0.06923999
48	0x3e6e748e	0.2328665
49	0xbd839085	-0.06424049
50	0x3f71ad01	0.9440461
51	0xbf21b997	-0.6317381
52	0x3f6eaad9	0.9322944
53	0xbe0c354a	-0.13692203
54	0xbeac433c	-0.33645046
55	0x3f8e14aa	1.1100056
56	0xbf993690	-1.1969776
57	0x3e98aaa2	0.29817683
58	0x3c97fc8d	0.018553043
59	0xbe6b008a	-0.22949424
60	0x3d7de9d3	0.06199057
61	0xbf7e9463	-0.9944517
62	0xb60a8f48	-2.0647003e-06
63	0xb863649c	-5.4214717e-05

actor.2.weight f4 [64, 64]
0	0xbe813ed4	-0.25243247
1	0xbe4bca07	-0.19901286
2	0xbdba5341	-0.09097911
3	0xbdb46bad	-0.088096
4	0xbd24e858	-0.040260643
5	0x3ea83924	0.32856095
6	0xbdb1bb25	-0.08678273
7	0xbe1d5d44	-0.1536761
8	0xbb14e2a4	-0.0022718096
9	0xbe0bf128	-0.13666213
10	0x3e395a6c	0.181009
11	0xbe53e7ad	-0.20693846
12	0xbcf203ac	-0.029542767
13	0x3da4c965	0.080462255
14	0xbd48eef7	-0.04905602
15	0xbe99ac7a	-0.30014402
16	0xbd8fed47	-0.07027679
17	0x3ea24f56	0.31701154
18	0xbe398516	-0.18117175
19	0xbe3672b1	-0.17817189
20	0xbe51d392	-0.20490864
21	0xbdcb7439	-0.09934277
22	0x3bd62e98	0.006536316
23	0xbdab8673	-0.083752535
24	0xbd825b8c	-0.063651174
25	0xbf0027ef	-0.50060934
26	0xbd2f89d5	-0.042856056
27	0x3e83cb43	0.25741014
28	0xbd78aff1	-0.060714666
29	0xbd043347	-0.032275464
30	0xbe01eca2	-0.12687925
31	0x3e8d8d4c	0.27646863
32	0x3f1124af	0.566966
33	0x3c9c4e0e	0.019080188
34	0x3f488938	0.7833438
35	0x3ed0f4f8	0.40811896
36	0x3e33fdca	0.17577282
37	0xbe5d3132	-0.21600798
38	0x3d4a40b5	0.049378116
39	0x3dcd83c1	0.10034896
40	0x3e998ef4	0.29991877
41	0x3d5b7d7b	0.053586464
42	0xbd8f44a5	-0.06995515
43	0xbd65eccd	-0.056134034
44	0xbd8804ed	-0.066415645
45	0x3d5d7f6b	0.054076593
46	0xbe32e4e7	-0.17470132
47	0x3df2c891	0.11854661
48	0xbb535d11	-0.0032251517
49	0xbea6ab08	-0.3255236
50	0xbe9323de	-0.28738302
51	0x3e3cb4d9	0.18428363
52	0xbe912048	-0.2834494
53	0x3e00fcdf	0.12596463
54	0x3ed4cb66	0.4156143
55	0xbe22d47f	-0.15901373
56	0xbd3c5b95	-0.045985777
57	0xbcb74c80	-0.022375345
58	0xbd95b655	-0.07310168
59	0x3ef59588	0.47965646
60	0x3d300865	0.042976756
61	0x3e75973a	0.2398347
62	0x3dc2004d	0.094727136
63	0xbe0df6af	-0.13863634
64	0x3ec402e0	0.38283443
65	0x3ecd67ba	0.401182
66	0xbeb07f8f	-0.3447232
67	0xbd23ec49	-0.04002026
68	0xbd82969f	-0.06376385
69	0xbe14e25f	-0.14539479
70	0x3dbbd9f0	0.09172428
71	0x3da0fa7a	0.078602746
72	0xbdf13345	-0.11777357
73	0x3e9eba59	0.31001547
74	0xbea932ab	-0.3304647
75	0x3e8de4b9	0.27713564
76	0x3eee5b17	0.4655387
77	0x3e58121c	0.21100658
78	0xbe7aa4d1	-0.24476935
79	0x3e850ba8	0.25985456
80	0xbd221333	-0.03956909
81	0x3e07011c	0.13184017
82	0xbd5b388a	-0.053520717
83	0x3d7afd72	0.06127686
84	0x3e0e20a4	0.13879639
85	0xbb96e2f3	-0.004604691
86	0x3e4ee2b3	0.20203666
87	0xbe1eb0b4	-0.15497094
88	0xbe5845c5	-0.21120365
89	0xbebc3d05	-0.36765304
90	0x3e216d12	0.15764263
91	0x3ee34804	0.4439088
92	0xbd5c40f4	-0.05377288
93	0xbf007291	-0.50174814
94	0x3e17cad2	0.14823464
95	0x3e837611	0.25676015
96	0xbec4911f	-0.3839197
97	0x3e99168f	0.29900023
98	0xbd34a81b	-0.04410563
99	0x3df24642	0.11829807
100	0x3da231da	0.07919665
101	0xbe7d694f	-0.24747203
102	0xbd33b05c	-0.04386936
103	0x3eef8507	0.4678118
104	0xbdc0ad82	-0.09408094
105	0x3e2ea176	0.1705378
106	0xbcb63607	-0.02224256
107	0xbe974c3b	-0.29550347
108	0x3da389fa	0.07985301
109	0xbf1f6a88	-0.6227193
110	0xbdc27ef4	-0.09496871
111	0xbe1aff52	-0.1513646
112	0x3f1474cf	0.57990736
113	0xbbd0dd54	-0.0063740406
114	0xbe8cb137	-0.27478954
115	0x3e0c3096	0.13690409
116	0x3e8290b1	0.25501016
117	0x3eff2caf	0.49838778
118	0x3dfc378e	0.12315284
119	0xbe66bab0	-0.22532153
120	0xbe0c42cb	-0.13697354
121	0x3e49b05a	0.19696179
122	0xbd32d72d	-0.04366224
123	0x3e844845	0.25836387
124	0xbe0c2ebb	-0.13689701
125	0xbe0821e4	-0.13294178
126	0xbe950183	-0.29102716
127	0xbe39c3d7	-0.18141113
128	0x3e808269	0.25099495
129	0xbde1818e	-0.11011039
130	0x3e806550	0.25077295
131	0xbcabbb83	-0.020963436
132	0x3e7a91a5	0.24469621
133	0xbeca6b46	-0.39534968
134	0x3d8b8a0e	0.06813441
135	0x3e256f9e	0.1615586
136	0xbf2086ed	-0.6270588
137	0xbecf531f	-0.40493104
138	0x3e3a49e3	0.18192248
139	0xbebd135f	-0.3692884
140	0xbf2af881	-0.66785437
141	0xbe8153ee	-0.25259346
142	0x3ed15cfb	0.4089125
143	0xbec5a141	-0.3859959
144	0x3e2d6bc1	0.16935636
145	0xbdc02630	-0.09382284
146	0xbe9b2847	-0.30304167
147	0xbdb7a6fa	-0.08967395
148	0xbe42d6fb	-0.19027321
149	0xbe97a732	-0.29619747
150	0x3f18fd79	0.5976177
151	0xbea58b5e	-0.3233289
152	0xbd80bb84	-0.06285766
153	0x3e2e0307	0.16993342
154	0xbe1d84d5	-0.15382703
155	0xbf031e86	-0.5121845
156	0xbdb24fa2	-0.08706595
157	0xbeb657d7	-0.3561389
158	0xbd68ce0c	-0.056837127
159	0x3e3d65a5	0.18495806
160	0xbe7bc0ad	-0.24585219
161	0x3eb60e94	0.35557997
162	0x3ed1e09e	0.40991682
163	0xbe80edd2	-0.25181442
164	0xbe35ed4b	-0.17766301
165	0x3e6e20c5	0.23254688
166	0x3e009c89	0.12559713
167	0xbe4ce684	-0.2000981
168	0x3e3bb6d6	0.18331465
169	0x3d70eefa	0.058821656
170	0x3c49bbee	0.012312872
171	0x3eb64b99	0.3560455
172	0x3dec812a	0.115480736
173	0xbd210b94	-0.039317682
174	0xbcc51354	-0.024057068
175	0xbe15b813	-0.14621
176	0xbe9d9f7b	-0.30785736
177	0xbe508911	-0.20364787
178	0x3eb3bbb4	0.35104144
179	0xbdec70ce	-0.11544953
180	0x3ea68ed5	0.32530847
181	0xbebf4238	-0.37355208
182	0xbd24b3aa	-0.040210404
183	0x3a4c8cf7	0.0007802988
184	0x3e823d70	0.25437498
185	0xbece00e4	-0.40235054
186	0x3e14f6e6	0.1454731
187	0xbe244b37	-0.16044317
188	0xbe2fde03	-0.17174534
189	0x3e598977	0.21243845
190	0x3d9fb6aa	0.07798512
191	0x3e95cc77	0.29257557
192	0x3f0b7675	0.54477626
193	0x3e538f57	0.20660149
194	0xbe8497e8	-0.25897145
195	0xbdc8bf56	-0.098021194
196	0x3d23f546	0.040028833
197	0x3eff3636	0.49846047
198	0x3bc31236	0.0059530986
199	0x3cab1d85	0.0208881
200	0x3ee4dd44	0.44700062
201	0x3e830b26	0.25594443
202	0xbe88d7ec	-0.26727235
203	0xbda9d740	-0.08293009
204	0x3e209c06	0.15684518
205	0xbc4173fb	-0.011807437
206	0xbe499e31	-0.19689251
207	0x3e03db82	0.12876704
208	0xbd393510	-0.04521662
209	0x3d2890a9	0.041153584
210	0x3ddd8227	0.1081584
211	0x3e8fe43f	0.28103825
212	0xbd9e2bba	-0.07723184
213	0xbec8dcdc	-0.39231002
214	0xbeda0dfe	-0.425888
215	0x3c5e31c5	0.013561671
216	0x3f127b6a	0.57219565
217	0x3f14b5b0	0.58089733
218	0xbe187ca4	-0.14891297
219	0xbf96e0a7	-1.1787308
220	0x3e6a4349	0.2287723
221	0x3eaea284	0.34108365
222	0x3d645daf	0.055753406
223	0xbe3f6afb	-0.18693154
224	0xbcd6f21b	-0.026238492
225	0xbdf38b0f	-0.11891758
226	0x3ce17841	0.027523162
227	0xbe534228	-0.20630705
228	0x3e0ac9d1	0.1355355
229	0x3d0613f0	0.032733858
230	0x3d80c6e8	0.06287938
231	0x3e80a9ae	0.25129455
232	0x3e97ee90	0.29674196
233	0xbe6f94fa	-0.23396674
234	0x3e7e8eef	0.24859212
235	0xbd8aa296	-0.06769292
236	0x3c7de5c5	0.015496676
237	0x3e74441f	0.23854111
238	0x3d93294e	0.071856126
239	0xbe1afccb	-0.15135495
240	0x3da49fa0	0.080382586
241	0xbe8e8a2a	-0.27839786
242	0xbf8842d0	-1.064539
243	0xbeffd662	-0.4996825
244	0x3db1d2be	0.08682774
245	0xbdca0574	-0.09864321
246	0xbcb518a6	-0.02210648
247	0x3e532b3f	0.20621966
248	0xbf248308	-0.6426244
249	0x3e535556	0.20638022
250	0xbead1cf6	-0.33811158
251	0xbd39c7e5	-0.04535665
252	0xbe109967	-0.14121018
253	0xbee6369e	-0.44963545
254	0xbd2a2f20	-0.04154885
255	0xbe5c981d	-0.21542402

actor.2.bias f4 [64]
0	0xbc810567	-0.015749646
1	0x3bf31a50	0.007418908
2	0x3d99a822	0.07502772
3	0x3cbc3afc	0.022977345
4	0x3e323355	0.17402394
5	0x3be0c7cf	0.0068597565
6	0xbd9f999b	-0.0779297
7	0xbec3d782	-0.38250357
8	0xbcbfff18	-0.023437068
9	0x3e2a4a49	0.166299
10	0xbe81c5b1	-0.2534614
11	0x3d9df6b3	0.0771307
12	0xbe9d8af1	-0.30770066
13	0x3c8751cb	0.016518494
14	0xbdad6a23	-0.084675096
15	0xbd65d037	-0.056106772
16	0xbeb57d1e	-0.3544702
17	0x3cbd6138	0.023117647
18	0x3e4a3694	0.19747382
19	0x3e0b9ffc	0.13635248
20	0x3d24d5da	0.040243007
21	0x3e7412b1	0.23835255
22	0xbd016af1	-0.031596128
23	0xbe625433	-0.22102432
24	0xbd7ddd4c	-0.061978623
25	0x3e363282	0.17792705
26	0xbd17a559	-0.037022922
27	0x3d295957	0.041344967
28	0x3e1dad0d	0.15398045
29	0x3e2e4d51	0.17021681
30	0xbe3c1bf5	-0.1837004
31	0xbe82570f	-0.25457045
32	0xbd9bcb01	-0.07607079
33	0xbd8aea95	-0.06783024
34	0xbda5b9e1	-0.08092094
35	0xbd9b7f95	-0.07592694
36	0xbd8d9657	-0.06913441
37	0xbe50f69d	-0.20406576
38	0x3dd09c3a	0.10186048
39	0xbdc6fd08	-0.09716231
40	0x3cc7d956	0.024395626
41	0xbe5baa2e	-0.21451637
42	0xbe2e201d	-0.17004438
43	0x3de4a198	0.11163634
44	0xbd75a858	-0.059975
45	0xbe01fdef	-0.12694524
46	0xbd09e5c4	-0.033666387
47	0xbd657609	-0.05602077
48	0xbd9f9c8f	-0.07793533
49	0x3dfc2ff2	0.12313832
50	0xbe23ac89	-0.15983786
51	0x3d6ecde0	0.058301806
52	0xbe6486cd	-0.22317047
53	0x3e696366	0.22791824
54	0x3d646b79	0.055766556
55	0xbd1026e4	-0.03519334
56	0xbd41a486	-0.047276042
57	0x3d4785de	0.04871165
58	0xbc022be4	-0.007945035
59	0xbe2f0f26	-0.17095622
60	0x3dcf07cb	0.10108908
61	0xbd9c7064	-0.07638624
62	0x3d08eaa9	0.033426914
63	0xbdedca8f	-0.116109006

actor.4.weight f4 [2, 64]
0	0xbe0468b5	-0.12930568
1	0xbe1447c4	-0.14480501
2	0xbc8dc9b1	-0.017308088
3	0x3d62da41	0.055383924
4	0xbcae46bc	-0.021273963
5	0x3e9692fc	0.29409015
6	0x3c3cb06a	0.01151667
7	0x3e3946ac	0.18093365
8	0xbda895a4	-0.08231667
9	0xbe21d9a9	-0.15805687
10	0x3e317a8c	0.17331904
11	0x3e3fb57c	0.18721575
12	0x3e190ca7	0.14946233
13	0xbb0f9c06	-0.0021913066
14	0x3e618d18	0.22026479
15	0x3c7af6c3	0.015317622
16	0x3f294e38	0.6613498
17	0x3b575004	0.003285409
18	0xbdb96925	-0.09053258
19	0xbdc71682	-0.0972109
20	0x3dbcea46	0.092243716
21	0xbdd18eeb	-0.102323376
22	0xbd61819e	-0.055055253
23	0x3e2c75da	0.16841832
24	0x3c110a45	0.008852546
25	0x3d01be3d	0.031675566
26	0xbc1b28c8	-0.009470172
27	0xbe6f509c	-0.23370594
28	0xbca69463	-0.020334428
29	0x3dc57625	0.09641675
30	0xbdb7f3e3	-0.089820646
31	0x3db79c25	0.08965329
32	0x3c398d2e	0.011325164
33	0xbe5f2d14	-0.2179454
34	0xbd8d83b0	-0.06909883
35	0x3ecd0734	0.40044558
36	0x3b6eb016	0.0036420873
37	0x3df120fb	0.11773869
38	0x3dbe12d8	0.09280938
39	0x3d337ca0	0.043820024
40	0xbc29f9a7	-0.010374463
41	0xbbe38a8e	-0.0069440072
42	0x3a52c005	0.00080394774
43	0x3d9f9c84	0.07793525
44	0x3de74845	0.11293081
45	0xbd77af0b	-0.06046967
46	0x3e9561c0	0.2917614
47	0x3e30fa1d	0.1728291
48	0xbda6d44c	-0.08145961
49	0x3bfc85fb	0.0077064014
50	0x3dd87097	0.1056835
51	0x3c4c2857	0.01246079
52	0x3dda943a	0.10672803
53	0xbe2095ae	-0.15682098
54	0xbe3d66a0	-0.1849618
55	0xbe008a5d	-0.12552781
56	0xbe344e1d	-0.17607923
57	0x3e0a506a	0.13507238
58	0xbe69208d	-0.22766323
59	0xbc5e8e9d	-0.013583806
60	0x3c75fc2d	0.015013737
61	0x3cc56b16	0.024098914
62	0xbe0700fd	-0.13183971
63	0xbcc625fc	-0.024188034
64	0x3e0321ed	0.1280591
65	0x3e13348b	0.14375512
66	0x3c743c1b	0.014906908
67	0xbd6071ec	-0.054796144
68	0x3cb3f7de	0.021968778
69	0xbe95966f	-0.29216334
70	0xbc5cbdfa	-0.013473028
71	0xbe3b64df	-0.18300198
72	0x3da9e8d5	0.08296362
73	0x3e25e1b2	0.16199377
74	0xbe3430c5	-0.17596729
75	0xbe3f5a5a	-0.1868681
76	0xbe1aeae2	-0.15128663
77	0x3b81fd45	0.0039669597
78	0xbe60c9a7	-0.21951924
79	0xbc3b17c2	-0.0114192385
80	0xbf29449e	-0.66120327
81	0xbae2e0d8	-0.001730944
82	0x3db8d3d5	0.09024779
83	0x3dc55b1e	0.0963652
84	0xbdba338a	-0.090918615
85	0x3dce5471	0.100747
86	0x3d6a8ff2	0.057266183
87	0xbe2eec17	-0.17082249
88	0xbc0a7b2a	-0.008452216
89	0xbd03f8d9	-0.03221974
90	0x3c19b427	0.009381331
91	0x3e717cba	0.23582736
92	0x3c96b69d	0.018397624
93	0xbdc676ad	-0.09690604
94	0x3db8535f	0.09000277
95	0xbdb37ac3	-0.08763649
96	0xbc3a466d	-0.01136933
97	0x3e5e71fd	0.2172317
98	0x3d8be3f7	0.0683059
99	0xbecf167f	-0.4044685
100	0xbb24dab4	-0.0025154771
101	0xbdeffdf5	-0.1171836
102	0xbdc0d4e8	-0.09415609
103	0xbd2ebb0d	-0.042658854
104	0x3c329c12	0.010901468
105	0x3c221024	0.009891544
106	0xb974d1ad	-0.00023347764
107	0xbda74030	-0.0816654
108	0xbde5077d	-0.11183069
109	0x3d6d995b	0.05800758
110	0xbe95e2f0	-0.29274702
111	0xbe30abba	-0.17253008
112	0x3da8deba	0.08245607
113	0xbbdb2875	-0.0066881725
114	0xbdd7a253	-0.10529008
115	0xbc54c620	-0.01298669
116	0xbdde3909	-0.10850722
117	0x3e224539	0.15846719
118	0x3e3d82f4	0.18506986
119	0x3dfe59bc	0.12419459
120	0x3e351365	0.1768318
121	0xbe080233	-0.13282089
122	0x3e6b6384	0.22987181
123	0x3c6cda78	0.014456384
124	0xbca4ada3	-0.020102328
125	0xbcc49098	-0.023994729
126	0x3e05d1f6	0.13068375
127	0x3ccaa136	0.024735074

actor.4.bias f4 [2]
0	0x3da2ea7e	0.07954882
1	0xbda2eb8a	-0.07955082
